src/models/charlie_parker/runs/Dec03-18_22:21:30/generator_state.pt (torch_old, 467187 bytes, 7 tensors)

embedder.weight f4 [89, 64]
0	0x3f0900b2	0.53516686
1	0xbecb1b49	-0.39669254
2	0xbf19a82a	-0.60022223
3	0xbe812df2	-0.25230366
4	0x3f35bb50	0.7098894
5	0xbf0e6ac9	-0.5563169
6	0xbf11a998	-0.56899405
7	0xbddb0ae7	-0.10695439
8	0x3e8cec1d	0.2752389
9	0xbdf9b7b7	-0.12193244
10	0x3f0ae10a	0.5424963
11	0x3e48be3b	0.19603817
12	0xbf08447b	-0.5322949
13	0x3f019e1f	0.506319
14	0xbf2197a0	-0.63121986
15	0x3ec690d8	0.38782382
16	0xbe9f5d1c	-0.31125724
17	0xbd72992f	-0.05922812
18	0x3e85f2f4	0.2616192
19	0xbef084fe	-0.46976465
20	0xbeca0090	-0.39453554
21	0x3ed35964	0.41279137
22	0x3e97ee58	0.2967403
23	0x3f03fbe2	0.5155622
24	0xbeec1d35	-0.46116033
25	0x3e43edba	0.19133654
26	0xbe9df349	-0.30849674
27	0xbd49928c	-0.049212024
28	0x3edf0fb5	0.4356667
29	0xbddab538	-0.10679096
30	0xbead5ce8	-0.33859944
31	0xbe16833c	-0.146985
32	0xbc5003f9	-0.01269626
33	0x3ea3f26e	0.32020897
34	0x3e7434a7	0.2384821
35	0x3f579a45	0.8421977
36	0xbe49b8b8	-0.19699371
37	0xbe180618	-0.14846075
38	0xbe88885b	-0.2666653
39	0xbea8e5c7	-0.32987806
40	0xbe829ea5	-0.2551166
41	0xbf19c9ba	-0.60073435
42	0x3e122873	0.14273243
43	0x3de01f29	0.10943443
44	0x3e823b2c	0.2543577
45	0xbea0736e	-0.31338066
46	0xbe59e4e8	-0.21278727
47	0xbe19770c	-0.14986819
48	0xbe9b43a7	-0.30325052
49	0x3f1e5bb6	0.6185869
50	0xbf12e4cf	-0.57380384
51	0xbeaf2a0a	-0.3421176
52	0x3d3c24c4	0.0459335
53	0x3ea088da	0.3135441
54	0x3e7c8a6d	0.2466218
55	0x3db00a2f	0.08595692
56	0x3e5bd0bb	0.21466343
57	0xbed3b92b	-0.4135221
58	0xbee93d21	-0.4555445
59	0x3f1e4f6b	0.6183993
60	0x3e9a4f25	0.30138507
61	0xbf35e6de	-0.710554
62	0x3dbc5496	0.09195821
63	0x3ec86888	0.3914225
64	0x3ceb10ca	0.02869453
65	0x3caa426a	0.020783622
66	0x3cc56fba	0.024101127
67	0xbbf921f0	-0.0076029226
68	0xbd156ec3	-0.036482584
69	0x3c84ab9e	0.016195115
70	0x3ca1f6a6	0.019770931
71	0xbbc28d28	-0.0059372373
72	0xbc90470a	-0.017611999
73	0xbbd1de98	-0.006404709
74	0x3c447b8c	0.0119923465
75	0xbb00c8d0	-0.0019650944
76	0xbd1af0a3	-0.037827145
77	0xbc2c4e68	-0.01051674
78	0x3c585e84	0.013206128
79	0x3cb54072	0.022125456
80	0xbd1829c6	-0.037149213
81	0x3cefbe12	0.029265437
82	0x3d3501cb	0.044191163
83	0xb9e82980	-0.00044281408
84	0xbbf69930	-0.0075255856
85	0x3cff40a6	0.031158756
86	0x3ccb1502	0.02479029
87	0xbbc68d10	-0.0060592964
88	0xbd21599d	-0.039392103
89	0x3d3f0361	0.04663408
90	0xbb86d190	-0.0041143373
91	0xbce3e953	-0.027821219
92	0x3c3cbf68	0.011520244
93	0xbcf468d7	-0.029835148
94	0xbcc118bd	-0.023571366
95	0x3c46a774	0.012124885
96	0x3c405eb8	0.011741333
97	0x3c60071c	0.01367357
98	0xbd343b30	-0.044001758
99	0xbd1d8f1d	-0.03846656
100	0x3ccd0436	0.025026422
101	0x3c1aac94	0.00944056
102	0xbd2b3843	-0.041801702
103	0x3d2e66b1	0.042578403
104	0x3c99347e	0.018701788
105	0x3d4bb83d	0.04973625
106	0x39083600	0.00012990087
107	0x3d15718f	0.03648525
108	0x3cf3d172	0.029762957
109	0x3d472d21	0.048627023
110	0x3ced9d52	0.02900568
111	0x3d313759	0.043265674
112	0xbd2fa5af	-0.042882618
113	0xbd1362c6	-0.03598287
114	0x3d35fd99	0.044431303
115	0xbb274f20	-0.002552934
116	0x3c89863a	0.016787637
117	0x3d161d5d	0.036649097
118	0xbd2c868b	-0.042120498
119	0xbc14ae88	-0.009074815
120	0xbd2c7d43	-0.042111646
121	0x3d385e8b	0.04501204
122	0x3cb1a5fe	0.021685597
123	0xbc98f4cc	-0.018671416
124	0x3b122400	0.002229929
125	0x3cd14806	0.025547039
126	0x3c581914	0.013189573
127	0x3a8c0560	0.0010682754
128	0xbd224435	-0.03961583
129	0x3c120a80	0.008913636
130	0xbcd29ce0	-0.02570957
131	0x3c948cc2	0.018133525
132	0xbca0626d	-0.019578183
133	0x3d3a8d15	0.045544703
134	0xbd391d9f	-0.045194265
135	0x3cd49f3a	0.025954831
136	0x3d43be37	0.047788825
137	0xbc146dcc	-0.009059381
138	0xbbdbbf68	-0.006706167
139	0x3bc33380	0.005957067
140	0x3cf4e1be	0.029892799
141	0x3c0958f8	0.008383028
142	0x3d0f1a97	0.034937467
143	0x3a7cf680	0.00096497685
144	0x3d38c41b	0.045108896
145	0x3d02676b	0.03183691
146	0xba2d8380	-0.00066190213
147	0xbbbde000	-0.005794525
148	0xbd2b7513	-0.041859698
149	0xbc59abd4	-0.013285596
150	0xbbbb92e8	-0.0057242997
151	0x3d288ab1	0.04114789
152	0x3cdfe626	0.027331423
153	0xbd3b84ad	-0.045780826
154	0xbd051f15	-0.032500345
155	0x3d365735	0.04451676
156	0x3c92d77a	0.017925013
157	0x3d4c5869	0.049889002
158	0xbd09bb2a	-0.03362576
159	0xbd29e01d	-0.041473497
160	0xbc968abc	-0.0183767
161	0xbce98463	-0.02850551
162	0x3d2f4473	0.042789888
163	0x3c63653c	0.013879117
164	0x3d28428f	0.0410791
165	0xbd36b672	-0.044607587
166	0x3b4c5630	0.0031179301
167	0xbcf487f7	-0.02984999
168	0x3d126045	0.03573634
169	0x3bf32d80	0.0074211955
170	0x3bd1fa30	0.0064079985
171	0x3ca0bcb2	0.019621227
172	0xbd3d0fa3	-0.04615749
173	0xbd15c52e	-0.036565
174	0x3cee874e	0.029117253
175	0xbcb21687	-0.021739257
176	0xbcc3150d	-0.023813749
177	0xbccf0e17	-0.025275273
178	0xbc307a88	-0.010771401
179	0xbca995aa	-0.020701248
180	0xbb5647a0	-0.00326965
181	0x3aeb0ea0	0.0017933436
182	0xbc93a440	-0.018022656
183	0xbcc99967	-0.02460928
184	0x3b0f1580	0.0021832883
185	0x3ca8b15a	0.02059238
186	0x3c0cadd4	0.008586366
187	0x3c4f497c	0.012651797
188	0x3c8e7ba2	0.017392937
189	0x3d3f3bf5	0.04668804
190	0x3d053189	0.032517944
191	0xbd0ee413	-0.034885477
192	0xbb29ca00	-0.0025907755
193	0x3c47deac	0.012199085
194	0x3d482969	0.048867617
195	0xbcaaa04d	-0.02082839
196	0xbd113c1b	-0.03545771
197	0xbb57f7b0	-0.003295403
198	0xbc1bdfec	-0.009513836
199	0xbc997226	-0.018731188
200	0xbcffb9dd	-0.031216556
201	0x3d080209	0.033205066
202	0xbce79e2a	-0.02827366
203	0x3c4225e0	0.01184985
204	0xbc9f939d	-0.019479567
205	0xbc894886	-0.016758215
206	0x3d3aec6d	0.04563563
207	0xbcf925c0	-0.030413508
208	0x3acdc800	0.0015699863
209	0x3d2a21bb	0.041536074
210	0x3c84d6f2	0.016215775
211	0xbc96139a	-0.018319894
212	0xbd25c903	-0.040474903
213	0x3b9c48d0	0.004769422
214	0xbcd58873	-0.02606604
215	0x3d4b4391	0.049624983
216	0xbc8f272a	-0.01747473
217	0x3d4bc501	0.049748424
218	0xbbd05d10	-0.00635875
219	0x3cf13e42	0.029448632
220	0x3c893d56	0.01675288
221	0xbcbdae97	-0.02315454
222	0xbbe8b250	-0.0071013346
223	0xb9363800	-0.00017377734
224	0x3cebe126	0.028793883
225	0x3ca31366	0.01990671
226	0xbd25d47d	-0.040485848
227	0xbd1bc370	-0.03802818
228	0x3d34e229	0.044160996
229	0x3af555a0	0.0018717535
230	0xbb9f0c50	-0.0048537627
231	0x3cf3b35a	0.029748607
232	0xbd1fc602	-0.039007194
233	0x3bde6d80	0.0067879558
234	0xbcf2a133	-0.029617881
235	0xbc8a7edc	-0.016906194
236	0x3cdcee4a	0.026969094
237	0xbcd5cfe0	-0.0261001
238	0x3c40d758	0.011770092
239	0x3d23523d	0.03987335
240	0xbc8ddcc6	-0.017317187
241	0x3c7b2b84	0.015330199
242	0xbd395aed	-0.04525273
243	0xbd067904	-0.032830253
244	0xbca40463	-0.020021623
245	0x3c70084c	0.014650416
246	0xbb4e9750	-0.0031523295
247	0xbb9488a8	-0.0045328923
248	0xbd3fe330	-0.046847522
249	0xbc784d6c	-0.015155178
250	0xbd3e8c4a	-0.04652051
251	0x3d03b941	0.032159094
252	0x3b7a77b0	0.0038218312
253	0x3d454bc5	0.048167963
254	0xbce99c53	-0.028516924
255	0xbd193270	-0.037401617

lstm.weight_ih_l0 f4 [512, 64]
0	0x3e0d9602	0.13826755
1	0x3d262429	0.04056183
2	0xbf106a71	-0.56412417
3	0xbea0f565	-0.3143722
4	0x3f82895b	1.0198168
5	0xbef713a5	-0.48257175
6	0xbf19cc4d	-0.60077363
7	0x3e5785aa	0.21047083
8	0xbd25dc2c	-0.040493175
9	0x3e80e766	0.25176543
10	0x3f359b82	0.7094041
11	0xbea9ae65	-0.33140865
12	0xbea78f28	-0.32726407
13	0x3f374cde	0.71601665
14	0xbedc558b	-0.43034014
15	0x3c909007	0.017646803
16	0xbd650497	-0.05591258
17	0x3e8f6c21	0.28012183
18	0xbded9c5f	-0.11602091
19	0xbdc78d46	-0.09743743
20	0x3d88c55e	0.0667827
21	0x3ea8f22a	0.32997257
22	0x3e5f223b	0.21790402
23	0x3c87a0ae	0.01655611
24	0x3c64ac0d	0.013957036
25	0xbd44ddf5	-0.048063237
26	0xbe7126b8	-0.23549926
27	0x3ee57fb3	0.4482399
28	0x3ed95f85	0.42455688
29	0x3e31a1b7	0.17346846
30	0xbe0dab3f	-0.13834856
31	0x3dce239e	0.10065387
32	0x3f0a43a7	0.5400948
33	0xbda6704c	-0.08126888
34	0xbe80ecab	-0.25180563
35	0x3f6ca1e0	0.924345
36	0x3e24cf4e	0.16094705
37	0x3e31fcb2	0.17381552
38	0x3e5ce5ad	0.2157199
39	0xbed9d6e9	-0.42546776
40	0x3dedaa63	0.11604764
41	0xbdf92093	-0.12164416
42	0xbed45a75	-0.41475263
43	0xbf1f2542	-0.62166226
44	0x3c54ad2a	0.012980739
45	0x3de24ac9	0.110494204
46	0x3e737fce	0.23779222
47	0x3e70ef8c	0.2352888
48	0xbf0d4307	-0.551804
49	0x3f5e0e75	0.8674081
50	0xbf30424d	-0.68851167
51	0x3c1407c4	0.009035055
52	0xbe5718d0	-0.21005559
53	0x3e25beda	0.16186085
54	0xbe436536	-0.19081578
55	0xbeaf217a	-0.34205228
56	0xbda8badc	-0.082387656
57	0xbf065562	-0.52474034
58	0xbe72fc23	-0.23728995
59	0x3f4f366d	0.8094242
60	0xbd6f7eaf	-0.058470424
61	0xbf358f61	-0.70921904
62	0xbeca86b6	-0.395559
63	0x3e7b21d2	0.2452462
64	0x3f512915	0.8170331
65	0xbf42f4f3	-0.7615501
66	0xbeb77fbb	-0.35839638
67	0xbcb45db9	-0.022017347
68	0x3f90f919	1.1326019
69	0xbec3ee29	-0.3826764
70	0xbf479f0f	-0.7797708
71	0x3ea4113e	0.32044405
72	0xbe6eda49	-0.23325457
73	0x3ed1491c	0.4087609
74	0x3ee08447	0.4385092
75	0xbe8e1ce5	-0.2775642
76	0xbebc51d5	-0.36781183
77	0x3e9cf7d1	0.3065782
78	0xbf8576a7	-1.0426835
79	0x3f0161c5	0.5053981
80	0xbde827c9	-0.113357134
81	0x3f3f9dea	0.7485033
82	0x3e94967c	0.2902106
83	0xbede9e9e	-0.4348039
84	0xbf625e1c	-0.8842485
85	0xbc0fe098	-0.008781575
86	0x3cb11840	0.021618009
87	0x3fa555b7	1.2916783
88	0xbf09dff8	-0.53857374
89	0x3d791a48	0.06081608
90	0xbe0a9e3f	-0.13536929
91	0x3e81a436	0.25320596
92	0x3e185c75	0.1487902
93	0x3d624711	0.055243555
94	0xbf98b6de	-1.1930807
95	0x3ec11f0c	0.37719
96	0x3eec5f99	0.46166685
97	0x3e4bec74	0.19914418
98	0x3e876f4f	0.2645211
99	0x3f5c65af	0.86092657
100	0xbd92b3df	-0.07163214
101	0xbef28836	-0.47369546
102	0xbe9cda58	-0.30635333
103	0xbf1e728b	-0.6189353
104	0x3e2256f7	0.15853487
105	0xbf66c4ae	-0.9014386
106	0xbebf7696	-0.3739516
107	0xbeae8590	-0.34086275
108	0xbf2ecb7d	-0.6827925
109	0xbf8d8ca0	-1.105854
110	0x3e4ce22d	0.20008154
111	0x3f1bfb8e	0.60930717
112	0x3e9fa681	0.3118172
113	0x3f8f43b4	1.1192536
114	0xbf0dff45	-0.55467635
115	0xbeeb0bff	-0.4590759
116	0xbe60cbc7	-0.21952735
117	0x3ef53925	0.4789516
118	0xbdc5645c	-0.09638283
119	0xbfa90acf	-1.3206424
120	0xbf1b808b	-0.60743016
121	0xbec1b563	-0.378337
122	0xbe7a9463	-0.24470668
123	0x3f31365d	0.69223577
124	0xbd515fab	-0.051116627
125	0xbf68bfb2	-0.90917504
126	0xbea82352	-0.32839447
127	0xbeac1a98	-0.3361404
128	0x3eb509ce	0.35359043
129	0x3e05effd	0.1307983
130	0xbef4d420	-0.4781809
131	0xbf1293c2	-0.5725671
132	0x3f706b8d	0.9391411
133	0xbf19e3c9	-0.601132
134	0xbf2b270a	-0.66856444
135	0x3e0a75da	0.1352152
136	0x3f12c9e5	0.57339317
137	0x3f60c94c	0.87807155
138	0x3f2eddeb	0.6830737
139	0x3e8da5fa	0.27665693
140	0xbedae9bd	-0.42756453
141	0x3f189737	0.59605736
142	0xbf581531	-0.84407336
143	0x3dd466ff	0.103712074
144	0x3d7d8033	0.06188984
145	0x3ee808b5	0.45319143
146	0xbe20fc91	-0.15721346
147	0xbe7ffe4c	-0.2499935
148	0xbeb44100	-0.3520584
149	0x3e9c9e68	0.30589604
150	0x3e27bc59	0.16380443
151	0x3e9ee1c5	0.31031623
152	0xbd6ae346	-0.05734565
153	0x3eb7f573	0.3592945
154	0xbea17082	-0.3153115
155	0x3f311b2d	0.6918209
156	0x3f11038d	0.56646043
157	0x3e332f4b	0.1749851
158	0xbf01cba7	-0.50701374
159	0x3f315c67	0.6928162
160	0x3f0132fc	0.5046842
161	0x3eb07ab4	0.34468615
162	0x3ef9c83d	0.48785582
163	0x3f731099	0.949472
164	0x3ed8d235	0.42347875
165	0x3e0d2489	0.13783468
166	0xbe5eed1f	-0.21770142
167	0xbec41bc5	-0.38302436
168	0xbe104380	-0.14088249
169	0xbe9e8759	-0.30962637
170	0xbe834e85	-0.25645843
171	0xbf0652c8	-0.52470064
172	0xbe9d46ef	-0.3071818
173	0x3d43ddfd	0.047819126
174	0xbea2ab4d	-0.31771317
175	0x3dd2f7e4	0.10301188
176	0xbf13536c	-0.57549167
177	0x3e9d6c1c	0.30746543
178	0xbf0d8d34	-0.55293584
179	0x3d39272c	0.045203373
180	0x3e654a13	0.22391538
181	0xbdd0f737	-0.102034025
182	0x3e55ef19	0.2089199
183	0xbf1624d7	-0.58649963
184	0x3e81c6fc	0.25347126
185	0xbf0cd8f5	-0.5501855
186	0xbf12802b	-0.5722682
187	0x3ef90394	0.48635542
188	0x3f431b80	0.76213837
189	0x3d45e5ba	0.048314787
190	0xbefc0726	-0.49224204
191	0x3f0d3adb	0.5516793
192	0x3e971da8	0.29514813
193	0xbe88ca59	-0.2671688
194	0xbefcb4f9	-0.4935682
195	0x3e0fbc2c	0.14036626
196	0x3f8fab8b	1.1224226
197	0xbef88057	-0.48535416
198	0xbf061cc9	-0.5238767
199	0x3eed54bc	0.4635371
200	0x3e51d534	0.20491487
201	0x3f1e03d7	0.6172461
202	0x3f3c699f	0.73598665
203	0xbf70cc4d	-0.9406174
204	0xbe9bd568	-0.30436254
205	0x3eebde91	0.46068242
206	0xbf2c45b9	-0.6729389
207	0xbed272f6	-0.41103333
208	0xbe024e80	-0.12725258
209	0x3f3d2379	0.7388225
210	0xbeda15d7	-0.42594787
211	0xbeb8dc00	-0.36105347
212	0x3ea9f7d5	0.33196893
213	0xbe20af8a	-0.15691963
214	0x3d885b7e	0.06658076
215	0xbd1cb188	-0.038255244
216	0x3d07e37c	0.03317593
217	0x3dc56e8c	0.09640226
218	0xbf2563d7	-0.6460547
219	0x3f0d44e7	0.5518326
220	0x3f2c3684	0.67270684
221	0x3f207cdd	0.62690526
222	0xbf36b7e8	-0.7137437
223	0x3ef8654c	0.48514783
224	0x3f4cb09a	0.7995697
225	0x3e6b86a5	0.23000582
226	0xbe3c4c7f	-0.18388556
227	0x3f61ab9b	0.88152474
228	0x3f0cb230	0.5495939
229	0x3de582b1	0.11206568
230	0x3e404c6a	0.1877915
231	0x3b57e689	0.0032943806
232	0x3e81cb2e	0.25350326
233	0xbf0fdd94	-0.56197476
234	0xbf3d6803	-0.73986834
235	0xbf8dc075	-1.1074358
236	0x3c7a38ef	0.015272363
237	0x3d0203ef	0.031742033
238	0x3d506785	0.050879974
239	0x3e2e25ae	0.17006561
240	0xbcfc0494	-0.030763902
241	0x3f64c9c3	0.89370364
242	0xbe963210	-0.2933507
243	0xbe76d544	-0.24104792
244	0xbf184fc1	-0.59496695
245	0x3df215e7	0.11820584
246	0xbe86974e	-0.2628731
247	0xbf58cb96	-0.8468565
248	0xbf64a303	-0.89311236
249	0x3d6832bd	0.056689013
250	0xbf1fb09b	-0.62378854
251	0x3f33d621	0.7024861
252	0x3e9a178e	0.30096096
253	0xbf34ff1e	-0.7070178
254	0xbf3a9159	-0.7287803
255	0x3f0d1b47	0.55119747

lstm.weight_hh_l0 f4 [512, 128]
0	0xbc41bdad	-0.011825007
1	0xbd96c148	-0.07361084
2	0x3d421ec4	0.04739262
3	0x3da61dc3	0.08111145
4	0x3bd9826c	0.006637862
5	0xbe02254b	-0.12709539
6	0x3dec4383	0.11536314
7	0xbdf452bd	-0.119298436
8	0x3c8fd2de	0.017556604
9	0x3cd9c8f9	0.026585089
10	0x3d033710	0.032034934
11	0xbd402646	-0.0469115
12	0x3b9f7e01	0.0048673158
13	0x3d53815d	0.051637042
14	0x3d96893f	0.07350396
15	0x3d37dc73	0.04488797
16	0x3ded28bc	0.11580035
17	0xbd35d9a8	-0.044397026
18	0xbd101599	-0.035176847
19	0xbe08a9b2	-0.13345984
20	0xbeac89f9	-0.33699015
21	0x3de9cf18	0.11416453
22	0x3d77f8d1	0.060540024
23	0x3c19438b	0.009354482
24	0x3d5eb171	0.05436844
25	0x3de20a06	0.11037068
26	0x3d73b8a1	0.059502248
27	0x3ec903c5	0.39260688
28	0x3be0f79f	0.0068654562
29	0xbdbff219	-0.09372348
30	0x3d87c339	0.06629033
31	0xbe162dac	-0.1466586
32	0xbde6c195	-0.112673916
33	0xbcf9fe83	-0.030516868
34	0xbc97c7dd	-0.01852792
35	0xbd93e5b4	-0.07221547
36	0xbe0913da	-0.13386479
37	0xbe8325d7	-0.25614807
38	0x3c5da2ec	0.013527613
39	0xbbec10ab	-0.0072041354
40	0x3d516633	0.051122855
41	0xbcce43be	-0.025178786
42	0xbe3373de	-0.17524669
43	0x3d854885	0.06507973
44	0x3d88a3fe	0.06671904
45	0x3c943779	0.018092858
46	0xbea6c73e	-0.32573885
47	0xbd9b8be0	-0.075950384
48	0x3ddf70f6	0.109102175
49	0xbde3640b	-0.11103066
50	0x3d870bc7	0.06594043
51	0x3dbec9f4	0.09315863
52	0xbe968477	-0.29397938
53	0xbd8bf95d	-0.06834672
54	0x3ef574ba	0.47940618
55	0x3dc7343c	0.0972676
56	0x3ec24ad5	0.37947717
57	0x3c2862f2	0.010277497
58	0x3c1ebe58	0.009688936
59	0xbc7f0cef	-0.015567048
60	0x3dde572a	0.10856469
61	0xbe0cf34c	-0.13764685
62	0x3c9d7a94	0.019223489
63	0x3db446e6	0.08802585
64	0x3d2824f2	0.04105086
65	0xbde4b1cc	-0.111667246
66	0xbc87f257	-0.016595049
67	0x3db4e246	0.08832221
68	0xbdb9c3ce	-0.0907055
69	0x3db8e070	0.09027183
70	0xbd8c7c41	-0.06859637
71	0x3e04fafe	0.12986371
72	0xbd09de63	-0.03365935
73	0x3ce76604	0.028246887
74	0xbc3608c0	-0.011110485
75	0xbd2813a3	-0.041034352
76	0x3dbd86bd	0.09254215
77	0x3e1a85f2	0.15090159
78	0x3d914768	0.07093698
79	0xbd18a404	-0.037265792
80	0xbd86aafc	-0.065755814
81	0x3ea655ca	0.32487327
82	0xbd949505	-0.07254986
83	0x3e692257	0.22767006
84	0x3ced42e1	0.028962554
85	0xbdb1d575	-0.08683292
86	0xbd122f58	-0.03568968
87	0x3c4dd7de	0.012563674
88	0xbdbfc247	-0.09363227
89	0x3e8358c8	0.25653672
90	0x3dce2796	0.10066144
91	0xbd2e42c1	-0.04254413
92	0xbd924091	-0.07141221
93	0x3d8d5989	0.06901843
94	0x3c47e261	0.012199969
95	0xbe9c186b	-0.3048738
96	0x3c883d9b	0.016630938
97	0xbb35ab97	-0.0027720684
98	0xbd315cbd	-0.043301333
99	0x3bff6a6b	0.0077946684
100	0x3e8fd608	0.2809298
101	0x3e079f51	0.13244368
102	0x3cfb98ec	0.030712567
103	0xbd4d8ff2	-0.050186105
104	0x3e099a60	0.13437796
105	0x3e0cb1a7	0.13739644
106	0x3dcbccd1	0.09951175
107	0x3cd9a0a8	0.026565865
108	0x3ee0ea16	0.43928593
109	0xbd56b67d	-0.052420128
110	0xbcbf5abb	-0.023358693
111	0xbcdef6d4	-0.027217306
112	0x3ccd2b06	0.02504493
113	0x3c9ee17a	0.019394625
114	0x3be62f41	0.007024676
115	0x3f039328	0.5139642
116	0xbc61ca13	-0.013781088
117	0x3d5ce82a	0.053932346
118	0x3da303a0	0.07959676
119	0x3d43fa0c	0.047845885
120	0x3cf5e31a	0.030015517
121	0xbd97446c	-0.07386097
122	0x3cb78a25	0.02240474
123	0x3cd100f2	0.025513146
124	0xbcd77350	-0.026300102
125	0xbdc3b154	-0.09555307
126	0xbd9ee52c	-0.07758555
127	0x3d9c277e	0.0762472
128	0xbcbdc2a5	-0.023164103
129	0x3cadc129	0.02121027
130	0x3c2b826f	0.0104681095
131	0x3de6a9c8	0.11262852
132	0xbd2f8d60	-0.042859435
133	0xbd9a955f	-0.075480215
134	0x3d3da29c	0.046297655
135	0x3d4954f7	0.049153294
136	0x3ccbfeeb	0.024901828
137	0x3d1999c9	0.037500177
138	0xbc6a314d	-0.014293981
139	0xbde824b3	-0.11335125
140	0x3e032cb0	0.12810016
141	0x3ca8f83d	0.020626182
142	0x3dae770c	0.085188
143	0x3d2ce2ee	0.042208605
144	0x3e9c0868	0.30475163
145	0x3e4e5278	0.20148647
146	0xbd8c3f85	-0.06848053
147	0xbe059804	-0.1304627
148	0xbd84174b	-0.06449755
149	0x3d79929f	0.060930844
150	0x3ca86ec6	0.020560633
151	0xbd895764	-0.067061216
152	0x3d14ac90	0.03629738
153	0xbd7725fe	-0.060338967
154	0x3d94a524	0.072580606
155	0x3e6815ac	0.22664517
156	0x3cbd4946	0.023106229
157	0x3b133605	0.0022462618
158	0xbce1d5d1	-0.027567776
159	0x3d3d7fa7	0.046264317
160	0xbd1c551c	-0.038167104
161	0xbb61561f	-0.0034383608
162	0x3cf6c7f2	0.030124638
163	0xba8a5fb1	-0.0010557083
164	0xbe0d9d54	-0.13829547
165	0xbdd07988	-0.1017943
166	0x3acb0bd6	0.0015491198
167	0x3d1a5d90	0.037686884
168	0xbe1fb801	-0.15597536
169	0xbd4f8344	-0.050662294
170	0xbcd728f7	-0.02626465
171	0x3df17ac7	0.11790996
172	0xbd789177	-0.0606856
173	0x3e3eb9ed	0.18625613
174	0xbe97b633	-0.29631194
175	0xbe673b37	-0.22581182
176	0x3ce1dffa	0.02757262
177	0xbc651d51	-0.01398404
178	0xbd2dc258	-0.04242167
179	0x3daea48d	0.08527479
180	0xbd89e7b1	-0.06733645
181	0x3d5824c2	0.05276943
182	0x3d71e5ac	0.059056923
183	0x3d2eb6a1	0.042654637
184	0x3de99567	0.11405449
185	0x3dabafb2	0.083831206
186	0xbc4eeeaa	-0.012630144
187	0x3d66b92c	0.056328937
188	0xbc3ff491	-0.011716024
189	0x3e177cb6	0.14793667
190	0x3dad0cde	0.0844972
191	0x3e4bd6d3	0.19906168
192	0x3c7a30bc	0.015270408
193	0xbc79b15b	-0.015240039
194	0x3daf4352	0.08557762
195	0x3e7649a4	0.24051529
196	0xbdfa4247	-0.12219673
197	0x3cbf8bae	0.023382034
198	0xbc9f2c69	-0.019430356
199	0xbe9ff92e	-0.31244797
200	0x3de0f6a8	0.10984546
201	0xbcbd394a	-0.023098607
202	0x3bb583dc	0.0055394005
203	0xbd77f6c7	-0.06053808
204	0x3e1e661a	0.15468636
205	0x3dfd0ffa	0.12356563
206	0x3d6bb403	0.05754472
207	0xbdf84c99	-0.12123985
208	0xbd890007	-0.06689458
209	0x3ea8503c	0.32873714
210	0xbdaba391	-0.08380807
211	0x3ea21522	0.31656748
212	0x3c9ec9f3	0.019383406
213	0xbdead628	-0.11466628
214	0xbba9c837	-0.005181338
215	0x3d25331f	0.040331956
216	0xbca39017	-0.019966168
217	0x3e3410a5	0.17584474
218	0x3d840ef5	0.06448165
219	0xbd2697d0	-0.040672123
220	0xbd35f49a	-0.044422723
221	0x3da29927	0.07939368
222	0xbcdd2b15	-0.026998082
223	0xbef7d219	-0.4840248
224	0xbd224bd2	-0.03962309
225	0x3d5463a2	0.05185283
226	0xbe0c651a	-0.13710442
227	0x3cbab2e6	0.022790384
228	0x3b4d93b0	0.0031368546
229	0xbd86897e	-0.06569193
230	0x3d3235e5	0.04350843
231	0xbdca5227	-0.098789506
232	0xbccd4960	-0.025059402
233	0x3d4da275	0.05020376
234	0xbd731bc3	-0.059352648
235	0x3db01ed8	0.08599633
236	0x3e1c146e	0.15242168
237	0xbd293f7b	-0.041320305
238	0x3d2f5a08	0.04281047
239	0xbd8d5286	-0.06900506
240	0xbbcb21b8	-0.006199088
241	0xbd259d37	-0.040433135
242	0x3dc1a38f	0.094550245
243	0x3e191768	0.14950335
244	0xbb7f0c87	-0.003891738
245	0x3e2d9a63	0.16953425
246	0xbc49d909	-0.012319812
247	0x3e08ada7	0.13347493
248	0xbce0af60	-0.027427375
249	0xbc8997b0	-0.016795963
250	0xbccd3779	-0.025050865
251	0xbd885d43	-0.06658413
252	0xbc766ca6	-0.015040552
253	0xbdfa7fa8	-0.1223138
254	0xbda8f23b	-0.08249327
255	0xbc8a6c1c	-0.016897254

lstm.bias_ih_l0 f4 [512]
0	0x3f37dd5e	0.71822155
1	0x3e1529d9	0.14566745
2	0x3e5f28a5	0.21792848
3	0x3e4efba6	0.20213184
4	0x3f4a3458	0.7898612
5	0x3e1265e3	0.14296679
6	0x3e512b85	0.20426758
7	0x3e307eb3	0.17235832
8	0x3d9c6ac4	0.076375514
9	0x3e615ec6	0.2200881
10	0x3e4bc198	0.19898069
11	0x3ec5a0af	0.38599154
12	0x3ea79292	0.32729012
13	0x3e0b38de	0.13595912
14	0x3ea00a78	0.31257987
15	0x3e9f0d20	0.310647
16	0x3f3c535e	0.7356471
17	0x3ee4d964	0.44697106
18	0x3f47c5d1	0.7803622
19	0x3e40dbb7	0.18833815
20	0x3f082d3f	0.5319404
21	0x3dfe32ae	0.1241201
22	0x3e61013c	0.21973127
23	0x3e14b7a1	0.14523174
24	0x3e620a7a	0.22074309
25	0x3eb24392	0.34817177
26	0x3dfd6acd	0.12373886
27	0x3f50bae0	0.8153515
28	0x3df6213e	0.12018059
29	0x3eecc369	0.46242836
30	0x3e46455a	0.19362393
31	0x3ec8a197	0.39185783
32	0x3e404d03	0.18779378
33	0x3e491195	0.19635613
34	0x3e17ea82	0.14835551
35	0x3f00197b	0.5003888
36	0x3e9b2cc8	0.30307603
37	0x3f5d5342	0.86455166
38	0x3e8cc055	0.27490488
39	0x3e6aa804	0.22915655
40	0x3f62d9f5	0.88613826
41	0x3e1160fb	0.14197151
42	0x3e5081d6	0.20362028
43	0x3e8c530c	0.2740711
44	0x3ed9982f	0.4249892
45	0x3eded1c3	0.4351941
46	0x3eda6fec	0.42663515
47	0x3f10ec6a	0.5661074
48	0x3e63942a	0.22224489
49	0x3db7582a	0.08952363
50	0x3e22d2de	0.15900752
51	0x3e4426f2	0.19155481
52	0x3f0082ab	0.50199383
53	0x3df5c776	0.12000935
54	0x3f0de38b	0.5542533
55	0x3eb849b4	0.3599373
56	0x3f19076d	0.59776956
57	0x3e3ba52b	0.18324725
58	0x3e57e7dd	0.21084543
59	0x3e2bef70	0.16790557
60	0x3efbb429	0.4916089
61	0x3f2940df	0.6611461
62	0x3e3c3923	0.18381171
63	0x3ed8a5be	0.4231395
64	0x3f0f4f60	0.5598049
65	0x3e415d0e	0.18883154
66	0x3e6fa635	0.23403247
67	0x3ec28c11	0.37997487
68	0x3e6a3071	0.22870041
69	0x3f4d81e5	0.8027633
70	0x3f119988	0.56874895
71	0x3f3c1c5f	0.7348079
72	0x3ea9fdca	0.33201438
73	0x3e1a8668	0.15090334
74	0x3e674cc1	0.22587873
75	0x3e836c80	0.25668716
76	0x3ed51b1b	0.41622242
77	0x3ef0ae5a	0.4700802
78	0x3ee909a8	0.4551518
79	0x3e83c0fd	0.25733176
80	0x3e1f3698	0.1554817
81	0x3ee603e7	0.44924852
82	0x3e6e8961	0.23294593
83	0x3ecbc181	0.3979607
84	0x3dd9c631	0.10633505
85	0x3f80762d	1.0036064
86	0x3e1da4ce	0.15394899
87	0x3e4f1560	0.20222998
88	0x3e083dd2	0.13304833
89	0x3efc33aa	0.49258167
90	0x3ec0184c	0.37518537
91	0x3e310a49	0.1728908
92	0x3ed025d9	0.40653875
93	0x3e5adffd	0.21374507
94	0x3e80db9e	0.25167555
95	0x3f4b0944	0.79311013
96	0x3e651ab9	0.22373475
97	0x3e6b61ce	0.22986528
98	0x3ed6d983	0.41962823
99	0x3e182824	0.14859062
100	0x3f3b94ed	0.7327412
101	0x3e93b3d9	0.2884815
102	0x3e2959c7	0.16538154
103	0x3e4ae0d3	0.19812326
104	0x3e4a21a5	0.19739397
105	0x3e8dfbb0	0.27731085
106	0x3e51aff6	0.2047728
107	0x3ea37284	0.31923306
108	0x3f1461c1	0.5796166
109	0x3f69fa88	0.91397905
110	0x3e6d6adb	0.23185293
111	0x3f2b73a8	0.6697335
112	0x3ed457ac	0.41473138
113	0x3ea62fcb	0.32458338
114	0x3f20fc58	0.62885046
115	0x3f2b412f	0.6689634
116	0x3e4d86dd	0.20070978
117	0x3f0d0512	0.5508586
118	0x3df544bd	0.119760014
119	0x3e9edbb4	0.31026995
120	0x3f3e2d28	0.7428765
121	0x3e7bd1f3	0.24591808
122	0x3f0b5af5	0.54435664
123	0x3e11b30c	0.14228457
124	0x3e3e864d	0.18605919
125	0x3f08de0d	0.5346382
126	0x3eb8c1ba	0.36085302
127	0x3f0aa6e1	0.54160887
128	0xbcf6edea	-0.030142743
129	0x3b87c0b2	0.004142844
130	0x3dac0e5b	0.084011756
131	0xbcc902c9	-0.02453746
132	0xbd53b6d9	-0.05168805
133	0xbd0ac25f	-0.033876773
134	0xbd45773c	-0.048209414
135	0x3da98a30	0.0827831
136	0xbc859093	-0.01630429
137	0xbb1c6617	-0.0023864561
138	0xbc34c6c8	-0.011033721
139	0x3c33c917	0.0109732365
140	0x3d046b7b	0.032329064
141	0x3d6e11f0	0.058122575
142	0x3d37b4e0	0.04485023
143	0xbdab68ea	-0.0836962
144	0xbdcc5169	-0.09976465
145	0x3dbf0c73	0.093285464
146	0xbd892440	-0.06696367
147	0xbc08ba6c	-0.008345228
148	0x3e128cb5	0.14311488
149	0x3de43c97	0.11144369
150	0x3d769ca1	0.060207967
151	0x3d77d24c	0.06050329
152	0xbd977e03	-0.07397082
153	0x3c7fbe8f	0.015609398
154	0x3a9f2007	0.0012140282
155	0x3deead82	0.11654188
156	0x3d72227a	0.05911491
157	0xbd2764c7	-0.040867593
158	0x3cd4b5c8	0.025965586
159	0x3d242382	0.040072925
160	0xbd091a5b	-0.0334724
161	0x3cd15013	0.025550878
162	0xbccc0ac7	-0.024907483
163	0xbca107b3	-0.019656992
164	0x3b20c570	0.0024531744
165	0xbbe67208	-0.0070326366
166	0xbc560ff7	-0.01306533
167	0x3d68b57b	0.0568137
168	0x3c5b8676	0.013398757
169	0x3ab04d4e	0.0013450773
170	0x3d1cb78c	0.03826098
171	0x3d75854c	0.059941575
172	0x3d214045	0.039367933
173	0xbdb66d27	-0.08907538
174	0x3cfe0d54	0.031012215
175	0xbd2fa568	-0.042882353
176	0xbcf67667	-0.030085756
177	0xbbf54657	-0.007485192
178	0x3ccddfa0	0.025131047
179	0x3d04cc22	0.03242124
180	0x3e1c9c3a	0.1529397
181	0x3d549400	0.051898956
182	0x3d4484e0	0.047978282
183	0xbe07df83	-0.13268857
184	0x3e387fe4	0.18017536
185	0xbdaac8fb	-0.08339115
186	0xbda93c6d	-0.082634784
187	0xbc6a093c	-0.014284428
188	0x3d50ff2a	0.051024593
189	0xbdbc1f3c	-0.09185645
190	0xbdbb4638	-0.091442525
191	0xbdfcab9d	-0.1233742
192	0xbd98f98a	-0.07469471
193	0x3dc0287c	0.09382722
194	0xbd2f0623	-0.04273046
195	0xbce8c189	-0.028412597
196	0xbdb53365	-0.08847693
197	0xbd6deb3f	-0.058085676
198	0xbe180b78	-0.14848125
199	0x3ded8ea7	0.115994744
200	0xbe0e3ec6	-0.13891134
201	0xbbb11c8c	-0.0054050144
202	0xbd450f5e	-0.04811036
203	0xbc8a43ef	-0.016878096
204	0xbd81219d	-0.06305239
205	0x3c99d070	0.018776149
206	0xbde1dc2d	-0.11028323
207	0xbd4dc7c9	-0.050239358
208	0x3d81ceb6	0.06338255
209	0xbdac39da	-0.08409472
210	0xbd6e30b8	-0.05815193
211	0xbd4cf636	-0.050039493
212	0xbce71b33	-0.028211212
213	0xbe039516	-0.1284984
214	0xbcf12560	-0.029436767
215	0xbda2d1f6	-0.07950203
216	0x3cc82ee8	0.02443643
217	0xbdc0dfa0	-0.09417653
218	0xbd0e01e4	-0.03466977
219	0xbb2425fc	-0.0025047055
220	0xbceb3a7c	-0.028714411
221	0xbcbbf9b0	-0.022946209
222	0xbc8bc4ed	-0.017061675
223	0xbc2b4b92	-0.010455029
224	0x3d2ab472	0.041675992
225	0xbd65edd4	-0.056135014
226	0x3b4a06ed	0.0030826882
227	0xbcef7de8	-0.029234841
228	0xbd999746	-0.07499556
229	0x3d71d768	0.059043318
230	0x3d204d04	0.039135948
231	0xbce61f57	-0.028091116
232	0x3cd8cdd8	0.026465341
233	0xbcba2c23	-0.022726124
234	0x3d5baf10	0.05363375
235	0x3c69833d	0.014252481
236	0x3e44b600	0.19210052
237	0xbd5beda8	-0.053693444
238	0xbd3efe34	-0.046629146
239	0xbdc8f5de	-0.098125204
240	0xbcf1dab6	-0.029523235
241	0xbc867fca	-0.016418356
242	0xbc59a828	-0.0132847205
243	0x3da0f9ba	0.078601316
244	0x3ca66719	0.020312833
245	0xbdc1527b	-0.0943956
246	0xbdb59d7a	-0.08867927
247	0xbd46ab60	-0.04850328
248	0xbd688c1f	-0.056774255
249	0xbd2bb633	-0.041921806
250	0xbe0ea3c1	-0.13929655
251	0x3d58499a	0.052804567
252	0xbd590eb3	-0.052992534
253	0xbd963b5f	-0.07335543
254	0xbe1efe65	-0.15526731
255	0xbdb51874	-0.08842555

lstm.bias_hh_l0 f4 [512]
0	0x3f3c0bae	0.7345532
1	0x3e5cfa41	0.2157984
2	0x3e80e90b	0.25177798
3	0x3e6b887f	0.23001288
4	0x3f4f4ad8	0.8097358
5	0x3e03f1c1	0.1288519
6	0x3e74560b	0.23860948
7	0x3e601d94	0.21886283
8	0x3d38081a	0.0449296
9	0x3e92400a	0.28564483
10	0x3e5ad4a7	0.21370183
11	0x3ec63bf8	0.38717628
12	0x3ea8560c	0.3287815
13	0x3e4c49fc	0.19950098
14	0x3eaed634	0.341478
15	0x3e8e85fd	0.278366
16	0x3f43a04c	0.7641647
17	0x3edfa6db	0.43681988
18	0x3f4be5ec	0.7964771
19	0x3e1a3488	0.15059102
20	0x3f0452e7	0.51689
21	0x3e57e34c	0.210828
22	0x3e646ae8	0.22306406
23	0x3de729d8	0.11287278
24	0x3e948195	0.29005113
25	0x3ec98f50	0.3936715
26	0x3df428f4	0.11921874
27	0x3f543426	0.8289207
28	0x3e129d8c	0.14317912
29	0x3ec54909	0.38532284
30	0x3e7ee872	0.24893358
31	0x3ec28f3b	0.379999
32	0x3e6d2592	0.23158863
33	0x3e16f59a	0.14742127
34	0x3df7f47e	0.1210718
35	0x3f0e16a8	0.5550332
36	0x3ec0c6ba	0.37651616
37	0x3f4d8043	0.80273837
38	0x3e8189e2	0.2530051
39	0x3e4ffbb7	0.20310865
40	0x3f5ef913	0.8709881
41	0x3de238cf	0.11045992
42	0x3e7bfbb6	0.24607739
43	0x3e5bb995	0.21457513
44	0x3ecf84bd	0.4053096
45	0x3ee50d68	0.4473679
46	0x3ed5eae8	0.41780782
47	0x3f19acea	0.6002947
48	0x3e527a95	0.20554574
49	0x3e35dacc	0.17759246
50	0x3e398bb2	0.18119696
51	0x3e71d726	0.23617229
52	0x3f03277b	0.5123212
53	0x3daedb2c	0.085378975
54	0x3efee7bf	0.49786183
55	0x3eaceb83	0.3377343
56	0x3f025584	0.50911736
57	0x3e10077e	0.14065358
58	0x3e7631f2	0.2404249
59	0x3e46a9de	0.19400737
60	0x3f03fe11	0.5155955
61	0x3f3adbad	0.7299145
62	0x3e4615b6	0.1934422
63	0x3ee02b03	0.43782815
64	0x3ef9941e	0.48745817
65	0x3e752b68	0.2394234
66	0x3e57c282	0.21070293
67	0x3eb4e4b5	0.3533074
68	0x3e8ff50a	0.28116637
69	0x3f3fc1a6	0.7490486
70	0x3f19710a	0.5993811
71	0x3f39331f	0.7234363
72	0x3ec07056	0.37585706
73	0x3e3937c6	0.18087682
74	0x3e47d2d6	0.19514021
75	0x3e4f9382	0.20271114
76	0x3edfdeff	0.4372482
77	0x3eec16bf	0.46111104
78	0x3edd5310	0.43227434
79	0x3e8e2d1a	0.27768785
80	0x3e544b39	0.2073182
81	0x3efc6b23	0.4930049
82	0x3e6a2588	0.2286588
83	0x3edccd46	0.4312536
84	0x3e0f0f84	0.13970762
85	0x3f80e49b	1.0069765
86	0x3db47fcd	0.088134386
87	0x3e12342f	0.14277719
88	0x3e29ba56	0.16574988
89	0x3f02b0bd	0.5105093
90	0x3ebf6cd3	0.37387714
91	0x3e280333	0.1640747
92	0x3ed2eab2	0.41194683
93	0x3e4bb9c4	0.19895083
94	0x3e3a717b	0.18207352
95	0x3f5aad3c	0.85420585
96	0x3e511cfb	0.20421211
97	0x3e30b7b2	0.17257574
98	0x3ed85694	0.42253554
99	0x3d9e80ed	0.077394344
100	0x3f2c30dc	0.67262053
101	0x3eb40916	0.35163182
102	0x3e406ab9	0.18790711
103	0x3e21d090	0.15802217
104	0x3e6c1499	0.23054732
105	0x3e857319	0.26064375
106	0x3e78e8f7	0.24307619
107	0x3e8a9779	0.2706869
108	0x3f16c4c3	0.58893985
109	0x3f66cb5b	0.90154046
110	0x3e88874c	0.26665723
111	0x3f2c3284	0.6726458
112	0x3ea9358a	0.3304866
113	0x3e70fe6c	0.23534554
114	0x3f23a089	0.6391683
115	0x3f2a4ae8	0.6652055
116	0x3e1ca5e8	0.15297663
117	0x3f0765a6	0.5288948
118	0x3da4d191	0.08047784
119	0x3ea8b410	0.32949877
120	0x3f35f28f	0.7107324
121	0x3e607db4	0.21922952
122	0x3f069621	0.5257283
123	0x3e30cf48	0.17266572
124	0x3e7fa6ed	0.24966021
125	0x3ee6438d	0.44973412
126	0x3ed12d59	0.4085491
127	0x3f0c9b9f	0.5492496
128	0xbcf51ea7	-0.029921843
129	0xbd270ec9	-0.040785585
130	0x3d0ad8a1	0.033898
131	0xbd8975e6	-0.067119405
132	0xbddff1c9	-0.10934789
133	0xbd5a7430	-0.05333346
134	0xbccdf40b	-0.025140783
135	0x3d74a1fb	0.05972479
136	0x3d2498b1	0.04018468
137	0xbd433440	-0.04765725
138	0x3d639619	0.055563066
139	0xbd95687a	-0.07295318
140	0xbd08e422	-0.03342069
141	0xbc5fb537	-0.013654045
142	0x3d7d85d9	0.061895225
143	0xbde9fbe2	-0.11424996
144	0xbd9ce5d6	-0.07661025
145	0x3d8e7677	0.06956189
146	0xbcc531bd	-0.024071569
147	0x3c403faf	0.011733933
148	0x3e5c1e8f	0.21496032
149	0x3d0f445f	0.034977313
150	0xbbc33856	-0.0059576435
151	0x3a179fcb	0.0005784004
152	0xbd0163a6	-0.031589173
153	0x3bef3212	0.00729967
154	0x3cf999b8	0.030468807
155	0x3e0b446e	0.13600323
156	0x3be4ba49	0.0069802147
157	0xbd9c66c5	-0.07636789
158	0x3d6f1511	0.0583697
159	0x3d32d2fb	0.043658238
160	0xbb6c7878	-0.0036082547
161	0x3cab141c	0.020883612
162	0x3c4a59ad	0.012350482
163	0xbcd250d6	-0.025673311
164	0xbc57d951	-0.013174371
165	0xbc09caa1	-0.008410127
166	0xbbef1000	-0.0072956085
167	0x3c9707d2	0.018436346
168	0xbc8d9728	-0.017283991
169	0x3d8dfa47	0.06932502
170	0x3d1dd7e6	0.038535975
171	0x3d8e1d97	0.069392376
172	0x3d2e6c31	0.042583648
173	0xbdd5a34f	-0.10431539
174	0xbd281717	-0.041037645
175	0xbc1c2a42	-0.009531559
176	0xbdb232ea	-0.08701117
177	0x3d526504	0.051365867
178	0xbc6647ef	-0.014055236
179	0xbd25e3f7	-0.040500607
180	0x3e5bd0b4	0.21466333
181	0x3d4eb8b2	0.050469108
182	0xbae12857	-0.001717816
183	0xbdf9ebb8	-0.12203163
184	0x3e5202bc	0.20508856
185	0xbd86734a	-0.065649584
186	0xbd8266ba	-0.0636725
187	0xbd3012de	-0.042986743
188	0x3c5af42c	0.013363879
189	0xbd9bcedf	-0.07607817
190	0xbd917fc3	-0.07104447
191	0xbdcdb487	-0.100441985
192	0xbd824872	-0.06361474
193	0x3d526840	0.05136895
194	0xbda038db	-0.07823344
195	0x3ce576e8	0.0280108
196	0xbdb70ef0	-0.08938396
197	0xbdcf4234	-0.10120049
198	0xbe01b998	-0.12668455
199	0x3e151404	0.14558417
200	0xbe0911c0	-0.13385677
201	0x3d2bc14f	0.0419324
202	0xba29d905	-0.0006479177
203	0xbd53bf8e	-0.051696353
204	0xbdd05315	-0.10172097
205	0x3cb9728a	0.022637624
206	0xbdd8e4cb	-0.10590514
207	0x3ccb165b	0.024790933
208	0x3d4326a9	0.04764429
209	0xbdd2b780	-0.10288906
210	0xbd9d9d94	-0.07696071
211	0x3c82d73e	0.015971776
212	0x3d20e7ee	0.039283685
213	0xbde291c0	-0.11062956
214	0xbcbcd43c	-0.02305042
215	0xbc4d0fce	-0.012515975
216	0x3cc3617d	0.023850197
217	0xbd76fc3f	-0.060299154
218	0xbce5a048	-0.02803053
219	0x3cc271f7	0.023735983
220	0xbd76e543	-0.060277235
221	0xbce30d5c	-0.027716331
222	0xbccbeaf8	-0.024892315
223	0xbd9ec2d1	-0.07752002
224	0xbd19c0d8	-0.037537426
225	0xbcea4da7	-0.02860148
226	0x3d5bd8de	0.053673618
227	0xbcd19d69	-0.025587754
228	0xbd9a74c8	-0.075418055
229	0x3d3f3bde	0.046687953
230	0x3d01af7f	0.031661507
231	0xbd77fc35	-0.060543258
232	0x3db58418	0.088630855
233	0x3c816d9a	0.015799332
234	0x3dbaab01	0.09114648
235	0x3c8b4926	0.017002653
236	0x3e1c11ae	0.1524112
237	0xbd1a3910	-0.037652075
238	0xbd4c78fe	-0.049920075
239	0xbca9c923	-0.020725792
240	0xbca8db17	-0.020612283
241	0xbbbda221	-0.0057871495
242	0xbbbdf9bb	-0.0057975925
243	0x3d474e2f	0.048658546
244	0x3d86c199	0.065798946
245	0xbe196997	-0.14981686
246	0xbcbc4437	-0.022981746
247	0xbd31ab63	-0.043376338
248	0xbde4cf59	-0.11172361
249	0xbd4bda57	-0.049768772
250	0xbdbafcad	-0.09130225
251	0x3bbec5bf	0.005821913
252	0xbd4362f8	-0.047701806
253	0xbbd6c99b	-0.006554795
254	0xbd9e2132	-0.07721175
255	0xbcd22f42	-0.0256573

fc.weight f4 [89, 128]
0	0x3ca20d21	0.019781651
1	0x3f62d0d4	0.88599896
2	0xbf754f5c	-0.9582422
3	0xbfa9457e	-1.3224332
4	0xbe0d6d23	-0.13811164
5	0x3eb76a8d	0.3582348
6	0xbf1abcb4	-0.6044419
7	0x3f57820a	0.841828
8	0xbf68156f	-0.90657705
9	0xbf28927f	-0.65848535
10	0x3e0b8025	0.13623102
11	0xbed9a023	-0.42504987
12	0xbf8d1f31	-1.1025144
13	0xbf238e83	-0.6388933
14	0xbe8913c7	-0.267729
15	0x3f77777c	0.96666694
16	0xbf09e43b	-0.5386388
17	0xbf1a0229	-0.60159546
18	0x3f67ef83	0.9059984
19	0x3f760272	0.9609748
20	0x3fb5a5f0	1.4191265
21	0xbf8063c8	-1.0030451
22	0x3f8a9035	1.0825258
23	0xbf3f0013	-0.7460949
24	0x3e611242	0.21979621
25	0xbf5d7d4f	-0.8651933
26	0xbf89c602	-1.0763552
27	0x3e8ec43c	0.2788409
28	0x3f7c7274	0.9861214
29	0x3e9e681d	0.30938807
30	0xbf51a8aa	-0.81897986
31	0xbf8a1399	-1.0787231
32	0x3f8a7b5b	1.0818895
33	0x3f420c0d	0.7579964
34	0xbf61ea1d	-0.88247854
35	0xbd9ff7b7	-0.0781092
36	0xbea15906	-0.31513232
37	0x3ed0c3b7	0.4077432
38	0xbf3544da	-0.70808184
39	0x3f4d0285	0.8008197
40	0x3d909b17	0.07060831
41	0x3f4b6674	0.79453206
42	0x3f68ae75	0.908912
43	0x3cb2ef1b	0.02184253
44	0x3f754453	0.9580738
45	0xbf397f1b	-0.7245957
46	0x3fb8d0c8	1.4438715
47	0xbe17154d	-0.1475422
48	0xbf914ee3	-1.1352199
49	0x3f3dfaa8	0.74210596
50	0xbf6ca2ad	-0.92435724
51	0xbf7d10b2	-0.988536
52	0x3fd3fe12	1.6561911
53	0x3f668e17	0.9006056
54	0xbffce712	-1.9758017
55	0xbc9f8efb	-0.019477358
56	0xbfd31537	-1.6490849
57	0x3f08d75e	0.53453624
58	0x3f89a382	1.0753024
59	0x3ee3a18c	0.44459188
60	0x3f74aa9c	0.9557283
61	0x3ec9c177	0.39405414
62	0xbf91f44c	-1.1402678
63	0xbfaabcc6	-1.3338859
64	0x3f0eeee5	0.55833274
65	0x3f63406c	0.88770175
66	0xbecd9e4c	-0.40159833
67	0xbf8e91d4	-1.1138253
68	0x3f83b0d3	1.0288337
69	0xbef2f8a3	-0.4745532
70	0xbf767625	-0.96274024
71	0x3f8fff35	1.1249758
72	0xbf67ff28	-0.9062371
73	0xbf3efa4e	-0.74600685
74	0x3f4c4317	0.7978987
75	0xbf8a0a5c	-1.0784411
76	0xbf55b5dc	-0.8348062
77	0xbf1c5d8c	-0.6108024
78	0xbdeb509b	-0.11489984
79	0x3f6687b2	0.90050805
80	0x3f447357	0.76738495
81	0xbfca2f58	-1.5795698
82	0x3f66c982	0.90151227
83	0xbfb8a31e	-1.442478
84	0xbf02f52c	-0.5115535
85	0xbf484fc5	-0.7824672
86	0x3d077206	0.033067726
87	0xbd67b0bf	-0.056565043
88	0x3f9a1e3c	1.2040477
89	0xbfb6a73e	-1.4269788
90	0x3d5ff1b8	0.05467388
91	0x3dc5c8e6	0.09657459
92	0x3eebf670	0.46086454
93	0xbf660c58	-0.89862585
94	0x3ecd8943	0.40143785
95	0x4012d743	2.2943885
96	0x3ed45060	0.4146757
97	0xbf001587	-0.5003285
98	0x3f67f8b8	0.9061389
99	0xbf03e8e3	-0.5152723
100	0xbfbf6568	-1.4952822
101	0xbf057142	-0.5212594
102	0x3eb56cef	0.35434672
103	0x3f23c82b	0.6397731
104	0xbf81f9fd	-1.0154415
105	0x3f8335f5	1.0250841
106	0xbf5b4792	-0.8565608
107	0xbfa004ac	-1.2501426
108	0xbfe28d32	-1.7699339
109	0xbf2d3829	-0.6766382
110	0xbfb9be1e	-1.4511144
111	0x3f7781f8	0.9668269
112	0xbd986126	-0.074404046
113	0x3f7dda33	0.9916107
114	0xbfc23f7f	-1.5175627
115	0xbfc51ad5	-1.5398813
116	0x3f3c7b34	0.73625493
117	0x3f7d115d	0.9885462
118	0xbdf56c02	-0.119834915
119	0x3f34b5f6	0.7059015
120	0x3eed210b	0.46314272
121	0xbf55e41e	-0.83551204
122	0xbf0ea36a	-0.557181
123	0xbf7811f4	-0.96902394
124	0xbf7789ff	-0.9669494
125	0xbf03aa8e	-0.5143212
126	0x3eb9d4b3	0.3629509
127	0xbe1e7d6f	-0.15477537
128	0xbfc3594b	-1.5261625
129	0x3f75f132	0.9607116
130	0xbf65ff12	-0.8984233
131	0xbf81de9c	-1.014606
132	0xbfa32bbd	-1.2747723
133	0x3f2a0b06	0.6642307
134	0xbf65ec00	-0.8981323
135	0x3f5eefa2	0.870844
136	0xbf74d1da	-0.9563271
137	0xbf7d0a99	-0.98844296
138	0xbf038d45	-0.51387435
139	0xbf8c8d1e	-1.0980566
140	0xbf764aed	-0.9620808
141	0xbf845cd6	-1.0340831
142	0xbf23e643	-0.64023226
143	0x3f3d75fb	0.7400815
144	0xbf9a9fc1	-1.2080003
145	0xbf57bcb3	-0.8427231
146	0x3e1d94ae	0.15388748
147	0x3f75b175	0.959739
148	0x3faf0e23	1.3676189
149	0xbf67e21c	-0.9057939
150	0x3f1c7b09	0.61125237
151	0x3e20f51c	0.15718502
152	0xbeea9e36	-0.4582383
153	0xbf8c84da	-1.0978043
154	0xbf729866	-0.9476379
155	0xbf804c3c	-1.0023265
156	0x3f6a95b5	0.91634685
157	0x3f87cef8	1.0610037
158	0xbf944c98	-1.1585875
159	0xbf1c49f7	-0.6105036
160	0x3f553079	0.8327709
161	0x3f7ac679	0.97959095
162	0xbf40853f	-0.7520332
163	0xbef03c92	-0.4692121
164	0xbe07b223	-0.13251548
165	0xbea6f4de	-0.32608694
166	0xbf7e1843	-0.9925577
167	0x3f753f3e	0.95799625
168	0xbf5a3a57	-0.8524527
169	0x3f667139	0.90016514
170	0x3f91ec4d	1.1400238
171	0xbf25c7a8	-0.64757776
172	0x3f5fc07c	0.8740308
173	0xbbad032f	-0.0052799205
174	0x3fbc950f	1.4732989
175	0x3ea46f9f	0.3211641
176	0xbf6848da	-0.9073616
177	0x3f835fca	1.0263608
178	0xbf655dc7	-0.8959622
179	0xbf616582	-0.88045514
180	0x3fd88aa5	1.6917311
181	0x3f6b17be	0.918331
182	0xbf9cbc6d	-1.2245003
183	0xbeeb4abf	-0.45955464
184	0xbfafbaad	-1.3728844
185	0xbe4edb4f	-0.20200847
186	0x3f44ea7c	0.76920295
187	0xbecada5a	-0.39619714
188	0x3ed44a27	0.41462824
189	0xbea29128	-0.3175137
190	0xbf482a6a	-0.7818972
191	0xbfa473a4	-1.2847791
192	0x3e243d08	0.16038907
193	0x3f9416e4	1.1569486
194	0xbf5900e9	-0.84767014
195	0xbf83fde7	-1.031186
196	0x3f81a74e	1.0129182
197	0x3f0d3883	0.55164355
198	0xbf90aa7e	-1.130203
199	0x3f6c3934	0.92274785
200	0xbf3b2f75	-0.7311929
201	0xbf729bdf	-0.9476909
202	0x3f7555c1	0.95833975
203	0xbefdba53	-0.49556217
204	0xbf80b652	-1.005564
205	0xbf8edfc5	-1.1162039
206	0x3ec3166e	0.3810305
207	0x3d932840	0.071854115
208	0x3f7e42ea	0.9932085
209	0xbfb93bb1	-1.4471341
210	0x3f57c376	0.84282625
211	0xbfb58185	-1.4180151
212	0xbf6feedd	-0.9372385
213	0x3f0810c0	0.5315056
214	0x3ef1cf14	0.472283
215	0xbe594f0e	-0.21221563
216	0x3f4b4a14	0.7940991
217	0xbfa0ea9f	-1.2571601
218	0xbf31b182	-0.6941148
219	0x3ee83d58	0.45359302
220	0x3f50d55a	0.8157555
221	0xbf6403eb	-0.8906848
222	0x3f56a674	0.8384774
223	0x3fdd65e8	1.7296724
224	0xbefdcd30	-0.49570608
225	0xbf61df20	-0.88231087
226	0x3f657e28	0.89645624
227	0xbf39f1ad	-0.7263439
228	0xbfa59fc6	-1.2939384
229	0xbf808d4f	-1.0043124
230	0x3f27b5ba	0.6551167
231	0x3f400ef4	0.75022817
232	0xbfa499be	-1.2859418
233	0x3f3dbddd	0.74117833
234	0xbf890904	-1.0705876
235	0xbf687b79	-0.90813404
236	0xbfc55998	-1.5417967
237	0x3e9d7a82	0.3075753
238	0xbf853d3c	-1.0409312
239	0xbd70543c	-0.058674082
240	0x3e40dd2b	0.18834369
241	0x3d18e5a3	0.037328374
242	0xbfc2c82d	-1.5217339
243	0xbfba2794	-1.4543328
244	0x3f3c7f33	0.7363159
245	0x3f088e5f	0.5334224
246	0xbf26f3aa	-0.6521555
247	0x3f039a6e	0.51407516
248	0xbf1e4c68	-0.61835337
249	0xbf078c7b	-0.5294873
250	0x3ecc10e8	0.39856648
251	0xbf7a4442	-0.97760403
252	0xbf291698	-0.660501
253	0x3ea4952a	0.32145053
254	0x3f5e8e54	0.86935925
255	0x3ee28ac9	0.4424651

fc.bias f4 [89]
0	0xbed72aaf	-0.42024752
1	0xbe5b63d5	-0.21424802
2	0xbe83078c	-0.25591695
3	0xbe708315	-0.23487504
4	0xbe968ccc	-0.29404294
5	0xbe605c25	-0.2191015
6	0xbe83ca40	-0.25740242
7	0xbe6e6ba7	-0.23283254
8	0xbe783b7d	-0.24241443
9	0xbe49ac18	-0.19694555
10	0xbe31e318	-0.17371786
11	0xbe3fd422	-0.18733266
12	0xbe6c00ee	-0.2304723
13	0xbe3b5375	-0.18293555
14	0xbe8bccdb	-0.2730473
15	0xbe5334e8	-0.20625651
16	0xbe749643	-0.23885445
17	0xbe62d0d8	-0.2214998
18	0xbe837263	-0.25673208
19	0xbe4bec44	-0.19914347
20	0xbe418aa9	-0.18900551
21	0xbe4bd12e	-0.19904014
22	0xbe7289a6	-0.23685321
23	0xbe42a32a	-0.19007555
24	0xbe54fa9d	-0.20798726
25	0xbe50bf6d	-0.20385523
26	0xbe9a2399	-0.30105284
27	0xbe35bd0d	-0.17747898
28	0xbed0ed68	-0.40806127
29	0xbea3e1ab	-0.32008108
30	0xbee72493	-0.4514509
31	0xbee12567	-0.43973848
32	0xbedc851c	-0.43070304
33	0xbf088e4a	-0.53342116
34	0xbf219be0	-0.6312847
35	0xbf2559ec	-0.64590335
36	0xbf17416b	-0.59084195
37	0xbf0e056a	-0.5547701
38	0xbf52ecb2	-0.8239242
39	0xbf396f47	-0.7243542
40	0xbf394d25	-0.7238334
41	0xbf52950b	-0.8225867
42	0xbf3c216d	-0.73488504
43	0xbf2b9d48	-0.6703687
44	0xbf426c3f	-0.7594642
45	0xbf46190e	-0.7738198
46	0xbf489cf7	-0.7836451
47	0xbf46bc19	-0.77630764
48	0xbf438a4d	-0.76382905
49	0xbf1f2a56	-0.62173975
50	0xbf3bb4d6	-0.7332281
51	0xbf49c057	-0.7880911
52	0xbf3d0691	-0.73838145
53	0xbf483888	-0.7821126
54	0xbf4e00ec	-0.80470157
55	0xbf16e4ea	-0.58943045
56	0xbf1bee49	-0.6091047
57	0xbf124095	-0.57129794
58	0xbf06e152	-0.5268756
59	0xbeddaac4	-0.43294346
60	0xbe6cce77	-0.23125635
61	0xbed4bae2	-0.4154883
62	0xbeb3c0ed	-0.35108128
63	0xbed94cf2	-0.42441517
64	0xbedabfc5	-0.42724434
65	0xbe3a620d	-0.18201466
66	0xbe9e980a	-0.30975372
67	0xbea044d0	-0.313025
68	0xbeaee54d	-0.34159318
69	0xbe7c02e9	-0.24610485
70	0xbe74cb72	-0.23905733
71	0xbe86d972	-0.26337773
72	0xbe5b4d35	-0.21416171
73	0xbe79eef2	-0.24407557
74	0xbe461890	-0.19345307
75	0xbe44b164	-0.19208294
76	0xbe6b9c91	-0.23008944
77	0xbe80a524	-0.25125992
78	0xbe530176	-0.20606026
79	0xbe4371da	-0.190864
80	0xbe822f0c	-0.2542652
81	0xbe3fd94a	-0.18735233
82	0xbe72f0db	-0.23724692
83	0xbe3b2981	-0.18277551
84	0xbe8aa4c6	-0.27078837
85	0xbe8a8a4a	-0.2705863
86	0xbe468495	-0.19386514
87	0xbe666a62	-0.2250152
88	0xbe82e641	-0.25566295
