src/models/bebop/runs/Nov14-18_20:25:49/generator_state.pt (torch_old, 180199 bytes, 7 tensors)

embedder.weight f4 [89, 64]
000000 4d 83 25 3d 94 ca 35 3c 40 04 9b bb f4 37 5d 3c
       0.04040842 0.011095662 -0.0047307312 0.01350211
000010 27 3a 37 3d 05 fa 26 bd cf 13 00 3d 68 99 cb 3b
       0.044733193 -0.04076578 0.03126889 0.006213356
000020 fa 02 ea 3c 92 af bc 3c d0 9f 3e 3b 2e 40 83 3c
       0.028565872 0.023032937 0.0029086955 0.016021814
000030 bc 0c 93 bc c4 48 94 bc 5f 46 44 3d f4 95 89 bc
       -0.017950408 -0.018101104 0.047918674 -0.016795136
000040 67 26 37 3d 16 41 d9 3c 88 5d 4a bc 50 5f a3 3b
       0.044714358 0.026520293 -0.012351401 0.0049857274
000050 e0 41 80 bc e0 41 7e 3b 33 72 18 bd 4e ca de 3c
       -0.015656412 0.0038796589 -0.037218284 0.027196076
000060 b0 f7 54 bb d0 eb b1 bc 2a c9 b1 bc 4d 6d 06 bd
       -0.0032496266 -0.02171889 -0.021702368 -0.03281908
000070 0e 27 83 3c 4c a8 27 3c d8 de bf bb 80 75 80 b9
       0.016009834 0.010232996 -0.0058554225 -0.00024501607
000080 80 60 02 bb 6a 07 01 bd 61 ff 05 3d 8d 17 9f bc
       -0.0019893944 -0.03150121 0.03271425 -0.01942041
000090 18 2e 21 bd 4c 0b 49 3c 82 57 89 3c e0 d0 b7 bc
       -0.0393506 0.01227076 0.01676536 -0.022438467
0000a0 d0 b7 12 bd 75 bd 08 3d 51 d1 00 3d a4 d3 4f 3c
       -0.03581983 0.033383805 0.03144962 0.012684736
0000b0 40 6b e2 3b da 51 c0 bc 2e 50 f6 3c 7d 78 d9 bc
       0.006909758 -0.02347653 0.03006753 -0.026546711
0000c0 02 0e 1b bd 2a 09 e4 3c 7b f0 07 3d c6 da e7 3c
       -0.037855156 0.027836401 0.033188324 0.028302561
0000d0 72 f0 cc 3c 67 2d 46 3d 8f 70 24 3d a2 c2 82 3c
       0.025016997 0.048383143 0.040146407 0.015961949
0000e0 e1 b7 2b 3d 6a 5b d0 bc 20 19 7b 3b 12 10 44 bd
       0.041923407 -0.025434215 0.0038314536 -0.04786689
0000f0 e7 ed d4 bc 10 9e 81 3b 02 3b cd 3c c0 3a f8 3b
       -0.025992347 0.00395561 0.025052551 0.007575363
000100 bd 76 39 bd 4c 26 81 bc 26 52 dc 3c 70 c2 d1 3b
       -0.045279253 -0.015765332 0.02689464 0.0064013526
000110 d7 fb b4 bc 50 82 d1 3b 48 20 3e bc 7f d1 33 bd
       -0.022092743 0.0063937083 -0.011604376 -0.043900963
000120 52 c4 f2 3c 90 0c e8 bc e7 03 48 3d fa f9 cb bc
       0.029634628 -0.028326303 0.048831847 -0.024899472
000130 8a 02 f3 3c 32 7d ac 3c 2c 78 48 bc 70 ba e2 bb
       0.029664297 0.021055792 -0.012235682 -0.0069191977
000140 d3 a4 4b 3d 8c 5e 61 3c 39 40 16 3d da f0 05 bd
       0.049717735 0.013755452 0.03668234 -0.032700397
000150 aa a2 26 bd 90 59 97 bb 00 5e cc bc 60 72 78 bb
       -0.040682472 -0.004618831 -0.024947166 -0.003790997
000160 60 09 9a bc eb 5a 2c 3d 50 f5 64 3b 3a f7 eb 3c
       -0.018803298 0.042078894 0.0034936257 0.02880441
000170 92 db 1a bd f3 47 4b 3d a7 c6 35 3d 00 77 4e 3b
       -0.037807055 0.049629163 0.044378903 0.0031504035
000180 8a bb 9c 3c 24 e8 89 bc 00 c8 2d 39 92 c9 9b 3c
       0.019132394 -0.016834326 0.00016573071 0.019017015
000190 7d 4a 3d bd 40 ad ff bb ec e8 57 3c 63 db 31 3d
       -0.046213616 -0.0078026354 0.0131780915 0.043422114
0001a0 2e b2 cc 3c cc 0c 10 bc b8 c8 4b bc 10 a0 bf 3b
       0.024987306 -0.0087921135 -0.012437992 0.0058479384
0001b0 57 e2 3a bd 0c a1 2c bc 9d 9b 44 3d 40 92 14 bc
       -0.04562601 -0.010536443 0.047999967 -0.009068072
0001c0 18 b8 83 bb a0 55 f0 bc 34 7d 35 3c 7e ec 8d 3c
       -0.0040197484 -0.029337704 0.011077214 0.017324682
0001d0 0e 1c d5 3c 56 ff f4 3c d2 78 04 bd 90 d2 e0 bc
       0.026014354 0.02990691 -0.032341786 -0.027444154
0001e0 18 c3 c5 3b d0 10 ed 3b 9c 61 76 3c 94 e7 1a bc
       0.00603522 0.00723467 0.01503792 -0.009454627
0001f0 32 d0 f9 3c 92 e6 b3 3c 77 4d fb bc e9 b7 31 3d
       0.030494783 0.02196053 -0.030676587 0.04338828
000200 be 91 ab 3c 60 3e 80 bc 32 30 2c bd e3 af 36 3d
       0.020943519 -0.015654743 -0.04203815 0.044601332
000210 90 cb 90 3b 92 33 b6 3c 23 cb 1b 3d b0 fb 88 3b
       0.004418798 0.022241388 0.038035523 0.004180394
000220 22 9e a3 3c 32 01 f6 3c 22 9f e7 3c 58 19 89 bb
       0.019972865 0.030029867 0.028274123 -0.0041839294
000230 2c 65 00 bc 62 ff e6 3c 85 cb 22 3d 56 f6 23 bd
       -0.007836621 0.028197948 0.039744873 -0.040029846
000240 68 f7 46 bd c7 01 41 3d 80 62 ba bc d8 64 23 3c
       -0.04857579 0.047120836 -0.022752047 0.0099727735
000250 63 eb 35 3d 7e 68 e0 3c 7a 1c a5 3c ba 94 dd 3c
       0.044413935 0.027393576 0.02015518 0.027048457
000260 4c 85 20 bc ca ed c8 3c c3 10 15 3d da 68 9d bc
       -0.009797405 0.02452745 0.03639294 -0.019215036
000270 e8 04 74 bc c0 56 f4 3b 7a 93 3c bd ca f5 d9 bc
       -0.014893748 0.0074566305 -0.046039082 -0.02660646
000280 f7 bd 01 3d b3 4f 22 bd 87 3c 31 3d 1c 9c 94 bc
       0.031675305 -0.03962679 0.043270614 -0.018140845
000290 51 75 44 3d 14 d8 03 3c 85 06 0f 3d ae 9a 00 bd
       0.047963444 0.0080471225 0.034918327 -0.031397514
0002a0 88 ed 30 3c e2 57 bd 3c 50 70 cc 3b 6c 0a 54 3c
       0.010798819 0.023113195 0.0062389746 0.012941938
0002b0 e9 95 42 3d a0 47 84 bc 2d 4f f4 bc 72 16 84 3c
       0.047506247 -0.016147435 -0.02982291 0.016123984
0002c0 38 9b 30 bc 92 4e 34 bd 08 4c 07 bc c4 15 67 3c
       -0.0107791945 -0.044020243 -0.008257873 0.01410431
0002d0 37 52 c6 bc 40 60 6b bc 01 0d 3a 3d a4 da 7b 3c
       -0.024209125 -0.0143662095 0.045422558 0.015371952
0002e0 e0 1c 76 bb 20 f6 48 bc 50 98 dc 3b ad 51 08 3d
       -0.0037553832 -0.012265712 0.0067320243 0.033281017
0002f0 58 5f f3 bb 3a e9 fa 3c b0 86 b4 3b c8 7f 1d 3c
       -0.0074271373 0.03062879 0.00550922 0.009612985
000300 0c f4 07 bd 4d 58 f0 bc 89 a2 28 3d 28 52 9f bb
       -0.033191726 -0.02933898 0.04117063 -0.0048620887
000310 10 43 e2 bc 78 bf 3b bd 88 eb 35 3c 6c 8b 28 bc
       -0.027619869 -0.045836896 0.011103518 -0.010287147
000320 cc 1a 67 3c 82 89 9c 3c 2e 7a b0 3c 28 d9 fc bb
       0.01410551 0.019108538 0.021542635 -0.0077163167
000330 f7 c3 42 3d 80 de 16 3c 1a b7 af 3c 60 08 7f 3b
       0.047550168 0.009208322 0.021449614 0.0038914904
000340 8d 65 41 bd 2a 5f d7 3c 50 8d c5 bc 22 a2 86 3c
       -0.047215987 0.026290495 -0.024115235 0.016434733
000350 f1 50 36 3d b2 76 ec 3c 80 8d 9f b9 e8 ed 3a 3c
       0.044510785 0.028865192 -0.0003043227 0.01140926
000360 88 75 04 bc e8 fd 86 3b c8 fc 37 bd d9 4e 27 3d
       -0.008084662 0.0041196235 -0.044918805 0.04084668
000370 0d 4f b5 bc a2 5f 80 3c 21 49 1c 3d d3 58 e2 bc
       -0.02213242 0.015670601 0.03815568 -0.027630245
000380 e2 d1 25 bd e8 61 c4 bb d5 23 3c bd fa 91 9e bc
       -0.040483363 -0.0059931166 -0.04593261 -0.019356716
000390 37 74 38 bd a7 cf ff bc ac 5d 92 bc c0 fe 3d 3a
       -0.045032706 -0.031226946 -0.017866932 0.00072477385
0003a0 b0 d0 3c bb a2 1a f0 3c 38 28 06 bc 04 cb 63 3c
       -0.002881091 0.029309575 -0.0081883 0.013903383
0003b0 17 91 27 3d 80 ea 61 bb 9f e4 40 bd 48 6f 2b 3c
       0.040909853 -0.0034472048 -0.04709303 0.010463543
0003c0 0c 82 16 3c 30 bc 8b 3b 2d be 24 3d 45 ef 0a 3d
       0.009186279 0.004264377 0.04022043 0.03391959
0003d0 97 38 fc bc 99 9e 0e 3d d4 95 3d 3c a1 6d 27 3d
       -0.030788703 0.03481922 0.011571366 0.040876035
0003e0 00 44 73 3a d7 25 43 bd 28 0b 19 bc 83 ad 13 3d
       0.0009279847 -0.04764351 -0.009341039 0.036054146
0003f0 ec 15 8d bc e0 ea 44 3b 00 a2 c2 ba d3 a7 28 3d
       -0.017222367 0.0030047223 -0.0014849305 0.041175675

lstm.weight_ih_l0 f4 [256, 64]
000000 98 2e e5 3b 33 7a 17 bd 6a 78 16 bd 6c 43 77 bc
       0.00699408 -0.036981773 -0.03673593 -0.015091758
000010 f2 7b d8 3c 58 48 ac bb c0 46 a6 3b c5 f0 1b bd
       0.02642629 -0.0052576475 0.005074352 -0.038071413
000020 1e a1 bb 3c 93 ab 25 bd 72 89 c5 3c 36 52 e2 3c
       0.022903975 -0.04044683 0.02411339 0.027627092
000030 3f b6 4a 3d 5f 9c 38 bd e6 b5 8c 3c b8 28 21 bd
       0.04949021 -0.045071002 0.01717658 -0.039345473
000040 10 69 4b bd 00 64 1d bd 52 e7 fe 3c 40 82 92 3a
       -0.049660742 -0.038425446 0.031116161 0.0011177734
000050 30 4f 94 3b 02 64 44 bd 9d ba 16 bd 63 e9 3a 3d
       0.0045260414 -0.047946937 -0.036799062 0.04563273
000060 b4 86 74 bc e2 68 0e bd 86 4f 94 bc f8 04 1d bc
       -0.014924694 -0.034767993 -0.018104326 -0.009583704
000070 27 16 26 3d 0d a8 a8 bc b0 bf d8 bc ed a7 a4 bc
       0.04054847 -0.020587945 -0.026458591 -0.020099605
000080 a8 b0 41 3c 96 c4 89 bc 56 c1 ec 3c b0 2a 16 bb
       0.011821903 -0.016817372 0.028900784 -0.0022913627
000090 c4 4b 5d 3c 9b 1a 15 3d e6 bc 1a bd 00 d9 9c bc
       0.013506833 0.036402326 -0.037777804 -0.019146442
0000a0 73 41 e2 bc 2c f9 7c bc 41 19 02 3d 76 a4 cf 3c
       -0.0276191 -0.015440267 0.031762365 0.025346976
0000b0 41 ff 31 3d ed 95 eb bc 99 e2 2f 3d ac 3d 32 bc
       0.04345632 -0.028758014 0.04294071 -0.0108789615
0000c0 19 e8 3b 3d 92 98 b7 3c 28 42 23 bd aa 9e a3 bc
       0.045875642 0.022411618 -0.039858013 -0.019973118
0000d0 2d cf 0f bd c0 fe 24 bc 68 48 eb 3b de ca 93 3c
       -0.035109688 -0.010070503 0.0071802624 0.01804107
0000e0 94 91 75 bc b6 50 9d 3c a2 a1 bd 3c c1 89 0c 3d
       -0.014988322 0.019203525 0.023148362 0.03431106
0000f0 14 43 63 3c 20 9d 0e bd 0c b6 69 bc d0 59 79 bb
       0.013870973 -0.034817815 -0.014264595 -0.0038047917
000100 66 56 0f bd c9 e6 26 3d 5a 92 da bc c6 b2 b8 3c
       -0.034994505 0.040747438 -0.026681114 0.022546183
000110 ad ff 09 3d f4 8d 64 3c 41 e6 11 3d 6d 6f 36 bd
       0.033691097 0.01394986 0.035619978 -0.044539858
000120 9b 92 40 3d ad 47 2a bd c0 26 b4 bb e3 2a e7 bc
       0.047014814 -0.04157226 -0.0054977834 -0.028218692
000130 98 05 ef bb b8 ea 73 bc 40 e2 b4 ba fe ff eb 3c
       -0.007294368 -0.014887504 -0.0013800338 0.02880859
000140 22 8b f8 3c f3 e2 35 bd 4f e4 23 3d bb a9 18 3d
       0.030339781 -0.04440589 0.040012654 0.037271243
000150 34 15 1f bc a3 36 3d 3d 94 3b 3d bc 19 f1 1d 3d
       -0.009709645 0.046194684 -0.011549849 0.038560007
000160 0c 6d 39 3c fb 5b 3a bd c7 24 30 bd 0a e4 17 bd
       0.011317503 -0.045497876 -0.043003824 -0.03708271
000170 c0 7f b2 bb b0 36 b3 bb a0 e9 43 bb 00 c1 25 bd
       -0.005447358 -0.0054691657 -0.002989389 -0.040467262
000180 67 93 3d 3d 68 8e 2f 3c 50 07 63 bb 59 ff 4b 3d
       0.046283152 0.010715105 -0.003464181 0.049804065
000190 9b c9 30 bd 1e c6 ae 3c 99 9b 46 3d bf 6c 48 bd
       -0.043161016 0.021334704 0.048488233 -0.048931833
0001a0 60 f7 25 3b e1 dc 0b 3d ce e3 f1 3c f7 a4 a9 bc
       0.002532445 0.034146193 0.029527571 -0.020708544
0001b0 3b 3e 41 bd 70 92 ca bc 0e 46 96 3c cc 55 5a 3c
       -0.04717849 -0.02472803 0.018343952 0.01332612
0001c0 98 26 54 bc b0 13 2b bb d6 0e cc 3c 80 fa 32 3b
       -0.012948655 -0.0026104264 0.024909418 0.0027309954
0001d0 42 81 a4 3c 77 78 af bc ac 02 18 3c 70 69 99 bc
       0.020081166 -0.021419747 0.009277981 -0.018727034
0001e0 ae 8c dd 3c f0 4f de 3b ae c0 d4 3c 68 fa 44 bd
       0.02704462 0.0067844316 0.025970783 -0.04809037
0001f0 ea 2a 43 bd 62 4c 02 bd 4c f9 12 bc 38 7b 0d 3c
       -0.047648348 -0.031811126 -0.00897057 0.008635335
000200 97 fe 05 3d f4 58 74 bc cd bf f4 bc ba d5 33 bd
       0.0327135 -0.014913786 -0.029876614 -0.043904997
000210 1a f6 a3 bc 6e 88 b8 3c 93 38 c4 bc 74 8c 0d bc
       -0.020014811 0.022525992 -0.023952758 -0.008639444
000220 7a f8 9f 3c 80 71 4c bc 80 e4 07 ba f4 82 43 3c
       0.019527663 -0.012478232 -0.00051838905 0.011933077
000230 34 16 1e bc 00 28 00 b8 2d 0d aa bc 92 3d ca 3c
       -0.009648848 -3.055483e-05 -0.020758236 0.024687562
000240 f8 a7 49 bd 6f 04 30 3d b5 c5 09 3d 00 5a 85 bb
       -0.049232453 0.04297298 0.033635814 -0.0040695667
000250 a1 0b 47 3d 0d 06 cf bc 72 c4 db 3c ad 2d 2a 3d
       0.048595075 -0.02527144 0.02682707 0.041547466
000260 04 23 83 bc 6f 6f 36 3d 05 79 06 3d af 07 13 3d
       -0.016007908 0.044539865 0.032830257 0.035896
000270 b4 64 3a bc 43 fd 45 3d 5d 1c e8 bc a2 88 30 bd
       -0.011376549 0.048337232 -0.028333837 -0.043099053
000280 c6 8d b4 3c b6 c9 84 bc 85 43 02 3d b8 d0 24 bd
       0.02204026 -0.016209465 0.031802673 -0.040238112
000290 5c 6a 5c 3c 6c d1 87 bc e8 79 64 bc 4a ad 96 bc
       0.013453092 -0.016579352 -0.01394508 -0.018393178
0002a0 14 cd 90 bc 80 88 e1 bc a0 72 14 3c 2b 37 21 3d
       -0.017675914 -0.027530909 0.009060532 0.039359253
0002b0 70 17 93 bc 13 97 ea bc e0 00 32 3c 38 b9 46 3c
       -0.017955512 -0.02863649 0.010864466 0.0121291205
0002c0 00 23 cd bb 10 53 e6 bb ee 0c b0 3c 9c ad 8c bc
       -0.006260276 -0.007028945 0.02149054 -0.017172627
0002d0 40 39 8f ba b7 d9 46 bd 3d e9 23 bd 61 ba 3b 3d
       -0.0010927096 -0.048547473 -0.040017355 0.04583204
0002e0 40 99 0c bc a0 82 d9 ba 1f f0 2c bd 28 91 0c bc
       -0.0085814595 -0.0016594715 -0.042221185 -0.00857953
0002f0 7a 8a 8c bc 80 c3 40 3a 00 78 0c bc 60 8e 22 3b
       -0.017155875 0.00073533505 -0.008573532 0.00248041
000300 80 b8 75 ba 9a 83 cd bc 65 65 35 3d 74 e1 2c 3c
       -0.0009373501 -0.025087167 0.04428615 0.010551799
000310 40 84 ae bc 88 96 44 3c 7b 8d 35 bd da dd 8c bc
       -0.021303296 0.01199878 -0.04432438 -0.01719563
000320 1c c8 66 3c 24 c3 63 3c 22 a6 bb 3c f0 0f fa bc
       0.014085796 0.013901506 0.022906367 -0.030525178
000330 62 73 a1 3c 0c 15 51 bc 13 37 d1 bc 68 67 5b bc
       0.01970834 -0.012761366 -0.025538957 -0.013391353
000340 b2 ae a3 3c cb 56 01 3d 03 1d 0c 3d 94 20 2d bc
       0.019980762 0.031576913 0.034207355 -0.010566849
000350 37 14 e6 bc 19 5b 4c 3d 45 7a 2a bd 7d a4 df bc
       -0.028085811 0.049891565 -0.04162051 -0.027300114
000360 28 c1 06 bd b2 3f d4 3c 6a da ea 3c ac b6 11 3c
       -0.032899052 0.025909279 0.028668601 0.00889365
000370 12 7b 9c 3c a0 c5 ea ba 46 23 19 bd 08 20 25 bc
       0.019101653 -0.001791168 -0.037387155 -0.010078438
000380 ac 40 8a bc e0 94 c4 bc f2 12 93 3c 56 d1 dd 3c
       -0.016876541 -0.02399677 0.01795337 0.027077358
000390 40 bf c0 3a a0 28 25 bd e3 08 14 bd 6b 27 38 bd
       0.0014705434 -0.040321946 -0.036141288 -0.044959467
0003a0 13 ed d4 bc d3 c5 19 3d 86 aa fe 3c 20 83 76 bc
       -0.025991952 0.037542176 0.031087171 -0.015045911
0003b0 ba ff 9d bc 14 f4 48 3c 40 2f 2e bc c0 7c 99 ba
       -0.019286979 0.012265224 -0.010631382 -0.0011710152
0003c0 f1 89 23 3d 2f 17 45 3d 82 f4 ad 3c a2 49 cb 3c
       0.039926473 0.048117813 0.021234754 0.024815384
0003d0 c5 3e 30 3d 04 50 6e 3c 5a e3 8b bc 00 a3 13 bd
       0.04302861 0.014545444 -0.017076183 -0.03604412
0003e0 12 52 f8 3c c2 89 e9 3c 46 f9 0e bd 5e 8d da 3c
       0.030312572 0.02850807 -0.034905694 0.026678737
0003f0 66 61 83 3c 61 4e 43 3d 92 fe 90 3c 31 c0 19 3d
       0.016037654 0.04768217 0.017699514 0.037536804

lstm.weight_hh_l0 f4 [256, 64]
000000 71 bb 31 3d b8 85 0e bd 90 61 c2 3b 89 18 13 3d
       0.04339165 -0.034795493 0.0059320405 0.03591207
000010 0c 79 04 3c 13 82 31 bd 3a c4 a0 bc 8d c4 f4 bc
       0.0080855 -0.04333694 -0.019624818 -0.029878879
000020 45 4e 37 bd 52 6b f5 3c 8a ec 3a bd f4 1c 3c bc
       -0.044752378 0.0299584 -0.045635737 -0.011481512
000030 3a 17 c0 bc 86 52 ed 3c 58 4e eb bb 30 45 88 bb
       -0.023448575 0.028970014 -0.00718097 -0.0041586384
000040 83 c5 e3 bc fd 7d a1 bc 62 51 92 3c 73 58 c7 bc
       -0.027804142 -0.019713396 0.017861072 -0.024334168
000050 ae f2 e4 3c ee 49 bc 3c c0 8d e7 3a 6e f1 bf 3c
       0.02794775 0.022984471 0.0017666146 0.023430552
000060 00 7b c0 3b 0a 69 d3 3c 33 be 2b bd 2d 9a 0e 3d
       0.0058740377 0.025806922 -0.041929435 0.034815002
000070 e6 13 ea 3c d2 99 a8 3c ca 93 bb bc b0 b0 f4 bc
       0.028573941 0.02058116 -0.02289762 -0.029869407
000080 37 43 c7 bc 1d b7 03 3d cc 54 43 3c 62 30 4b bd
       -0.024324043 0.032157052 0.011922073 -0.04960669
000090 ba d8 2f bd 00 00 c4 37 0e 7d 03 bd 3b 86 1c bd
       -0.042931296 2.336502e-05 -0.032101683 -0.03821395
0000a0 7e 7e 81 3c c4 ea 5f 3c f7 f0 24 3d da 46 96 bc
       0.015807386 0.013666812 0.040268864 -0.018344332
0000b0 45 76 39 3d c2 e7 3a bd ac f8 1c bc d9 bb 3b 3d
       0.045278806 -0.045631178 -0.009580772 0.045833442
0000c0 48 f8 03 bc 0c 40 2f 3c aa 39 86 bc a8 d5 b9 bb
       -0.0080548 0.010696422 -0.016384918 -0.0056712218
0000d0 10 2b f2 3b 9a b8 d8 3c 33 6b c8 bc e7 eb c8 bc
       0.0073903874 0.026455212 -0.02446518 -0.02452655
0000e0 28 cc 92 bb 80 6b 04 bc b1 ce 35 3d 43 15 c2 bc
       -0.0044799037 -0.008082271 0.04438657 -0.023691779
0000f0 bb 9b 2c bd 12 d0 db 3c a2 1b ca 3c 93 a3 ae bc
       -0.042140704 0.026832614 0.02467138 -0.021318233
000100 10 ac d1 bc 1a ef d0 3c fd f7 ab bc ac 0e 1f 3c
       -0.025594741 0.025504638 -0.020992273 0.009708088
000110 7d 47 0b 3d 4d ee cb bc 80 1e 58 3b 1a 74 89 bc
       0.034003723 -0.024893904 0.0032977164 -0.016778994
000120 c7 0c cb bc 52 81 a9 3c 8c d8 1b bc b0 71 73 3b
       -0.024786366 0.020691548 -0.009512078 0.003714662
000130 11 d6 38 3d 2c d2 71 bc e5 d1 42 bd 54 aa 4c 3c
       0.045126025 -0.014759582 -0.047563452 0.012491781
000140 b0 3d f7 3b a0 33 77 3b 38 aa 0d 3c b3 84 c6 bc
       0.0075451955 0.003771998 0.00864654 -0.024233198
000150 41 1d 2f 3d 79 92 39 3d 97 39 4c bd e2 24 13 bd
       0.042752508 0.045305703 -0.04985961 -0.035923846
000160 aa b8 97 bc 60 dd 87 3a 85 f8 09 bd 98 4a c2 bb
       -0.018520672 0.0010365658 -0.033684272 -0.0059293024
000170 3b f8 18 bd 09 d5 30 3d 72 d7 f4 3c 7e be a3 3c
       -0.037346106 0.043171916 0.029887889 0.019988295
000180 2e c8 87 3c 83 ff ac bc c0 9c 7a bc 68 d3 c8 bb
       0.016574945 -0.021117931 -0.015296161 -0.006128717
000190 60 cc d4 bc 13 4d ab bc 26 1e 80 3c e0 f1 6f 3b
       -0.02597636 -0.020910775 0.015639376 0.0036612675
0001a0 20 74 1a bc 00 f8 18 b8 28 1a 59 bc af bf 28 3d
       -0.0094271 -3.6470592e-05 -0.013250865 0.04119843
0001b0 d5 cb 37 3d b6 44 f4 3c c4 d2 5e 3c 64 2e 7e 3c
       0.044872124 0.02981792 0.013600055 0.01551399
0001c0 17 20 a7 bc 75 da 2b bd 92 8d b1 3c 40 0f 9a 3a
       -0.020401044 -0.041956384 0.021673951 0.0011753812
0001d0 ef 66 1b 3d 46 ff a3 3c 32 6a bd 3c c0 dd 20 bc
       0.037939962 0.020019185 0.023121927 -0.009818494
0001e0 e9 32 2f 3d f6 cf a5 3c 2a a2 ee 3c 34 86 83 bc
       0.04277316 0.020240765 0.02913006 -0.016055204
0001f0 49 8a 45 3d a3 0f 24 3d f0 e4 ee bc 38 ed 48 3c
       0.048227582 0.040053975 -0.0291619 0.012263589
000200 57 a0 4c 3d 12 18 c4 3c bd 51 13 bd b1 50 48 3d
       0.0499576 0.023937259 -0.035966624 0.04890508
000210 2a 5d 0b bd 8e 1c cc 3c f3 5b bd bc 72 16 b1 3c
       -0.034024395 0.02491596 -0.023115134 0.021617148
000220 8c 06 5b bc 0d 71 b6 bc bd e1 c1 bc 3e c1 cd 3c
       -0.01336826 -0.022270704 -0.02366721 0.02511656
000230 c0 40 35 3c f5 fb 12 bd a7 1d 2a 3d 91 31 0f 3d
       0.011062801 -0.035884816 0.041532185 0.03495938
000240 5a 7b 90 3c 10 f2 8f bb 42 d6 aa 3c b2 70 03 bd
       0.017636944 -0.00439287 0.02085412 -0.032089897
000250 43 6b e9 bc db 1e 22 3d cd 07 01 bd 20 d2 14 3b
       -0.02849353 0.039580207 -0.03150158 0.0022708252
000260 75 cf 18 bd 3e 17 bf 3c 31 0f 39 3d 47 18 ed bc
       -0.03730722 0.023326512 0.045180503 -0.02894224
000270 81 8e 22 3d 8c 0c 0c bc f1 a2 31 3d 3a 88 a2 bc
       0.039686684 -0.008547913 0.043368284 -0.019840349
000280 df cb 3f bd 91 a4 04 3d 10 bf c7 bc 40 83 2c ba
       -0.046825286 0.032383505 -0.024383098 -0.0006580837
000290 91 dd 04 3d 80 3e 4a bd 14 6f 18 3c 63 22 21 bd
       0.032437865 -0.04937601 0.009303827 -0.039339434
0002a0 29 cf 1c 3d e0 2f 8e bc a6 1d dc 3c 6a 88 3e bd
       0.0382835 -0.017356813 0.026869606 -0.046516813
0002b0 29 cb 30 3d 59 79 38 3d 8c 6c 7f 3c 93 e3 28 3d
       0.0431625 0.0450376 0.015589844 0.041232657
0002c0 f3 e9 2b bd 10 64 8f bc f0 cf 9e bb c0 48 fd bc
       -0.04197116 -0.017503768 -0.0048465654 -0.030918479
0002d0 aa 01 91 bc 40 81 e8 bb a0 50 60 bb c2 1e ac 3c
       -0.017700989 -0.007095486 -0.0034227744 0.02101076
0002e0 b4 90 76 3c 6d 6d b8 bc d8 ce 31 bc c4 d3 74 3c
       0.015049148 -0.022513116 -0.010852538 0.014943067
0002f0 f1 da 43 3d d0 57 49 3b 60 13 d8 ba 60 81 9a ba
       0.04781622 0.0030722506 -0.0016485266 -0.0011787824
000300 44 95 54 3c ac fa 72 bc 90 6f e6 bc 76 27 fc 3c
       0.012975041 -0.014830273 -0.028129369 0.030780535
000310 2c 3c 28 3c 1a bf ad 3c 8d fa fe bc 50 39 4a 3b
       0.010268252 0.021209288 -0.031125331 0.0030856915
000320 ea 10 ee bc 40 d3 94 bc 22 74 b0 3c 75 bd 24 bd
       -0.0290608 -0.018167138 0.021539751 -0.040219743
000330 f7 27 ac bc 98 e9 08 bc 28 df 8c bb 5d a3 46 3d
       -0.02101515 -0.008356474 -0.0042990632 0.04849564
000340 fd 2d 26 3d 8c b7 00 3c 06 de 9f 3c 38 fc 3a 3c
       0.0405712 0.007856261 0.019515049 0.011412673
000350 ae 02 b5 3c e8 ae 97 bb e6 1f 0f bd 14 86 56 bc
       0.022096004 -0.0046290047 -0.03494253 -0.01309349
000360 40 64 07 3c 05 2a 1c 3d 80 f2 6e 3b f1 23 1f 3d
       0.008263648 0.03812601 0.003646046 0.038852636
000370 98 ff d8 bb e9 dd 49 3d 4c 65 22 3c c0 f6 a6 3b
       -0.006622266 0.049283896 0.009911846 0.005095333
000380 ea 60 00 bd b9 e5 23 3d d0 69 9d bb 02 db e9 3c
       -0.031342424 0.040014002 -0.0048038736 0.028546814
000390 34 cb 4f 3c 68 97 40 bc aa 6a 97 bc 97 d6 35 bd
       0.012682725 -0.011754848 -0.018483479 -0.044394102
0003a0 cd c1 25 3d e8 d4 36 3c 28 f9 9e bb 2c 05 0f 3c
       0.040468026 0.011159159 -0.004851479 0.00872926
0003b0 cc e7 03 bd a2 44 46 bd 88 2c 78 bc 4d 61 ad bc
       -0.03220348 -0.048405297 -0.015147336 -0.02116456
0003c0 f3 ac e7 bc 40 6e dd 3a 78 72 27 3c e0 8d 04 bb
       -0.02828071 0.0016893819 0.010220163 -0.0020226166
0003d0 93 28 b1 bc a8 fc 23 3c 63 97 a6 bc 39 c4 04 3d
       -0.021625793 0.010008968 -0.020335859 0.032413695
0003e0 00 30 31 37 18 bc 4a 3c bd be 3c bd 05 11 0c bd
       1.0561198e-05 0.012373947 -0.04608034 -0.03419592
0003f0 e8 77 81 bb a0 bb 3a 3c cc d6 58 3c 5d d8 da bc
       -0.0039510615 0.011397272 0.013234805 -0.026714498

lstm.bias_ih_l0 f4 [256]
000000 80 31 a2 39 d5 9b 45 3d ec c0 40 bc aa 67 ad bc
       0.00030935928 0.048244316 -0.011764746 -0.021167595
000010 73 46 dc bc 74 9c 43 bc ae a5 9b 3c 9e 40 b2 3c
       -0.026889062 -0.011939157 0.0189999 0.021759328
000020 bd c0 c6 bc 76 4c fe 3c 92 98 28 bd 62 f9 8a 3c
       -0.024261827 0.031042319 -0.041161127 0.016964618
000030 03 55 2f 3d 9a 2b c5 bc e2 30 ef 3c 03 cf 1f 3d
       0.042805683 -0.024068642 0.029198114 0.03901578
000040 00 58 b1 37 10 79 b2 bc 37 7c 3f 3d a0 59 f6 3a
       2.1141022e-05 -0.021786243 0.04674932 0.0018795021
000050 b9 6b 1f 3d b2 48 ca 3c 42 08 82 3c 4c 8f 37 bc
       0.03892109 0.024692867 0.015873078 -0.011203598
000060 70 ef af bb 28 9d a0 3b d0 64 5b 3b 9e f6 ab 3c
       -0.0053691193 0.004901547 0.0033476837 0.02099162
000070 ea 05 22 bd cd 78 20 bd 72 ef bd 3c 30 ba 98 bb
       -0.03955642 -0.039177705 0.023185465 -0.004660867
000080 62 d4 b9 3c 90 46 26 bd 67 eb b0 bc 50 8c ba 3b
       0.02268428 -0.040594637 -0.021596624 0.005692996
000090 68 4c 8f 3b 68 3a da 3b 47 d6 04 3d 64 3f 56 3c
       0.004373122 0.0066597946 0.032430913 0.013076637
0000a0 73 dc c5 bc f1 d1 15 3d 0d e3 42 3d b2 e6 b4 3c
       -0.02415297 0.03657717 0.047579814 0.02208266
0000b0 d0 61 d1 3b c0 c4 50 ba fc 0d 01 bd 12 b7 95 3c
       0.006389834 -0.00079638883 -0.031507477 0.018275771
0000c0 44 9e 68 3c 3b d4 03 3d 4b b0 1d bd e4 57 8e bc
       0.01419789 0.03218482 -0.038498204 -0.017375894
0000d0 ca 17 d8 bc c7 3c 31 bd 23 06 b6 bc 22 62 2a bd
       -0.026378531 -0.043270852 -0.022219723 -0.041597493
0000e0 e3 38 ce bc 5d c0 19 bd 3c e9 51 3c 79 84 35 3d
       -0.02517361 -0.037536968 0.012811955 0.04431579
0000f0 64 f2 8c bc 21 b6 2e 3d ea b1 8d 3c 26 2d f2 3c
       -0.017205425 0.04265416 0.01729675 0.029562544
000100 43 79 f8 bc 1b 08 33 bd 43 b3 cd bc ed 65 33 bd
       -0.03033126 -0.0437089 -0.025109893 -0.043798376
000110 fa 5c a0 3c 74 0c 7f bc a2 b3 2e bd 4d 1b e5 bc
       0.019575585 -0.015566934 -0.04265178 -0.02796712
000120 a3 09 1d 3d e3 dc 25 3d eb 18 03 3d 4a a7 9f 3c
       0.03833927 0.040493857 0.032006186 0.01948895
000130 7d 98 10 bd 2e e8 28 bd 40 3d da bb a8 31 67 bc
       -0.035301674 -0.04123705 -0.0066601336 -0.01411096
000140 d0 41 f6 bb 9e 0a 9f 3c ed 20 c5 bc d0 e0 cd bb
       -0.0075151697 0.019414242 -0.024063552 -0.0062829033
000150 03 78 c7 bc d2 b6 92 3c 52 c2 f1 3c b2 b8 b5 3c
       -0.024349218 0.017909441 0.029511604 0.022182796
000160 32 38 f5 3c 9b e6 28 bd d4 0c 63 3c 12 32 3c bd
       0.029934023 -0.041235548 0.013858039 -0.04594619
000170 50 f6 ee bb 18 7d 10 bc 7d e2 39 bd 66 b7 e5 3c
       -0.0072925463 -0.008818887 -0.04538201 0.028041553
000180 f4 4f 09 3c 74 75 33 3c b8 dd 1e bc c2 94 30 bd
       0.008380879 0.010953296 -0.009696417 -0.043110617
000190 99 9b 0c 3d 3d 84 39 3d 90 01 1c bd 58 4c 98 bb
       0.034328077 0.045292128 -0.038087428 -0.0046477728
0001a0 20 84 51 bc 5d e6 0c 3d 48 09 60 bc b9 07 1e 3d
       -0.012787849 0.03439938 -0.013674088 0.038581584
0001b0 6f d4 27 3d 40 ed 68 bc 34 da 23 3c d9 f9 17 3d
       0.040974077 -0.014216721 0.010000754 0.037103508
0001c0 26 cb dd 3c de 66 2b bd 57 3a fa bc d2 ca 1d bd
       0.027074408 -0.04184615 -0.030545397 -0.038523503
0001d0 f2 aa c5 3c 23 35 bf bc 20 cd b2 bc f2 7a b9 3c
       0.024129365 -0.023340767 -0.021826327 0.022641633
0001e0 40 ba c9 3b d8 4b 2f bc 80 24 00 3c a3 ca 3d bd
       0.006156236 -0.010699235 0.007821202 -0.046335828
0001f0 a0 46 f3 ba d7 1e e5 bc a8 7b bd bb 47 74 cf bc
       -0.0018560477 -0.027968807 -0.0057825632 -0.025324
000200 b8 e0 41 3c 70 99 cf 3b d8 87 a4 bb 90 7f 33 bd
       0.011833362 0.00633543 -0.0050210766 -0.043822825
000210 7a aa fc bc 78 da 04 3c 40 37 5a 3a 70 8f 90 bb
       -0.030843008 0.008108728 0.0008324273 -0.0044116303
000220 0a 32 b4 3c 9b 95 00 3d d0 c7 60 bb c0 28 f9 bc
       0.021996517 0.031392675 -0.0034298785 -0.030414939
000230 52 70 c4 3c 5e f6 b6 3c 3d a7 0d bd 02 7a 11 bd
       0.02397934 0.022334274 -0.03458332 -0.035516746
000240 8c 41 48 3c 80 dd 42 3a da 41 82 bc 56 7f be 3c
       0.012222659 0.0007433519 -0.015900541 0.023254078
000250 91 b6 0c 3d b6 7d 96 3c 00 7b aa 3b 6e 28 f6 3c
       0.034353796 0.01837049 0.005202651 0.030048575
000260 53 b3 4a 3d 3b fa 2f bd 80 a2 41 bd 5e 8c db 3c
       0.049487423 -0.042963248 -0.047274113 0.02680033
000270 d0 07 e7 bb 93 81 13 3d de f1 a0 3c db 93 25 3d
       -0.007050492 0.036012243 0.019646581 0.04042421
000280 7e e0 a7 3c 52 2d ca 3c 46 7e 95 3c 31 6e 3f 3d
       0.020492788 0.024679814 0.018248688 0.046735946
000290 ea 7c 2a bd a0 ee b7 bc 61 50 41 3d 80 d4 51 3b
       -0.041623034 -0.022452652 0.047195796 0.003201753
0002a0 40 8b ba bc c4 e8 60 3c b2 c2 94 3c 60 17 64 bc
       -0.022771478 0.013727371 0.018159244 -0.013921589
0002b0 43 b4 24 3d c8 17 3d 3c aa 9a 18 bd 80 8a a1 3b
       0.040210973 0.011541314 -0.037256874 0.0049298406
0002c0 a3 f8 ac bc 56 b4 98 3c a4 bb 69 3c e6 39 8a 3c
       -0.021114653 0.018640678 0.014265928 0.016873311
0002d0 83 57 fa bc cb 90 45 bd 9d 9d a1 bc 58 27 3c 3c
       -0.030559307 -0.04823379 -0.019728476 0.01148399
0002e0 1a 34 c2 bc d0 4c 61 bb 00 70 d1 3b 24 d5 7f 3c
       -0.023706485 -0.003437806 0.0063915253 0.0156147815
0002f0 e6 c6 1f bd 80 69 63 ba 12 a6 f7 3c f4 4f 29 bc
       -0.039008044 -0.00086750835 0.030230556 -0.010334004
000300 83 fb 45 3d ba 94 ab 3c 02 d0 2a bd ac c9 72 3c
       0.048335563 0.020944942 -0.041702278 0.01481859
000310 5a 12 c4 bc 1a d1 82 3c a0 72 eb 3a 28 9d c3 bb
       -0.023934532 0.015968848 0.0017963238 -0.005969662
000320 3c 74 53 3c 48 87 07 bc 3a 11 13 bd 14 13 2f 3c
       0.01290613 -0.008272 -0.0359051 0.010685701
000330 d0 b9 d7 3b b0 e5 3d 3b da 78 e1 bc 5c 71 0b bd
       0.00658343 0.0028976016 -0.027523447 -0.034043655
000340 cb 2c 4b 3d 6e 16 82 3c 3a cb 97 3c e3 fa bc bc
       0.049603265 0.015879836 0.018529523 -0.02306885
000350 50 92 0d bb 0c e6 29 3c 21 1c 17 3d a9 bc 39 3d
       -0.0021602102 0.010369789 0.03689206 0.045345936
000360 61 c2 43 3d b3 5d a7 bc a0 f1 04 3c e7 5e e4 bc
       0.047792796 -0.020430421 0.0081142485 -0.027877284
000370 97 df 43 bd b7 0a 17 3d b4 01 76 3c e8 74 d6 bb
       -0.047820654 0.036875453 0.0150150545 -0.006544698
000380 f2 c0 bc 3c 2a ad ff bc 22 62 fb 3c 00 72 cd bc
       0.023041222 -0.0312105 0.030686442 -0.025078773
000390 70 79 3a bd 80 33 0a 3b b6 87 95 bc 02 1c bb 3c
       -0.045525968 0.0021087825 -0.018253189 0.022840504
0003a0 10 75 ad 3b c2 0f e2 3c e9 3b 07 3d 60 3b 11 3b
       0.005293496 0.027595405 0.03301612 0.0022160634
0003b0 a3 cf 33 bd a2 38 b1 3c c0 b7 ea ba 52 5d 83 3c
       -0.04389919 0.02163345 -0.0017907545 0.01603571
0003c0 0c dc 00 3c 60 31 39 bd e5 89 44 3d 42 45 c0 3c
       0.007864963 -0.045213103 0.04798307 0.023470525
0003d0 98 d0 c2 bb 30 02 78 bb 48 d2 47 3c 98 c7 91 3b
       -0.0059452765 -0.00378431 0.012196131 0.0044488423
0003e0 c3 41 4a 3d 70 5f 3b bd 30 e3 85 bc 16 2e fe 3c
       0.04937912 -0.045745313 -0.016343683 0.031027835
0003f0 28 8f bc 3b 98 2c 6d bc fe 64 bf 3c 70 16 da bc
       0.0057543702 -0.014475964 0.023363587 -0.026622027

lstm.bias_hh_l0 f4 [256]
000000 c3 38 36 3d 68 cd d5 bb a8 d2 f4 3b d0 a0 fb bc
       0.044487726 -0.0065247305 0.0074714012 -0.03071633
000010 cf 63 2f bd a0 6b 09 3c 5d 37 17 3d 88 a0 2a bd
       -0.042819794 0.008387476 0.036918033 -0.041657
000020 b0 05 82 bb af 62 0a 3d d4 6f 47 bc f9 6d 1c 3d
       -0.003967963 0.03378552 -0.012172658 0.038190816
000030 00 37 e1 39 4d a4 a7 bc 05 96 48 bd cd d9 cb bc
       0.00042956322 -0.020464087 -0.048971195 -0.024884129
000040 f2 d9 b3 3c 83 8c 18 3d 99 cf 34 3d 4a 1a e4 bc
       0.02195451 0.037243377 0.044143293 -0.027844567
000050 b4 18 74 3c 68 a3 d5 3b ce 0a ca 3c 67 a5 f7 bc
       0.014898468 0.0065197237 0.024663355 -0.030230237
000060 2c 72 2d bc 68 ad f9 bb f2 7b b9 3c a0 ac 99 ba
       -0.010586303 -0.0076195486 0.02264211 -0.001172442
000070 cc be 4e 3c f0 b2 39 bd 80 3e e8 b9 b9 31 14 3d
       0.012618732 -0.045336664 -0.00044297054 0.03618023
000080 d8 b3 45 bd 30 cf 0a 3b a8 1d b3 bb 30 d3 9a bc
       -0.048267215 0.0021180622 -0.005466182 -0.01889953
000090 a0 f3 ff 3a 95 8e 33 3d f8 16 38 bc 27 76 a3 bc
       0.0019527562 0.04383715 -0.011235945 -0.0199538
0000a0 3a d8 41 bd eb 6c 34 bd 12 26 b8 3c 4f 86 13 3d
       -0.04732535 -0.044049185 0.02247909 0.03601676
0000b0 a0 62 ac 3a 74 75 7d 3c d8 28 bf bb cc c0 10 bc
       0.0013151951 0.015469898 -0.0058337264 -0.008835029
0000c0 f0 42 f9 bb c0 ca 34 3a 11 51 0f 3d 67 74 30 3d
       -0.0076068565 0.0006896667 0.03498942 0.04307976
0000d0 9b 00 4a bd 10 12 ba bc 2f 60 22 3d 37 87 fc bc
       -0.049316984 -0.022713691 0.03964251 -0.030826194
0000e0 77 10 d9 bc ad 74 ed bc cb 5a 22 bd 00 d2 6f ba
       -0.026497109 -0.0289863 -0.03963737 -0.0009148419
0000f0 06 7b 11 bd a9 96 0e 3d 9d a3 2b bd d4 89 12 3c
       -0.035517715 0.03481165 -0.04190408 0.008943994
000100 31 c1 27 3d c9 0f 0c 3d b4 36 42 bc e8 95 e2 bb
       0.040955726 0.03419474 -0.011853863 -0.006914843
000110 92 32 b1 3c 67 13 e5 bc 70 5c 82 bc 06 b4 fc 3c
       0.02163056 -0.027963353 -0.015913218 0.03084756
000120 00 d8 54 ba 33 59 15 3d 1a 64 f7 3c c2 59 e7 3c
       -0.0008119345 0.03646202 0.0301991 0.028241042
000130 e5 88 31 bd ba ed 8a bc 30 a1 6e bb 94 45 61 3c
       -0.043343443 -0.01695906 -0.0036411993 0.013749499
000140 9f 54 27 3d c4 cb 6c 3c 50 c6 2f bd d0 8f 89 bb
       0.040852185 0.014452878 -0.042913735 -0.004198052
000150 47 0b 44 3d 10 53 95 bc a2 15 fd 3c 00 d0 e3 b9
       0.047862317 -0.018228084 0.030894104 -0.00043451786
000160 98 28 3d bc 20 40 63 bc 8c 01 65 bc c2 f9 44 bd
       -0.011545323 -0.013870269 -0.01397742 -0.04808975
000170 50 78 09 bd 50 0f db 3b 65 18 07 3d 79 19 25 3d
       -0.033562005 0.006685175 0.03298225 0.040307496
000180 3a 0b 0b bd 10 23 c9 bb 9b 44 34 bd e0 1d 17 3b
       -0.033946253 -0.006138213 -0.04401074 0.0023058578
000190 8a 25 1a bd c5 bc 1a bd 32 7a fd 3c 2a c8 ed bc
       -0.037633456 -0.03777768 0.030942056 -0.02902611
0001a0 77 46 b2 bc 3a 18 8e 3c aa 94 3e bd 1a 8a 92 3c
       -0.021762116 0.017345537 -0.046528496 0.017888118
0001b0 b9 17 35 3d 00 0d 48 b9 30 e3 3c bb b5 40 00 bd
       0.044212077 -0.00019078329 -0.0028821938 -0.03131171
0001c0 15 aa 32 3d 0e 22 b0 3c f8 b3 52 bc 20 f0 13 bb
       0.043619234 0.021500614 -0.012860291 -0.0022573546
0001d0 20 d1 55 bb 63 f7 18 3d 22 89 e6 3c 1d 26 33 bd
       -0.003262587 0.0373453 0.028141562 -0.04373752
0001e0 8e 20 e6 3c d9 06 48 3d 90 1f c1 bb 38 d5 6a bc
       0.028091695 0.048834655 -0.005893655 -0.014333062
0001f0 00 85 8f bc 2f a8 10 3d 50 5f 8e bb b0 93 c7 bb
       -0.017519474 0.035316642 -0.004344858 -0.006090604
000200 61 36 36 3d ad 68 48 bd a0 00 43 bd c0 34 d2 3a
       0.044485454 -0.04892795 -0.047608018 0.0016037449
000210 ac 2c 46 3c 03 d1 b3 bc 70 85 ea bb 28 fd 33 bc
       0.012095612 -0.02195025 -0.0071570203 -0.01098565
000220 29 ff 19 3d f4 e8 5f bc 4b 6e 05 3d ba 58 fe bc
       0.037596855 -0.01366638 0.032575887 -0.031048167
000230 73 cd b0 bc 1d 31 b0 bc 54 01 3f bc 08 bd 1f 3c
       -0.02158234 -0.021507794 -0.0116580315 0.009749658
000240 35 bf 40 3d 23 3e 4a bd f4 3f 28 bc c2 6f d4 3c
       0.04705735 -0.049375664 -0.010269154 0.025932197
000250 3d 4f fb bc 94 b6 50 bc c3 0e 0c 3d f4 46 58 bc
       -0.030677432 -0.0127388425 0.034193765 -0.01320051
000260 d2 c1 ed 3c 03 cf 0d bd 1b e9 19 3d a6 9b 24 bd
       0.029023085 -0.03462125 0.037575822 -0.0401875
000270 d8 22 b9 3b 1a 66 a4 3c c7 6b e2 bc e9 66 07 3d
       0.0056499057 0.020068217 -0.027639283 0.033057127
000280 fe 63 b3 3c d9 bb 24 3d 3b 5d 20 bd ca 30 e0 bc
       0.021898266 0.040218208 -0.03915141 -0.027367014
000290 60 9c 1e 3b 1e 9b 8a 3c 34 56 23 3c a4 6d 5e 3c
       0.0024202093 0.016919669 0.009969283 0.013575945
0002a0 f3 0b b2 bc 40 8f e9 bb 78 93 3a bd b2 91 f5 3c
       -0.021734213 -0.0071276724 -0.045550793 0.0299767
0002b0 50 53 b4 bc a3 90 09 3d c9 59 2c 3d 40 1d c3 bb
       -0.022012383 0.033585202 0.042077813 -0.0059544146
0002c0 a0 6a 4c bc b0 b4 d1 3b 90 3c c1 3b a0 d9 5a bb
       -0.012476593 0.0063997135 0.005897112 -0.0033393875
0002d0 4d fc 25 bd b7 7d c4 bc 3d e4 d8 bc da 32 0f bd
       -0.040523816 -0.023985727 -0.02647602 -0.034960605
0002e0 35 2c 42 3d 90 27 ce 3b dc f7 4c 3c 60 d8 36 bb
       0.04740544 0.0062913373 0.012510266 -0.0027899966
0002f0 3c 4c 6c 3c cd d7 35 bd 18 05 3a 3c da 4c ea bc
       0.014422473 -0.044395257 0.0113537535 -0.028601099
000300 e2 c4 ce 3c d8 98 e3 bb 79 f6 48 3d 22 ac 3d bd
       0.025240365 -0.0069457106 0.04906318 -0.046306737
000310 74 01 13 bc 9b d6 2b 3d 57 d4 9b bc 42 61 c8 3c
       -0.008972514 0.04195271 -0.01902215 0.024460439
000320 da 60 da 3c 23 77 b2 bc 18 28 75 bc 33 c0 aa bc
       0.02665751 -0.021785324 -0.014963172 -0.0208436
000330 48 e5 27 3c 2d aa 0d 3d 31 46 07 3d d8 1d be bb
       0.010247536 0.03458612 0.033025924 -0.0058018975
000340 17 1b d2 bc 79 3f 43 3d c4 b6 70 3c 63 64 20 bd
       -0.025647683 0.047667954 0.014692012 -0.039158236
000350 50 36 aa 3b 6a 3e ed 3c c5 ea 24 3d 89 62 46 3d
       0.005194463 0.028960425 0.040262956 0.048433814
000360 8d 71 40 3d 28 a9 9a 3b 6a 03 3a bd 1b 6e 1f 3d
       0.04698329 0.004719872 -0.045413412 0.038923364
000370 19 00 46 3d c0 70 07 3c 22 92 c7 3c 6a 20 c4 bc
       0.048339937 0.008266628 0.024361674 -0.023941237
000380 8c cc 51 bc 60 45 34 3b 47 4a dd bc da 5c 2f bd
       -0.012805115 0.002750717 -0.027012957 -0.04281316
000390 a0 5e 3f 3b 5a bb a5 bc b4 15 41 3c a0 13 36 3c
       0.0029200688 -0.020230938 0.01178496 0.011113077
0003a0 e3 ed f6 bc 5a c3 87 3c 2e 96 03 bd b0 b9 3d 3b
       -0.03014273 0.016572643 -0.032125644 0.002894979
0003b0 07 cc ad bc f8 30 00 bc 00 ff 7c 3b 3f b4 03 3d
       -0.021215452 -0.007824175 0.003860414 0.032154318
0003c0 10 cc 2f bd 32 1e a1 3c 50 2f 17 3b 75 e4 32 3d
       -0.04291922 0.019667719 0.0023068972 0.043674905
0003d0 26 1a fc 3c 80 05 67 3b 70 d6 9b 3b ec c4 0c bc
       0.030774187 0.003525108 0.0047557876 -0.008591872
0003e0 6b 6d 38 3d d6 ac cf 3c e4 83 7a 3c 72 c3 8d 3c
       0.045026224 0.02535097 0.015290234 0.01730511
0003f0 43 2b ec bc 68 77 c3 bb 50 67 a0 3b d8 2a ca 3b
       -0.028829223 -0.005965162 0.0048951283 0.006169658

fc.weight f4 [89, 64]
000000 92 3a e6 3c 71 b5 18 3d 00 ac aa 3a a3 b5 36 bd
       0.0281041 0.03728241 0.0013021231 -0.044606816
000010 0a 00 c2 bc 07 68 4c bd 39 ce 2c 3d 9a cc e1 3c
       -0.02368166 -0.049903896 0.042188857 0.027563382
000020 04 d5 73 3c 7c ff 00 bd cc 66 7a bc dd df be bc
       0.01488233 -0.03149365 -0.015283298 -0.023300106
000030 ba f7 c5 bc d1 6c 11 3d 43 c0 39 3d 71 a1 1f 3d
       -0.024165977 0.035504166 0.04534937 0.038972322
000040 0a c1 99 bc 8e a8 e8 3c 10 b6 a0 bc a0 10 1f 3b
       -0.018768806 0.028400686 -0.019618064 0.0024271384
000050 50 70 ed 3b 88 23 44 bd 8f 3b 0d 3d 72 4e 97 3c
       0.0072460547 -0.047885448 0.034480628 0.018470023
000060 17 00 0d 3d 81 58 34 3d 36 9d 0f bd ce 50 9a 3c
       0.034423914 0.044029716 -0.035062037 0.018837359
000070 76 5e f1 3c 4a 08 e9 bc a0 98 30 3b 28 60 33 bd
       0.029463988 -0.028446335 0.002694644 -0.043792874
000080 5a fd fa bc a0 73 4c bd 58 c9 95 bb 07 84 11 3d
       -0.030638386 -0.049914956 -0.004571121 0.0355263
000090 29 87 0e 3d 38 55 08 bc 7e b3 a2 3c a0 c6 67 bc
       0.034796868 -0.008321099 0.01986098 -0.014146477
0000a0 13 af b0 bc 1b 65 0c 3d a8 89 16 3c 2d 5c cf bc
       -0.021567857 0.03427611 0.009188093 -0.025312508
0000b0 60 b8 3a 3b 55 3d 32 3d bd ef f8 bc 30 29 a9 bb
       0.0028491244 0.043515522 -0.030387754 -0.0051623806
0000c0 00 34 0b 3c c0 58 e2 bb 72 28 8e 3c 7a c2 8d bc
       0.0084962845 -0.0069075525 0.01735327 -0.017304648
0000d0 95 dd 3f 3d aa 37 f9 3c 98 a9 a0 bb 39 d8 07 3d
       0.046842176 0.03042205 -0.0049030297 0.03316519
0000e0 a0 93 b4 bc f6 06 ca 3c e0 a3 82 bc 58 5e fb 3b
       -0.02204305 0.024661522 -0.015947282 0.0076711588
0000f0 77 00 22 3d 83 b1 4b 3d 6e 1d 1a bd d6 d0 f0 3c
       0.039551225 0.049729835 -0.037625723 0.029396456
000100 6b 9f 2d bd 18 7e 32 3c 00 2b f3 ba db 3f 34 bd
       -0.04238836 0.010894321 -0.0018552244 -0.04400621
000110 b7 f2 d4 bc 5d ad e5 bc 14 7f 28 bc fa 72 bd 3c
       -0.025994642 -0.028036768 -0.010284204 0.023126114
000120 75 37 0c 3d 09 56 4b 3d 28 01 83 bb f0 c9 a8 bb
       0.034232575 0.049642596 -0.0039979406 -0.005151026
000130 30 dc eb 3b 40 9d be 3a e0 a6 dd bc f8 65 1d bc
       0.0071978793 0.0014542714 -0.027057111 -0.009606831
000140 0d ab 09 3d 39 b6 40 3d cc f4 7d bc e0 0f 2b bc
       0.033610392 0.04704878 -0.015500259 -0.010440797
000150 29 d2 29 3d 6c 73 5c bc 60 18 a6 ba aa a2 ac 3c
       0.04146019 -0.013455253 -0.0012672059 0.021073658
000160 d0 2d a2 bc 9a d2 34 bd db 01 28 3d 72 be 8d 3c
       -0.019797236 -0.044146158 0.041017395 0.017302725
000170 60 c4 14 bb dd eb fc bc 38 31 2a bc 67 19 3d bd
       -0.0022700056 -0.030874187 -0.010387711 -0.046166804
000180 2f 61 02 3d 12 b8 cd 3c b9 94 2e 3d 58 9e 03 bc
       0.031830963 0.025112186 0.0426223 -0.008033358
000190 00 f1 c3 bb a6 19 b7 3c 67 4e 16 3d e6 38 9c 3c
       -0.005979657 0.022351097 0.036695864 0.0190701
0001a0 f0 c1 82 bc 26 f8 fb 3c ed 58 ef bc c1 a3 24 3d
       -0.015961617 0.030757975 -0.029217208 0.04019523
0001b0 62 6e ef 3c 1a 5c 49 bd 00 8c c0 b8 66 16 e5 3c
       0.02922744 -0.0491601 -9.1813505e-05 0.027964782
0001c0 47 fc af bc 40 1b dd bc 07 21 f4 bc 06 5e a7 3c
       -0.0214826 -0.026990533 -0.029800905 0.020430576
0001d0 68 cb 24 bc 58 8d cf bb 4d 3e 35 bd 60 af 2b 3b
       -0.010058261 -0.006333988 -0.044248868 0.002619706
0001e0 81 16 37 3d 13 11 28 3d b2 b8 1d bd 9a 91 f7 bc
       0.044699196 0.04103191 -0.038506217 -0.030220795
0001f0 ef 7d 32 bd 12 41 cc 3c 74 8e 05 bd 64 78 5b 3c
       -0.04357713 0.024933372 -0.032606557 0.013395403
000200 0d cf 11 bd b0 b4 d0 3b 3d b6 2d bd 2f d1 2a 3d
       -0.03559785 0.006369196 -0.042410124 0.0417034
000210 00 db ee bc 44 e4 5e 3c ee d8 20 bd a8 00 1a bc
       -0.029157162 0.013604227 -0.03926938 -0.0093995705
000220 da 80 93 bc fc 3a 67 3c 37 1c 08 3d a8 b7 c4 bb
       -0.018005777 0.014113184 0.033230033 -0.006003339
000230 ac e0 04 3c 4e 3d 91 3c 12 dd d0 3c 56 60 9e 3c
       0.008110207 0.017729428 0.02549604 0.019333046
000240 1e 3f f3 3c 9a 12 9a 3c f8 29 3c 3c 00 1c c9 ba
       0.029693183 0.018807698 0.0114846155 -0.0015343428
000250 80 fa 0c bb 4c fd 48 bc 90 3d c2 bc 9c 6b 7e 3c
       -0.0021511614 -0.012267422 -0.023710996 0.015528586
000260 33 36 1f bd c7 9d 32 bd 30 7b 72 bb db a7 41 bd
       -0.038870048 -0.0436075 -0.0036999695 -0.04727922
000270 0f d4 47 3d 02 72 0d bd 38 fa 14 bc 57 88 fd bc
       0.04878622 -0.034532554 -0.00909286 -0.030948801
000280 2f bd 4a 3d c3 31 9d bc 42 3f 43 bd d8 de 12 bd
       0.049496826 -0.019188767 -0.04766775 -0.03585705
000290 9f 03 14 3d e8 cd d4 bb 0c df 39 bc a0 ed 31 3c
       0.036136266 -0.0064942725 -0.011344682 0.010859877
0002a0 d7 90 05 3d 00 d2 aa 3a 64 c4 6b 3c 2a c9 88 bc
       0.032608833 0.0013032556 0.014390085 -0.016697485
0002b0 21 b2 36 3d 54 6d 42 bc 80 db 93 bc 90 a5 93 bc
       0.04460347 -0.011866886 -0.018049002 -0.018023282
0002c0 38 5f 3b bd 71 a5 45 3d 72 de 0c bd 40 99 07 3c
       -0.045745105 0.04825348 -0.034391828 0.008276284
0002d0 53 06 ba bc b0 b5 1a bb 16 d4 e3 3c 44 97 78 3c
       -0.022708094 -0.002360683 0.027811091 0.015172783
0002e0 88 5a 03 bc a8 30 60 bc 90 11 a6 bb 18 9b 36 3c
       -0.00801719 -0.013683476 -0.0050680116 0.011145376
0002f0 a0 91 20 bb 28 ad ec 3b 74 d4 0c bc 2c fe 10 3c
       -0.0024500862 0.0072227903 -0.008595575 0.008849662
000300 21 26 25 3d a9 f2 02 3d d7 cc dc bc 8a a3 d7 bc
       0.040319566 0.0319697 -0.026953144 -0.026323099
000310 aa 0d 2d bd 87 19 de bc b2 61 e6 3c 12 f0 af 3c
       -0.04224936 -0.027111782 0.028122757 0.02147678
000320 50 a2 f7 3b 4c 7a 0c bc 80 0b 30 bc e2 f8 ba 3c
       0.007557191 -0.00857408 -0.010744929 0.022823755
000330 99 13 1d 3d 80 70 3d 3a c8 88 39 bc a2 d6 f7 3c
       0.038348768 0.00072265416 -0.011324115 0.030253712
000340 35 d1 3e bd a9 90 33 3d 4e d2 81 3c e0 77 0e 3c
       -0.046586234 0.04383913 0.015847351 0.008695573
000350 f6 f6 80 3c 58 8d 3b 3c 0c 5e 6f bc 71 a9 43 3d
       0.01574276 0.011447273 -0.014609825 0.047769014
000360 86 a0 d1 3c 8d e6 ac bc a6 2b d1 3c 00 10 3a b9
       0.025589239 -0.021106029 0.025533509 -0.00017744303
000370 90 5e 84 bc ac 9a 55 3c 14 a7 90 bc 28 ee ad bb
       -0.016158372 0.013037365 -0.017657794 -0.0053079315
000380 5f 91 28 3d 22 07 c7 3c 50 ca a9 bb 69 ac 07 3d
       0.04115426 0.024295393 -0.005181588 0.033123408
000390 56 08 ce 3c 2d 5f ed bc 43 56 cc bc d5 44 49 3d
       0.02515046 -0.028976047 -0.024943477 0.04913791
0003a0 63 8a 3b 3d 8e e1 99 3c 4c 59 85 bc 18 38 99 3b
       0.045786273 0.01878431 -0.016277932 0.0046758763
0003b0 34 bb 46 bc c2 3d b4 3c d8 75 5d bc 78 38 79 bc
       -0.012129594 0.022002105 -0.013516866 -0.015211217
0003c0 40 54 dd 3b e8 ec aa 3b 03 c9 9b bc b8 1b 19 bd
       0.006754428 0.0052162297 -0.019016748 -0.03737995
0003d0 cf 98 06 3d 8e a8 db 3c a0 a7 af ba 00 10 a5 b7
       0.032860573 0.026813772 -0.0013401397 -1.9676983e-05
0003e0 d8 af 72 bc f3 9e f7 bc f3 cf 38 bd 92 46 a6 3c
       -0.014812432 -0.03022716 -0.04512019 0.020297322
0003f0 80 20 14 bb 34 59 65 bc 40 11 1b bc d5 05 11 bd
       -0.002260238 -0.013998318 -0.009464562 -0.035405952

fc.bias f4 [89]
000000 ca f8 9e bc b5 96 3c bd 09 f1 49 3d 14 bb 2b bc
       -0.019405741 -0.046042163 0.049302135 -0.010481615
000010 ce 0d e1 3c 12 5f 86 3c 8a fe f2 bc 77 ee 3c 3d
       0.027472403 0.016402755 -0.02966239 0.046125855
000020 6a 47 36 bd 37 b8 9a bc 6f bd 30 bd 94 34 69 3c
       -0.0445017 -0.018886669 -0.043149408 0.014233727
000030 2e e8 ec 3c 26 5e 86 bc 4c 3b 20 bc e8 f6 a7 3b
       0.028919306 -0.016402315 -0.0097797625 0.005125869
000040 d0 37 44 bd 1d 6f 45 bd 87 43 46 bd f0 d3 4b bd
       -0.04790479 -0.04820167 -0.048404243 -0.049762666
000050 03 53 39 bd 44 22 63 3c 8c a3 1e bc a8 d6 8c bb
       -0.04524518 0.01386315 -0.009682547 -0.00429805
000060 96 11 d4 3c 82 d9 d2 3c 00 98 d8 37 26 91 05 bd
       0.025887292 0.025738481 2.5819987e-05 -0.032609127
000070 28 f7 d9 3b 6a fe 3e bd a5 0b 0b 3d c2 39 38 bd
       0.006651778 -0.046629347 0.033946652 -0.044976957
000080 95 f4 0f 3d 4c e0 03 bd 91 ca 1a 3d 5a 97 42 bd
       0.03514536 -0.032196328 0.03779084 -0.04750762
000090 30 cd 84 bb 6e 38 b0 3c 65 65 02 3d bb af 49 3d
       -0.0040527806 0.021511283 0.03183498 0.049239855
0000a0 12 49 d7 3c f9 22 25 3d 08 df 0f bc 00 83 d0 ba
       0.02627996 0.040316556 -0.008781202 -0.0015908182
0000b0 79 b0 13 3d b4 df 5e bc 1a 3e da bc 68 b2 e3 3b
       0.03605697 -0.01360314 -0.02664094 0.006948758
0000c0 40 cb 47 3a 3b f1 1a bd 56 27 9c 3c 01 31 09 3d
       0.0007621534 -0.03782771 0.019061726 0.033494
0000d0 4f 90 39 3d c0 d9 88 ba ea 27 2c bd 2c f5 1f 3c
       0.04530364 -0.0010440871 -0.042030253 0.009763043
0000e0 3d 3e 0c bd e8 be b1 bb c0 a8 0c 3a 7d 03 1b 3d
       -0.034239043 -0.005424369 0.0005365722 0.037845124
0000f0 10 f8 b7 bc c8 35 0c bc 0d 5b e1 bc 24 7b 7c 3c
       -0.022457153 -0.008557744 -0.027509237 0.015410218
000100 b3 ce 2a bd cf 51 08 3d 82 19 a2 3c 1d 49 a1 bc
       -0.04170103 0.033281144 0.019787554 -0.019688183
000110 9d ae b6 bc 78 60 41 bd ad 15 b8 bc 67 a3 46 3d
       -0.022300059 -0.04721114 -0.022471273 0.048495676
000120 b0 ab fc 3b 8e f6 02 bd af 8e 36 bd 45 d9 21 3d
       0.0077108964 -0.031973414 -0.044569667 0.039513845
000130 da 29 81 3c 78 86 3d bd be 5d bc 3c 41 dc 00 3d
       0.015767027 -0.046270818 0.022993919 0.03146005
000140 4a 05 02 bd 4c a7 05 bd 57 95 45 bd 32 d0 ce 3c
       -0.031743325 -0.03263025 -0.048238125 0.02524576
000150 62 b8 44 bd c1 e1 13 3d 82 36 03 bd e8 1f 2d bd
       -0.048027404 0.036103968 -0.032034405 -0.042266756
000160 7a 50 ae 3c
       0.021278609
