src/models/charlie_parker/runs/Dec04-18_05:28:32/generator_state.pt (torch_old, 136039 bytes, 7 tensors)

embedder.weight f4 [89, 32]
000000 a9 08 db be eb 63 04 bf 7a 83 c4 3e 40 ec 01 3f
       -0.42780045 -0.5171496 0.3838156 0.50751114
000010 78 9e 0d 3f 97 9e 04 3f 7a 59 d0 be 6a 87 0b 3f
       0.5531993 0.5180449 -0.40693265 0.545035
000020 7b 68 00 bf 07 ee e4 3e 19 b0 12 3f 25 b9 c7 3e
       -0.50159425 0.4471285 0.57299954 0.39008442
000030 b6 0c 10 3f 66 d9 d4 be b5 23 19 bf a6 e2 0d bf
       0.56269395 -0.41572112 -0.5982011 -0.55423963
000040 4d 0b 0c 3f 6e bc 03 3f f3 35 0b bf 68 ab 09 3f
       0.54704744 0.51459396 -0.54379195 0.5377717
000050 50 63 cb be da ba f2 3e 48 fe df be 44 cd d4 3e
       -0.39724207 0.4740818 -0.4374869 0.41562855
000060 96 5b b8 3e 69 c5 0c bf a5 27 e6 be 49 8a b0 3e
       0.36007375 -0.54988724 -0.4495212 0.34480503
000070 48 c8 09 3f 83 97 0b bf 6e 9a fb be ae de 0a 3f
       0.5382123 -0.54528064 -0.49141258 0.5424603
000080 a2 3b b3 3c 79 eb 02 3d e2 37 2e bd 8b 90 21 3d
       0.021879021 0.031962845 -0.042533763 0.039444488
000090 54 2f 5a 3c c3 93 be bc c8 0c 3b bc 34 a1 2e 3c
       0.013316948 -0.023263818 -0.0114166215 0.010658551
0000a0 73 8a 9b bc 9d bb 0c 3d 38 47 4b 3c 1d 0d e0 bc
       -0.018986916 0.03435861 0.012407117 -0.027350003
0000b0 40 21 c2 bb 36 94 eb 3c d4 db 77 bc 15 5c 34 bd
       -0.005924374 0.028757196 -0.015128095 -0.04403313
0000c0 24 aa 6c 3c cc 34 73 3c e4 9d 68 3c da ed 18 bd
       0.014444862 0.014844131 0.0141978 -0.037336208
0000d0 2e b9 0b bd ab 17 10 3d 43 48 9e bc e8 7d ac bb
       -0.034112148 0.03517882 -0.019321566 -0.0052640326
0000e0 8c d5 75 bc 7d 40 35 bd 0a 53 87 bc 8d a2 ee bc
       -0.015004527 -0.044250954 -0.016519088 -0.029130245
0000f0 62 6c b4 3c 08 1e 7f bc 98 39 fa bb 3a fb 8d bc
       0.022024337 -0.015571125 -0.0076362602 -0.017331708
000100 2d bd e9 bc 97 b3 2e bd 8a 9b cb bc 3d 26 a9 bc
       -0.028532589 -0.04265174 -0.02485444 -0.020648116
000110 6d 0d 46 3d f4 9a 0c bd f0 26 da bc 00 52 d2 3a
       0.048352648 -0.034327462 -0.026629895 0.0016046166
000120 96 5f ed 3c fb 32 18 3d 7d dc b1 bc 61 d2 25 3d
       0.028976243 0.037157994 -0.021711582 0.040483836
000130 a2 81 a8 3c 05 01 3a bd b2 12 8f 3c 73 ff d0 bc
       0.020569626 -0.04541113 0.01746497 -0.025512433
000140 47 13 33 bd 5a ee d2 3c 08 04 07 3c f3 ba 9b bc
       -0.043719556 0.02574842 0.008240707 -0.019010043
000150 75 48 10 bd 90 50 9a 3b 02 0f 20 bd 9d fe d3 bc
       -0.03522535 0.004709311 -0.039076813 -0.025878245
000160 23 5b 4c 3d 43 e7 14 3d c6 b8 d6 3c 16 f7 c8 3c
       0.049891602 0.03635336 0.026211154 0.024531882
000170 68 c4 3d bc f7 60 2e 3d c5 49 33 bd b0 d0 cb 3b
       -0.011582471 0.04257294 -0.043771524 0.006219946
000180 0a 23 0a bd b4 e0 15 3c 79 87 35 3d 40 bc f4 ba
       -0.033724822 0.009147812 0.04431865 -0.0018671826
000190 0c 0e 2d 3c 98 5e e0 3b be 1f c9 3c 6d 24 32 3d
       0.010562431 0.006847214 0.024551269 0.04349177
0001a0 b2 e6 9f 3c 9a 1b 80 bc ac ba 01 bc 93 69 1a bd
       0.019519184 -0.015638161 -0.007918041 -0.03769834
0001b0 ac cf 70 3c 95 15 16 3d d6 a7 d6 3c 98 cf 70 bc
       0.01469795 0.036641676 0.026203077 -0.014697932
0001c0 dd 0a f2 bc 3a 39 a2 bc 2f 20 49 bd 8a 0e e3 3c
       -0.029546196 -0.019802678 -0.04910296 0.027716894
0001d0 de b2 91 3c 4c f3 60 3c d4 1b 64 3c 20 17 7a 3b
       0.017785486 0.0137298815 0.01392265 0.0038160756
0001e0 1b 9d 0a 3d aa 00 87 3c 90 03 f1 bb 00 b3 08 3c
       0.033841234 0.016479809 -0.007355161 0.008343458
0001f0 a0 2a 36 3c 83 4c 45 bd 14 a6 2f bc ad b6 b8 bc
       0.011118561 -0.04816867 -0.010720748 -0.022548044
000200 ee 48 0a bd a3 f6 18 bd 20 c1 41 bd 7e 28 07 bd
       -0.033760957 -0.037344586 -0.04730332 -0.0329976
000210 fe 01 9b 3c 42 a0 99 3c 18 c6 8d 3b 10 40 e0 bb
       0.018921848 0.018753175 0.004326593 -0.0068435743
000220 f8 8b 1f bd 0e 48 0a bd 74 9d 7d bc 60 6b 2f bb
       -0.038951844 -0.033760123 -0.015479434 -0.0026766881
000230 52 fa 04 bd 7a 58 c4 3c 46 f8 8f 3c e7 ba d0 bc
       -0.032465287 0.02396797 0.01757444 -0.025479747
000240 53 5a 47 bd 5d ad 27 bd 2d 8c 0d bd 00 cc 59 ba
       -0.048670124 -0.040936816 -0.03455751 -0.00083082914
000250 80 fb 05 bb 19 aa 31 3d b4 fe 15 bc 1b c7 40 bd
       -0.0020444095 0.04337511 -0.009154964 -0.04706488
000260 b8 68 2a bc 31 1a 1c 3d 26 7e 97 3c 8a 30 c5 3c
       -0.010400943 0.038110916 0.01849277 0.024070997
000270 6d 9e e6 bc 74 e2 6b bc e0 05 07 3c d0 68 62 bb
       -0.028151715 -0.014397252 0.008241147 -0.0034547336
000280 61 c1 0a 3d 07 e9 e3 bc 27 cf c0 bc 59 cb 46 3d
       0.033875827 -0.027821077 -0.023536278 0.04853377
000290 a8 52 9b bb 62 59 f5 3c 17 3f 2a 3d 36 be f1 3c
       -0.004740078 0.029949848 0.041564073 0.029509645
0002a0 60 88 c1 3a 29 00 47 3d 84 71 6c 3c 72 bd 94 3c
       0.0014765374 0.048584137 0.014431361 0.01815674
0002b0 79 c4 00 3d 24 34 6a 3c 98 32 8a 3b a2 3c b2 3c
       0.03143737 0.014294658 0.004217457 0.021757428
0002c0 c5 b0 13 bd 8a 2c 37 bd a7 ca 9e bc 90 43 05 bd
       -0.036057252 -0.04472021 -0.019383742 -0.032535136
0002d0 c6 aa 91 bc 76 b8 d7 3c 80 9b 4b bb 7d 38 f2 bc
       -0.017781626 0.026333075 -0.0031068027 -0.029567951
0002e0 b2 3e fa 3c 1e 5c 9f 3c c3 b5 f4 bc cc 46 91 bc
       0.030547474 0.019453105 -0.029871827 -0.017733954
0002f0 14 78 0b bc cc 08 2e 3c 0a f3 d8 bc 6d c9 b7 bc
       -0.008512516 0.0106222145 -0.026483078 -0.022434914
000300 f0 a8 42 bd 75 80 47 bd 22 69 2c bd d0 ee 46 bd
       -0.047524393 -0.04870649 -0.04209245 -0.048567593
000310 e8 57 f1 3b 06 83 b4 3c 2b 3f 1c 3d c2 61 a5 3c
       0.0073652156 0.022035133 0.03814618 0.020188216
000320 f0 47 d9 bb 00 47 09 bd 03 47 23 3d dd cc f4 bc
       -0.00663089 -0.033514977 0.039862644 -0.029882843
000330 0c af 24 bc 7a 65 40 bd 27 13 e7 bc e0 ab 33 3c
       -0.0100515 -0.046971776 -0.028207375 0.010966271
000340 00 1c 87 3a 5c f3 69 3c c8 6d 4c bd d1 bd 3f 3d
       0.0010308027 0.014279213 -0.049909383 0.046811882
000350 00 74 45 bb 54 01 3e bc 70 72 d2 3b 42 2d c8 3c
       -0.0030128956 -0.011596996 0.0064223334 0.024435643
000360 5a f3 f9 bc bd b8 42 3d 22 ae 0b bd e0 1c 72 bc
       -0.030511547 0.04753946 -0.034101613 -0.014777392
000370 07 93 d4 bc 4a 87 8a 3c 00 a6 5e bb 4e 00 f6 3c
       -0.025949014 0.016910214 -0.0033973455 0.030029442
000380 da 22 92 bc 62 41 d7 3c 10 71 d4 bb b0 d2 9c 3b
       -0.017838884 0.026276294 -0.0064832047 0.004785858
000390 82 a3 99 3c 35 19 1e bd a4 b3 85 bc 00 f8 18 3c
       0.018754724 -0.038598258 -0.01632101 0.009336472
0003a0 71 e7 3a 3d e0 06 4c bc 0e 95 a5 3c a6 c9 26 bd
       0.045630876 -0.012452811 0.020212676 -0.04071965
0003b0 71 4c 2e 3d 8a 74 21 bd 0a 82 44 bd 4a cd be 3c
       0.04255337 -0.03941778 -0.047975577 0.023291249
0003c0 fd 7d ff bc 00 0a ac bc f2 2f 29 bd d6 39 93 bc
       -0.031188006 -0.021000862 -0.04130549 -0.017971914
0003d0 3e 5c 27 bd 00 c8 7f bc 7a 30 ba 3c e2 ff 90 3c
       -0.040859453 -0.015611649 0.022728194 0.01770014
0003e0 55 fb 42 bd e2 4a 17 bd 6d 08 21 bd c7 68 3c 3d
       -0.04760297 -0.03693665 -0.039314676 0.04599836
0003f0 f8 6b 70 bc 0c 99 34 bc 3a ea f2 3c a2 7a ce 3c
       -0.014674179 -0.011022817 0.029652704 0.02520496

lstm.weight_ih_l0 f4 [256, 32]
000000 6c 49 c2 bd 42 fa 3d 3f d9 d1 f4 3e 78 a4 04 bf
       -0.0948666 0.7420999 0.4781635 -0.5181346
000010 37 3a ea be a7 92 0d be f0 6b da bc d6 f0 24 bf
       -0.4574754 -0.13825475 -0.026662797 -0.64429986
000020 42 a8 c5 3e 36 45 9f be 60 18 42 bf 58 cd 93 3e
       0.38604933 -0.3110749 -0.75818443 0.28867602
000030 b0 1b 3c bf c5 ec 17 bf 37 90 1d 3f 7a 1b 33 3f
       -0.7347975 -0.59345657 0.6154818 0.699638
000040 42 b0 3e bf 85 3c 19 bf f2 bf 03 3f ba 34 42 bf
       -0.744877 -0.5985797 0.5146476 -0.75861704
000050 62 37 6a 3e 9e bc c4 be d5 28 f3 3d be f2 14 be
       0.2287269 -0.38425153 0.118730225 -0.14545724
000060 67 64 62 3e 82 9b b8 3e b9 b5 c1 3e 7e e4 ce bc
       0.22108613 0.36056143 0.37833956 -0.025255438
000070 0d c0 20 bf c8 5d 17 3f 9f 6b bd 3e 25 a3 03 be
       -0.62793046 0.59127474 0.3699617 -0.12855203
000080 8b 1c c1 3e ac 2a 24 bf ac 41 03 bc 2b 6c cf be
       0.3771709 -0.6412761 -0.008011263 -0.40512213
000090 13 04 03 3f 4d ab 4c 3f 58 74 ef bd cb 87 42 be
       0.5117809 0.79948884 -0.11692113 -0.18997113
0000a0 44 9e 3f 3e 14 d1 cf be 9b 6f 48 3f 33 34 a3 3e
       0.18712717 -0.405892 0.78295296 0.31875762
0000b0 bb 9a 96 bc ac 63 a0 3d df 62 8f bf b2 f3 c7 bd
       -0.018384328 0.07831511 -1.1202048 -0.09763278
0000c0 52 60 46 3f c2 64 dd 3e 7d c5 f6 be 3a 26 20 be
       0.77490723 0.43240935 -0.48197547 -0.15639582
0000d0 a4 dd ee be 59 ec 81 3e 91 dd c0 bd 87 8f 06 3f
       -0.46653473 0.2537563 -0.094172604 0.52562755
0000e0 a5 05 79 be 45 1c c2 be da 22 24 be 7a af 4f be
       -0.2431856 -0.37912193 -0.1602892 -0.20281783
0000f0 4d 75 7f 3f 01 8c 0e bf a1 98 a0 be 9d dd 52 3f
       0.9978836 -0.5568238 -0.31366447 0.82369405
000100 17 36 45 bf 1a b8 81 be 82 cd c5 3f 15 72 3a be
       -0.7703566 -0.2533577 1.5453341 -0.18207581
000110 95 d5 56 be 23 d3 36 3f 5c 6e 2f bf 35 47 e5 be
       -0.20979913 0.7141592 -0.6852777 -0.4478089
000120 aa 39 b9 3d 78 d0 98 3e b9 d1 15 bf 39 eb 63 3f
       0.09044202 0.2984655 -0.58523136 0.89030796
000130 d0 02 2a bf c1 9e a5 bf be 51 8a bf 34 c3 f4 3e
       -0.6641054 -1.2939073 -1.0806196 0.47805178
000140 75 ef 05 bf 51 e5 09 bf 26 e9 e4 3e 9a 15 d7 be
       -0.5231851 -0.53865534 0.44709128 -0.42008668
000150 1e ae 98 bf b8 29 b6 3f 4e 2d f5 be 68 d4 37 3f
       -1.1928136 1.4231482 -0.47886127 0.7180848
000160 6d 3c 98 3f 46 5d fd 3e b9 1b 89 be 2b c9 92 3f
       1.189344 0.49485224 -0.26778963 1.1467642
000170 20 7b ee 3d 08 28 2b 3e 24 56 d1 be 2d ab 70 3f
       0.11644578 0.1671449 -0.40886033 0.94011194
000180 c8 72 88 3e cc 06 50 bf 31 f6 f1 3e ec 12 bf 3e
       0.2665007 -0.8126037 0.47258142 0.37319124
000190 13 d6 53 be 1f 47 03 3e d3 c1 5a be cb d8 79 3e
       -0.20687132 0.128201 -0.21363 0.24399106
0001a0 15 97 05 3e 31 88 1c 3f 43 db c9 3e 77 c6 9d 3e
       0.13045914 0.6114531 0.39425096 0.3081548
0001b0 3a 42 08 3f 66 9a cf be 77 d3 a8 3d 20 48 47 bf
       0.53226054 -0.40547484 0.08243459 -0.7784443
0001c0 4b ad 2f 3f 4a cf 46 3e 21 4a 10 bf 79 ac f1 3e
       0.686238 0.19415012 -0.5636311 0.472019
0001d0 81 7e a6 bd 72 02 14 3f 0c f1 34 bf 95 f9 1b bd
       -0.081295975 0.5781623 -0.7068031 -0.038079817
0001e0 96 c4 52 3e ed 4a 9d 3c bf 19 3b bf cf c4 3b 3e
       0.20582804 0.019200766 -0.7308616 0.18336795
0001f0 12 fd 01 3f d4 90 2f bf c9 0b 59 bf 07 64 64 3e
       0.5077678 -0.68580365 -0.8478361 0.22303782
000200 f6 c1 a0 bf 8c fc ac bf ba 88 b0 3f a2 de e6 3e
       -1.2559192 -1.3514571 1.3791726 0.4509173
000210 1f 81 93 3e 9d 8a 1b 3e 07 5c bc bf de 2f 51 3f
       0.2880945 0.15189596 -1.4715585 0.81713665
000220 cf 35 8a bf 46 11 49 3f 03 33 54 bf fd c2 40 3f
       -1.0797671 0.7854198 -0.8289034 0.7529753
000230 bc 25 bf 3e c2 62 a6 bf 67 d4 95 bf 0a cc 9c be
       0.37333477 -1.2998888 -1.1705445 -0.3062442
000240 50 cb 90 3f 81 3e 91 3f a9 54 45 bf 27 cc a2 3f
       1.1312046 1.13472 -0.77082306 1.2718552
000250 0a 0b 2b bf 8c 90 9e 3f af b3 6c bf ee 2f dc 3e
       -0.6681372 1.2387862 -0.92461675 0.43005317
000260 e3 e4 be 3f 78 41 83 bf a9 8a a2 bf fb 0d a8 3f
       1.4913601 -1.0254354 -1.2698566 1.3129267
000270 c9 7e fc 3c 04 d8 9a bf bd 33 a2 bf 56 8a 8c 3f
       0.030822175 -1.2097173 -1.2672039 1.0979717
000280 9b 89 5f bf c2 fa 91 be 85 25 bf 3f da 1f bb be
       -0.87319344 -0.28511626 1.4933325 -0.36547738
000290 49 1c 00 3e 1c 9a 1c 3f 35 72 76 bf d0 ac 2c 3d
       0.1251079 0.6117265 -0.96268016 0.042156994
0002a0 8e 0b bd be 8b 7e ee 3d 13 31 80 bf c3 e1 6a 3f
       -0.36922878 0.1164523 -1.0014976 0.91750735
0002b0 de 8d a7 be 2c 10 94 bf d6 e2 59 bf b8 58 1d 3f
       -0.32725424 -1.1567435 -0.8511175 0.614635
0002c0 e8 08 be bc c6 31 26 bf c5 1d 84 3e 26 0d 1a bf
       -0.023197606 -0.649197 0.25803962 -0.6017631
0002d0 dc 41 86 bf 4f cb 68 3f 46 94 4f bf cd 85 83 3e
       -1.0488849 0.90935224 -0.8108562 0.2568802
0002e0 62 77 8e 3f f9 5b 9b 3e 5f 45 fd be e8 3c 77 3f
       1.1130183 0.30343607 -0.49466988 0.9657731
0002f0 ea 00 ef 3d 2b 23 ba 3d a7 b9 05 be 03 c8 3e 3f
       0.11670096 0.09088739 -0.13059102 0.74523944
000300 44 74 3e be 7d 10 b3 be e3 97 ec 3e ba ce cc 3e
       -0.1859904 -0.34973517 0.4620963 0.4000147
000310 de 24 19 3f e1 15 ec 3c ec 5a b7 be 97 6d 3e 3f
       0.5982188 0.028819026 -0.35811555 0.7438597
000320 72 da 27 bf f1 ec 03 3f b0 3e 82 3e 4a 86 01 3e
       -0.65567696 0.5153342 0.25438452 0.12648883
000330 bd c0 11 3f d4 55 8e be 1f 0d 1f 3e 35 d9 34 bf
       0.5693472 -0.27799857 0.15532349 -0.7064393
000340 8a 7e 9d 3d 5e e7 5a 3e 81 18 25 bf 7d ad 92 3e
       0.07690151 0.21377322 -0.64490515 0.28647986
000350 5e c4 b8 be b3 f8 db 3e af 79 1b bf 62 e8 b4 3d
       -0.36087316 0.4296318 -0.6073255 0.08833386
000360 9b 85 d1 3e 8a f8 66 bd db 66 c4 be 87 c5 d9 3e
       0.40922245 -0.05638937 -0.38359722 0.42533514
000370 9c b8 c4 3e 29 23 9d be fb d0 ec be e5 4b 36 bd
       0.38422096 -0.30690888 -0.4625319 -0.044505972
000380 3e cc 73 be c3 cf 44 bf e6 9e 33 3f 89 d3 32 3f
       -0.23808381 -0.7687952 0.70164335 0.6985403
000390 ab a9 92 3f 68 b9 d4 3e 34 34 68 bf 6b e0 91 3f
       1.1458029 0.41547704 -0.90704656 1.1396612
0003a0 a7 7c 65 bf 99 3b 31 3f 0d 13 2e 3f c4 56 31 be
       -0.8964333 0.69231564 0.6799782 -0.17318255
0003b0 fd 70 63 3f 98 97 17 3e 1a 9b ca bd ba c5 3a bf
       0.8884428 0.14803922 -0.098928645 -0.72957957
0003c0 62 75 79 3f 5b 1b 0d 3e bc 3f 6c bf 6d b3 13 3f
       0.97444737 0.13779967 -0.9228475 0.57695657
0003d0 39 46 36 bf 9a 61 13 3f f5 3a 1f be 6d 07 2f bf
       -0.712009 0.57570803 -0.15549834 -0.68370706
0003e0 98 18 29 3e b3 c8 12 bf b0 96 37 bf ad ed 9e 3c
       0.16513288 -0.5733749 -0.71714306 0.019400442
0003f0 65 42 9f 3f 49 ba 8e 3e ec 7b 52 bf 23 ab da 3e
       1.2442137 0.278765 -0.8222034 0.42708692

lstm.weight_hh_l0 f4 [256, 64]
000000 c9 7c ef be 36 e0 b9 bd 94 f2 60 3d 7c ee 53 bd
       -0.4677489 -0.09075968 0.05491884 -0.05174111
000010 99 24 dc bd 18 1e 95 bd a9 30 0f bd cb 57 8c 3d
       -0.10749168 -0.072811306 -0.034958515 0.06852683
000020 b7 a5 0c 3e 5c 4a b2 bd c9 29 40 bd 19 3a 95 3d
       0.1373509 -0.08705589 -0.04691485 0.07286472
000030 31 ac 71 bd 75 b2 a7 3d 01 68 42 3e d0 3d f4 bd
       -0.059002105 0.08188335 0.18984987 -0.11925852
000040 ea 14 db bd 8a f8 06 be 7b 1c d8 3d f1 ee b1 bd
       -0.106973484 -0.13180748 0.10552307 -0.086881526
000050 ad cb 55 3d d1 65 f0 3e 87 60 19 be 7e be 9e 3d
       0.052196193 0.4695268 -0.14978229 0.07751177
000060 8c 6d 1e be b2 00 6c bd aa 5c fd bd b2 f8 bd bd
       -0.15471476 -0.05761785 -0.1237119 -0.092759505
000070 32 d9 9b 3d 8a a8 fe bd 14 97 14 be 28 b1 fe 3d
       0.07609786 -0.1243449 -0.14510757 0.124361336
000080 1f cc f5 3d 91 55 95 bd 88 a4 e6 bc f3 bb 90 3d
       0.12001824 -0.07291711 -0.028154626 0.070670985
000090 14 05 81 be cf f6 90 bd 36 30 63 bd b7 a4 1b 3e
       -0.25199187 -0.07078325 -0.0554659 0.15199552
0000a0 99 0b 28 be f1 25 52 be cd 49 96 3e c2 2a a8 bd
       -0.16410674 -0.20522286 0.2935318 -0.082112804
0000b0 d9 66 8e be 43 42 01 3e 5c 3d 37 be bd e3 be 3d
       -0.27812842 0.12622933 -0.178945 0.093207814
0000c0 75 5f d5 3c 5f 57 9f 3d dd a9 e1 3d 66 aa 89 3d
       0.026046494 0.077803366 0.11018727 0.06721954
0000d0 9e 39 09 3f 71 86 49 3e d8 6b b8 3e b1 29 cb bd
       0.5360354 0.19680192 0.36019778 -0.099200614
0000e0 8a 55 85 3d 81 22 37 bd 66 f9 ce bd d6 47 94 bd
       0.06510456 -0.04471064 -0.10106163 -0.07240264
0000f0 a8 b6 96 bd f0 84 b9 bd 74 11 d9 bd e7 85 80 b9
       -0.07359058 -0.09058559 -0.10599032 -0.00024513828
000100 b5 2f bb be ce 5e 53 bd 9a 80 9e bd 14 24 dd 3c
       -0.36559835 -0.051604085 -0.077393726 0.026994742
000110 dc 45 82 3b 77 8b 86 3d eb 25 8c bd 0e 8d ac 3d
       0.003975613 0.065695696 -0.0684317 0.084253415
000120 f8 c7 5a 3d 5b cd 0e bd f2 d1 28 bd d0 25 07 3e
       0.05341336 -0.03486381 -0.041215844 0.13198018
000130 fc 0c bf bd b1 c8 be bc 84 61 31 3d 54 36 5c bc
       -0.093286484 -0.023289056 0.04330589 -0.013440687
000140 30 f9 65 bc 13 f5 18 bc d2 7b 61 bd d0 97 76 bd
       -0.014036462 -0.009335774 -0.055049725 -0.060203373
000150 a4 87 cb bc 4a 0b b7 3e f9 45 04 3c 9b 0e fd bd
       -0.024844952 0.357508 0.008073323 -0.123563014
000160 ff 5f 19 be e4 5c c0 3c 04 97 26 bd 27 30 ab bd
       -0.14978026 0.023481794 -0.040671363 -0.08358794
000170 fd 11 5e 3e c2 11 e5 bd 29 9e cc 3c 67 e9 23 3d
       0.2168655 -0.11185028 0.02497776 0.04001751
000180 dd ef 95 bd 8d 03 0f bd 70 a6 c4 bc e3 79 10 3e
       -0.07321141 -0.034915496 -0.024005145 0.14108996
000190 18 e5 45 be 4c 6a 07 bd 73 02 b8 3c d1 30 5d 3d
       -0.19325674 -0.033060357 0.022462105 0.054001633
0001a0 5c 0b 3e 3d 71 a5 b3 bd 43 37 72 3e 08 3a 48 be
       0.046397552 -0.0877179 0.23653893 -0.19553387
0001b0 0e 7b e1 bd c7 6c 6e 3c f9 66 92 be 45 6d f9 3c
       -0.11009799 0.014552302 -0.28594187 0.030447612
0001c0 0d d7 b2 3d bf 71 96 bb 5c 47 d3 bc 72 76 73 bd
       0.08732424 -0.0045911963 -0.025790863 -0.05943913
0001d0 92 f2 07 3f 2b 27 c6 3d ed af 43 3e ab 5f f1 bb
       0.5310451 0.096754394 0.19110079 -0.007366141
0001e0 cb 1f 29 3c 35 a2 57 bd f6 08 ef bb bd 5b d4 bc
       0.010322521 -0.052644927 -0.0072947694 -0.02592265
0001f0 fb dc 4e bd f9 c3 02 3d 09 6b b3 bc 3e 70 ad 3d
       -0.050503712 0.031925175 -0.021901624 0.08468674
000200 91 29 06 bf 9c 3e 0f be 3b 60 39 bd 1a 05 6c bc
       -0.52407175 -0.13988727 -0.04525779 -0.014405513
000210 12 45 c5 3d 63 d3 7d 3d 48 48 8c bd a0 1c 42 3d
       0.09632315 0.061969172 -0.06849724 0.04739058
000220 7e ad 98 3d ef 92 69 3b f2 0d a5 bd c9 89 52 3e
       0.07454966 0.0035640558 -0.080593005 0.20560373
000230 0a 3f 86 bc 60 e2 59 3d b8 09 d8 3d 9c 12 f7 bc
       -0.016387481 0.053194404 0.10548729 -0.03016024
000240 71 6d bb bd 83 ab 34 bd af e5 22 3e d5 6d 83 bd
       -0.09151734 -0.04410888 0.1590793 -0.06417433
000250 9f c6 72 bd 0a 5e 15 3f b5 c5 b6 bd d4 2b ad 3c
       -0.05927145 0.5834662 -0.089244284 0.021139063
000260 b4 1e 7b be 78 18 56 bd 61 2e 07 be 16 9f e1 bd
       -0.24523431 -0.05226943 -0.13201286 -0.11016671
000270 bb d3 8f 3e 84 64 c2 bd 9b 8c d8 bd 04 e6 16 3d
       0.28091225 -0.09491828 -0.10573693 0.036840454
000280 ea 28 9f 3d 51 1e 8d bd aa d3 a1 bc 46 26 d8 3d
       0.077714756 -0.06890548 -0.01975425 0.10554175
000290 e6 97 20 be b2 e5 83 bd 36 c7 0e be a4 dc d3 3d
       -0.15682945 -0.06440295 -0.1394318 0.10344818
0002a0 c6 b0 a2 be 3a d6 e8 bd c8 80 9a 3e 7a 7c 06 be
       -0.31775492 -0.113689855 0.30176377 -0.13133422
0002b0 52 53 52 be 51 7a d2 3d cf e9 45 3d 67 97 5c 3d
       -0.20539597 0.10277236 0.04831868 0.053855326
0002c0 ce 82 44 3d 28 66 03 3e 67 a1 92 3c 16 49 29 3a
       0.047976308 0.12831938 0.017899228 0.0006457729
0002d0 5a 84 0c 3f 0d 09 22 3e 1c db 15 3e 68 e0 11 be
       0.5488945 0.15823765 0.14634365 -0.1424576
0002e0 c5 e0 95 3b 55 fe 20 be df 29 fa bd f5 57 56 bd
       0.0045739138 -0.1572202 -0.122150175 -0.052329976
0002f0 03 03 d9 bd 9b 18 d2 bc 4f 9f 94 bd 43 65 78 3d
       -0.105962776 -0.025646498 -0.07256948 0.060643446
000300 db e0 dd 3c 21 ed 7e bd 1f 1e 05 bd 4a 6d 18 bd
       0.027084759 -0.062237862 -0.03249943 -0.0372136
000310 3b 37 dd bc 71 06 8f 3d 77 5e 29 3c 4c 33 a0 bb
       -0.027003875 0.069836505 0.010337464 -0.0048889276
000320 5b a9 63 3d fc 7d 85 bb 67 16 04 bd 1a 47 a7 bc
       0.05558143 -0.0040738564 -0.032247927 -0.020419646
000330 4d c3 20 bc 8f ca 0a bd 88 54 07 3d 98 26 80 3c
       -0.009812188 -0.03388458 0.0330396 0.015643403
000340 00 53 63 bd a0 42 cd bc 36 75 5b 3d 97 65 86 bd
       -0.055499077 -0.025056183 0.053578578 -0.065623455
000350 07 a3 d3 3c f5 6d ad 3c d4 74 10 bd 32 4c 7d bd
       0.025834573 0.021170596 -0.035267666 -0.061840244
000360 a9 c3 0b bd b7 df 0b bb b3 09 85 bd 39 74 0d bc
       -0.034122143 -0.0021343061 -0.064959906 -0.008633667
000370 6a dd 0a be 28 36 10 bd bf 79 c5 bb af 78 92 3b
       -0.13561025 -0.035207897 -0.006026476 0.004469953
000380 b4 9d 95 bd 99 13 9e 3b 8d c0 f9 ba 95 2a 9e 3d
       -0.0730547 0.0048241136 -0.0019054577 0.07722966
000390 40 d8 95 bd 30 02 4c bc 3a 88 47 3a 0c 96 69 3d
       -0.07316637 -0.012451693 0.0007611547 0.05702786
0003a0 49 92 69 bd 73 80 1a bc 3c 43 0f 3d 90 4f ed 3d
       -0.057024274 -0.009430039 0.03497623 0.11587441
0003b0 cb da a1 bc 53 a1 f9 3c e8 79 05 bc 55 bf 9c 3d
       -0.019757649 0.030472433 -0.0081467405 0.07653681
0003c0 a6 88 15 3d 31 6d 65 3d d4 b1 91 3d ab 2f 1e bc
       0.03650727 0.056012336 0.07113996 -0.00965492
0003d0 87 f9 4a bd 0b b5 4e 3d 88 56 47 bb fa d1 df bc
       -0.049554374 0.050465625 -0.0030416567 -0.027321804
0003e0 a7 68 fc bc 81 0f 69 bd cb a8 ec 3c 75 8f a5 3c
       -0.03081162 -0.05689955 0.02888908 0.020210007
0003f0 56 3a 15 bd 08 a6 2c bd 58 ea 70 bc f0 34 52 bd
       -0.036432587 -0.042150527 -0.014704309 -0.051320016

lstm.bias_ih_l0 f4 [256]
000000 7f d3 f3 3e c1 fe 3f 3e cf 11 a4 3e 98 0d b7 3d
       0.47622296 0.18749525 0.32044837 0.0893814
000010 bc 80 7f 3e d3 f2 ce 3e e1 b2 ac 3d ef c7 b4 3d
       0.24951452 0.40419635 0.08432556 0.08827197
000020 8d c5 39 3e 49 d3 a9 3e ae c0 63 3e 8d 68 0c 3f
       0.18141766 0.3316901 0.2224147 0.5484703
000030 e7 a1 ae 3d 5a 2a 7f 3e 93 e4 46 3e f8 c9 7e 3d
       0.08526974 0.249185 0.19423132 0.06220433
000040 1a 70 0e 3c e4 28 ad 3d 8c 3f 50 3e 61 bc be bb
       0.008693719 0.08455065 0.20336741 -0.0058207964
000050 d5 de 0d 3f 90 20 df 3e d3 5c 69 3e 49 6a b3 3e
       0.5541814 0.4357953 0.22789316 0.35042027
000060 8f 29 8b 3e ab 7f 0d 3e fb 8a e9 3d f3 95 a0 3d
       0.27180144 0.13818233 0.114034615 0.078411005
000070 17 4b 1c 3f 3b 2b f6 3e 64 bc 5a 3e e9 b7 ef 3c
       0.6105208 0.48079857 0.21360928 0.0292625
000080 f1 b3 aa 3e e6 01 0b 3d 56 88 8c 3e 85 92 de 3d
       0.3334041 0.033937357 0.27447766 0.1086779
000090 46 73 1e 3e 4b ac 16 3d 0c 56 82 3e 80 5b 91 3d
       0.15473661 0.036785405 0.25456274 0.0709753
0000a0 da 93 90 3e e2 08 30 3e 31 38 eb 3e 95 17 16 3f
       0.28237802 0.17190889 0.45941308 0.58629733
0000b0 c7 df 5d 3e 7a 2c 3c 3e 37 0c 67 3f fe cb af 3d
       0.21667396 0.18376341 0.90253013 0.0858383
0000c0 47 d1 7a 3e 73 0e 32 3e 2d 2c 9e 3d 7b c6 35 3e
       0.24493895 0.17388324 0.077232696 0.17751496
0000d0 e2 61 0e 3f 8e cc 0c 3e 28 73 2f 3e 3d 10 0e 3e
       0.5561811 0.13749906 0.17133772 0.13873382
0000e0 37 a4 65 3e 48 99 8d 3e e8 2b 22 3e 41 72 4f 3e
       0.22425924 0.27656007 0.15837061 0.20258428
0000f0 09 52 76 3d f6 ef 86 3e 2e fd 85 3d ce 83 84 3e
       0.06013683 0.2635495 0.06542431 0.2588181
000100 2a 4d 51 3d 73 75 4f 3d 84 2f cf bc 0a 6b 41 3d
       0.05109898 0.050649118 -0.025291212 0.04722122
000110 1e fd 09 be ca a7 23 bd 42 af c9 3c 73 2a 68 bd
       -0.13475463 -0.039954938 0.024619702 -0.056681108
000120 e9 2a d8 3d 7b b8 ab bd 6b a0 b0 bd e1 de 4a be
       0.105550595 -0.08384796 -0.08624347 -0.19811584
000130 9a df 73 3d 0b 0b 3a 3d ad 06 ac 3d 98 46 a8 3d
       0.059539415 0.045420688 0.08399711 0.0821659
000140 f3 9d 80 3d 9a 20 2f 3d e7 86 06 bd 4e 8e 39 3d
       0.062801264 0.0427557 -0.032843497 0.045301728
000150 cd da 18 be d2 bc e2 3d 58 e7 84 bd 3b 32 04 3d
       -0.14927216 0.11071171 -0.06489438 0.032274466
000160 7f 02 82 3d 23 63 8c 3d fa 55 95 3c 4f 24 98 3d
       0.06348132 0.06854846 0.018229473 0.074288
000170 79 63 39 bd 75 e2 1e 3c c9 82 88 bb ae 85 6e 3d
       -0.04526088 0.009697546 -0.0041659814 0.058232956
000180 a8 c6 4b bd f9 64 c5 3c fb 8a 07 be 18 43 d8 3c
       -0.04975 0.024096 -0.1323661 0.02639918
000190 7d 20 9b 3d 6a a5 8d 3c 6c 7a 59 bc f9 d6 bf 3d
       0.07574556 0.01729079 -0.013273817 0.09367175
0001a0 92 5c aa 3d b4 48 ad 3d c0 e6 ad bd 9b c8 11 bd
       0.08318438 0.08461133 -0.08491278 -0.035591703
0001b0 a1 ef bc 3d 31 8a 26 bc 5f ad 94 be be d6 8f 3d
       0.09225393 -0.010164783 -0.29038522 0.07023381
0001c0 7f 7f 62 bd c3 0b 7c bc bf 2b 80 3d 8f f8 57 bd
       -0.05529737 -0.015383664 0.06258344 -0.05272728
0001d0 51 ba 94 3e 83 88 bd 3d 5f 07 e5 3d e3 57 6b bc
       0.29048398 0.09254553 0.111830465 -0.014364216
0001e0 6f 3d 5e bc d7 73 a8 3d fa 22 00 3e 27 47 a2 3c
       -0.013564452 0.0822522 0.12513342 0.019809319
0001f0 a7 43 3a 3c db 7d 8c bd 70 51 ed bc c3 bb 09 bd
       0.011368669 -0.068599425 -0.028969496 -0.03362633
000200 de 55 66 be a5 ec 00 be 2b 5e 71 3d 85 c0 29 bd
       -0.22493693 -0.12590273 0.058927696 -0.041443367
000210 f3 d6 26 3e 96 4f aa 3d 8f 71 a5 bd b4 21 a1 b9
       0.16292934 0.08315961 -0.080783 -0.00030733424
000220 cd 58 f4 3d 97 03 60 3d 44 f6 c1 bd 9a ac 33 3e
       0.11931 0.054690924 -0.094707996 0.17546311
000230 3b 8e 16 bd ca 96 2a 3d 50 62 45 3e 4c 19 9d bd
       -0.036756735 0.04164771 0.19275784 -0.076708406
000240 9d 2c c4 bd 7d 1b 82 bd 8c fc d7 3d 95 ca 7e bd
       -0.09578822 -0.06352899 0.10546216 -0.062204916
000250 0e 8e 01 be 70 c1 7b 3e a7 62 d3 bd ca 96 79 3d
       -0.12651846 0.2458551 -0.10321551 0.06093482
000260 a6 5f 49 be 4b 6a ef bd 03 95 e2 bd c7 2d 83 bd
       -0.19665393 -0.11690196 -0.11063578 -0.06405216
000270 c4 c9 12 3b bb 38 c5 3d 52 b3 41 bd 9f 16 d0 3c
       0.0022398094 0.09629961 -0.047290154 0.025401412
000280 0b 11 c6 3d d8 b0 be bd a4 e6 fd 3d 56 9d 46 3d
       0.096712194 -0.09311074 0.12397507 0.04848989
000290 11 a5 05 be de 0b 8e bd d8 0a cd bd 9d 7a ff 3d
       -0.13051249 -0.06935857 -0.10011834 0.124745585
0002a0 b7 2b b7 bd eb 7d e4 bd 49 79 40 3e 78 6a 00 3e
       -0.08943885 -0.111568294 0.18796267 0.12540615
0002b0 bf 96 2e be 82 72 37 3e f5 44 cd bd 53 0b 77 39
       -0.17049693 0.17914775 -0.10022918 0.00023559974
0002c0 c1 d0 c8 bd bd b6 c2 3d b0 28 97 3c 02 e2 b8 3c
       -0.09805442 0.09507511 0.018452018 0.022568706
0002d0 8b 56 bc 3e e8 ff f0 3d 34 b3 78 3d 24 d7 69 bd
       0.36784777 0.1176756 0.060717776 -0.05708994
0002e0 ce 4d 22 be 6c 92 06 be c9 83 07 be c6 00 d7 bc
       -0.15849993 -0.13141793 -0.13233866 -0.026245486
0002f0 d0 7a ce bd 9a 6e 94 bd ee 50 a7 bd c6 99 67 bd
       -0.100820184 -0.07247658 -0.08169733 -0.056543134
000300 d9 36 d1 3e 35 77 03 3e c5 37 f3 3e f1 16 fa bd
       0.40862158 0.12838443 0.47503486 -0.12211407
000310 b1 fb d3 3e 6b 63 09 3f 92 52 4a bc 5c c7 ea bc
       0.41402963 0.53667325 -0.012348788 -0.028659515
000320 ce e5 c9 3d cb a3 c4 3e 33 70 e9 3e 2e 69 4c 3f
       0.09858285 0.38406214 0.45593414 0.7984799
000330 02 5b 82 bc c0 77 e7 3e ca d1 2d 3e 27 f1 9a bd
       -0.015912537 0.4520855 0.1697456 -0.075655274
000340 3b fe bd bd 3e b5 a8 39 c7 6d a0 3e 33 24 2b be
       -0.09277006 0.00032178493 0.31333753 -0.16713028
000350 0e c7 37 3f 8c ce 00 3f b0 ef ae 3e 66 2f be 3e
       0.7178811 0.50315166 0.34167242 0.37145537
000360 6f 26 8d 3e bc 63 15 3d 62 89 a9 bd 7b 66 88 bd
       0.27568385 0.036472067 -0.08278157 -0.066601716
000370 83 8f 36 3f 48 53 18 3f 3b 3f 82 3e 90 bf a9 bd
       0.7131273 0.5950208 0.25438866 -0.08288491
000380 e9 3c 0d 3f 68 76 e4 bc 48 32 d8 3e c7 06 b7 bc
       0.55171067 -0.027888492 0.42225862 -0.022342099
000390 1f 6b e1 3d 24 88 ba bd 17 21 c3 3e a5 1b 18 3d
       0.1100676 -0.09107998 0.38111183 0.03713574
0003a0 8c ec 0e 3f 48 49 44 3d db 95 0c 3f e7 30 3a 3f
       0.5582969 0.04792145 0.5491616 0.7273087
0003b0 fa 0c 0e 3e 56 a9 07 bd d8 b0 51 3f 06 ca 97 bc
       0.13872138 -0.033120476 0.8191047 -0.01852895
0003c0 c7 e9 af 3e a4 51 9d 3e 8f 08 c5 bc 23 89 33 3e
       0.34358045 0.3072635 -0.024051933 0.17532782
0003d0 e3 67 12 3f b4 09 34 bc 3d 24 0b 3e 92 b4 d8 bc
       0.5718977 -0.0109886415 0.13588043 -0.02645329
0003e0 1d 3e c8 3e e1 ab e6 3e f8 68 ef 3c 5e 1b 78 3e
       0.3910989 0.45053008 0.029224858 0.2422919
0003f0 5a 57 93 3c 16 d0 a2 3e 30 9c c5 bd e6 be b6 3e
       0.017985988 0.31799382 -0.09648931 0.3569252

lstm.bias_hh_l0 f4 [256]
000000 10 04 dd 3e d9 db 7d 3e 00 25 92 3e fd de ad 3c
       0.43167162 0.24790896 0.28543854 0.021224493
000010 e9 d0 9c 3e 97 4c e7 3e 93 21 a9 3d db 97 80 3d
       0.30628136 0.4517562 0.08258357 0.06278964
000020 5a 1e 3a 3e 8d 78 97 3e b0 3b 8c 3e ef 0b 14 3f
       0.1817564 0.2958416 0.27389288 0.5783071
000030 63 1c 84 3d c4 35 74 3e e6 4f 33 3e 7d 8f be 3d
       0.06450727 0.23848635 0.17510948 0.09304712
000040 b3 ac 22 3d bb e0 ab 3d 0c 2a 76 3e d4 35 29 3d
       0.03971548 0.08392473 0.24039477 0.0413111
000050 18 ef 1d 3f 24 eb ec 3e 33 f0 79 3e 24 25 b7 3e
       0.61692953 0.46273148 0.24408035 0.35770524
000060 cb 9e 81 3e 1d 4c e5 3d 79 70 14 3e d8 b8 d8 3d
       0.25316462 0.11196158 0.1449603 0.10582131
000070 06 51 18 3f 6a 1e ef 3e b4 18 35 3e 58 b6 7e 3c
       0.5949863 0.46702892 0.17685205 0.015546404
000080 03 db a3 3e 19 b1 5f 3d 65 47 8a 3e 42 b3 ad 3d
       0.3200303 0.054612253 0.27007595 0.08481456
000090 b2 f1 e2 3d 8f 87 2d 3d 72 e3 7c 3e f6 d6 90 3d
       0.11081256 0.042365607 0.24696139 0.070722505
0000a0 0f a6 9c 3e fc 8a 1f 3e 63 a0 cd 3e 0b 8c 17 3f
       0.30595443 0.15580362 0.40161428 0.59198064
0000b0 b4 bc 51 3e c8 84 14 3e f7 fe 63 3f 5d 22 d3 3d
       0.20482141 0.14503777 0.8906092 0.10309289
0000c0 0a 73 9d 3e ea dd 34 3e d7 22 76 3d 95 31 fc 3d
       0.3075183 0.17662778 0.06009182 0.123141445
0000d0 e8 62 22 3f 3c f9 05 3e 89 33 20 3e 72 3a e8 3d
       0.6343217 0.13083357 0.15644659 0.113392726
0000e0 d7 da 8d 3e 41 b3 a0 3e bf e6 2d 3e 25 cb 4c 3e
       0.27706024 0.3138676 0.16982554 0.19999368
0000f0 0c be 13 3e f8 ae 43 3e 0f 29 83 3a 60 93 89 3e
       0.14427966 0.19109714 0.0010006743 0.2687025
000100 62 09 e0 3d 5b 78 a8 3d 02 e5 e8 bb da 49 81 bc
       0.1093929 0.08226081 -0.007107378 -0.015782285
000110 9d 19 36 be 45 a1 93 bd 7a 86 5f 3d c1 2d f6 3c
       -0.17783208 -0.07208494 0.054571606 0.030051114
000120 b8 fd 8a 3d d5 82 e1 bd f7 26 b3 bd fb 9b 65 be
       0.06786674 -0.11011282 -0.08747666 -0.22422783
000130 d6 39 22 3d 71 ac 5d 3d ce 74 7d 3d 54 72 d2 3d
       0.039605938 0.05411953 0.06187897 0.102757126
000140 7e b1 2b 3d f3 cf 95 3d d3 d7 7c 3c 91 12 93 3c
       0.041917317 0.07315054 0.015432316 0.01795319
000150 45 4e 27 be 33 71 f2 3d fb d8 c4 3b a8 79 b8 bc
       -0.16338451 0.11837997 0.0060073114 -0.022518948
000160 19 25 8d 3d 3f 1c 36 3d 40 4e 58 3c eb 1c c0 3d
       0.068918414 0.04446053 0.01320225 0.09380516
000170 39 d3 52 bd 56 a3 85 bc 39 3f 42 bd 8a 4e 97 3d
       -0.05147097 -0.016313236 -0.047423575 0.07388027
000180 16 a4 b7 bd 61 24 2c 3d 4b 45 e5 bd 0b fe 5c 3d
       -0.08966844 0.04202688 -0.11194857 0.05395321
000190 86 23 11 3e 54 dd a8 3c eb e5 6a bd 1d ed bd 3d
       0.14173707 0.02061335 -0.057348173 0.092737414
0001a0 d9 bd a6 3d 26 02 94 3d a0 81 b0 bd ec d4 b1 3c
       0.08141679 0.07226972 -0.08618474 0.021707974
0001b0 34 39 98 3d b0 9b b0 3d fe be 85 be 41 4d 8b bb
       0.07432786 0.08623445 -0.26122278 -0.0042511527
0001c0 6f 35 a1 bd 81 39 37 3d 3d d0 39 3d 03 e2 89 bd
       -0.0787152 0.044732574 0.045364607 -0.067325614
0001d0 92 3a aa 3e 63 2b 12 3e 82 d6 45 3e 70 a1 63 3d
       0.3324781 0.14274363 0.1932011 0.05557388
0001e0 25 dc cc 3c b3 f9 a0 3d 53 c5 43 3d ae e3 a4 bc
       0.025007317 0.07860126 0.047795605 -0.020128097
0001f0 d4 89 83 3d c7 14 c7 bd 58 53 83 3b 08 96 1a 3b
       0.06422773 -0.0972076 0.004007738 0.002358796
000200 ec 31 72 be 53 61 0b be 21 0f 8d 3d 5e c0 08 be
       -0.23651856 -0.13611345 0.06887651 -0.13354632
000210 f1 f4 f5 3d 2d e6 2f 3d 25 a3 c4 bd 6d 26 b5 3d
       0.120096095 0.042944122 -0.0960143 0.0884522
000220 c0 b1 13 3e 5d 3a c9 3d d6 b6 91 bd ff 40 42 3e
       0.14423275 0.09825585 -0.07114951 0.18970107
000230 a8 08 d1 bd 00 57 f4 3d 5a 19 21 3e 43 f4 fb bd
       -0.10206729 0.119306564 0.15732327 -0.123024486
000240 98 8b a1 bd 5f 22 fe bd e2 7a 88 3c 7a 29 02 bd
       -0.078879535 -0.124088995 0.016660158 -0.031777836
000250 b4 5e 20 be f6 c3 42 3e 4f 26 c3 bd 57 57 67 3d
       -0.15661126 0.19020066 -0.09528791 0.05647978
000260 da 7b 5f be a5 1f fd bd d5 16 16 be f7 bf ab bd
       -0.2182459 -0.12359551 -0.14657147 -0.08386224
000270 51 55 17 bd 99 13 9e 3d 11 70 0e be d4 cd 35 3d
       -0.0369466 0.07718582 -0.13909937 0.044385746
000280 2b d6 ae 3d 52 ca b2 bd 3a 87 56 3d 5c 00 3c 3d
       0.08536943 -0.08729996 0.052375056 0.04589878
000290 6c f9 ea bd c1 b1 2c bd 07 29 39 bd d8 c4 c2 3d
       -0.11473355 -0.042161707 -0.045205142 0.09510201
0002a0 1a b4 18 be 89 03 76 bd 06 28 1b 3e 42 3e 01 3e
       -0.14912453 -0.060061965 0.15151986 0.12621406
0002b0 0e ed 0e be bb 44 2d 3e 5f 9d 6d bd 40 35 8d 3d
       -0.13957617 0.1692075 -0.05801141 0.06894922
0002c0 2f 49 07 be db 2c e4 3d 55 a8 8f 3d d7 16 b4 3d
       -0.13211511 0.11141368 0.07014529 0.08793419
0002d0 6c d7 c2 3e 2a 96 f8 3d 76 c8 05 3e 8f a1 b5 bd
       0.3805498 0.121380165 0.13064751 -0.088687055
0002e0 3a c4 fc bd 33 b8 05 be 78 03 07 be a8 fb c4 bc
       -0.12342115 -0.13058548 -0.13184917 -0.02404578
0002f0 a9 42 5e bd 59 71 db bb c2 68 f6 bb 9b 53 eb bd
       -0.05426279 -0.0066968617 -0.0075198123 -0.11490556
000300 1a 80 de 3e a8 55 0e 3e fe 03 ef 3e 1c 9a 34 bd
       0.4345711 0.13899863 0.46682733 -0.044092283
000310 e6 ca e3 3e c7 34 08 3f a6 ae b2 bc a2 61 70 3d
       0.44490737 0.5320553 -0.021811794 0.05868686
000320 bd 69 0a 3e a1 53 c3 3e 90 8a c3 3e 09 aa 44 3f
       0.13516898 0.3814974 0.38191652 0.76821953
000330 02 81 22 bd 81 48 ea 3e eb 21 12 3e d1 af 18 bd
       -0.039673813 0.4575844 0.14270751 -0.037277047
000340 90 5c dd bd d4 89 4f bc 16 e0 83 3e 39 08 18 be
       -0.108086705 -0.012667138 0.25756902 -0.14846887
000350 4f 0f 38 3f d1 80 f9 3e 04 b8 b0 3e e7 0b b9 3e
       0.7189836 0.48731092 0.34515393 0.36141893
000360 90 5c 8b 3e ef 94 98 3d 60 0f 97 bd 41 5c 51 bd
       0.27219057 0.07450282 -0.073759794 -0.05111337
000370 a6 14 3b 3f e3 f4 18 3f 8d 4d 88 3e 1b e6 32 be
       0.7307838 0.5974867 0.26621667 -0.17470591
000380 29 de f8 3e 5f af 59 bd dd 5c d1 3e 03 5f d4 3c
       0.48606995 -0.053145763 0.40891162 0.025924211
000390 7b 2e 3f 3e 17 a0 b7 bd cb 1d d5 3e 15 69 fe 3c
       0.18670075 -0.089660816 0.41624293 0.031055966
0003a0 6e c0 02 3f 8d ff 46 3d 20 6e fc 3e a6 0b 36 3f
       0.51074874 0.048583556 0.4930277 0.71111524
0003b0 cc 35 c4 3d e9 e6 41 bc e7 72 51 3f 52 e3 71 bb
       0.095805734 -0.011834838 0.8181595 -0.0036909175
0003c0 51 ec b4 3e 66 72 9d 3e db f3 6b bd 38 61 78 3e
       0.35336545 0.30751342 -0.057605606 0.24255836
0003d0 d7 0d 11 3f 5c 85 7a 3c 18 d5 0c 3e 05 d4 b6 3c
       0.5666174 0.015290584 0.13753164 0.022317896
0003e0 3d c2 d7 3e 9a 1b ea 3e de fe f7 3c 3d 94 90 3e
       0.4214038 0.45724183 0.030272897 0.28238097
0003f0 7c ae 8d bd 73 19 aa 3e ec d6 9e bd 8d f2 b8 3e
       -0.06918046 0.3322254 -0.07755837 0.36122552

fc.weight f4 [89, 64]
000000 ff d1 e2 3e 2a ee 49 be ba ea d6 3d c1 83 ab be
       0.4430084 -0.19719759 0.10493989 -0.33498958
000010 e1 1b d6 be 61 00 ff be e5 8f 8e be 60 b6 13 3f
       -0.41818145 -0.49804977 -0.27844158 0.5770016
000020 81 31 bb 3e a9 27 9c be b8 fb 7b be a4 f2 23 be
       0.36561206 -0.30499008 -0.24607742 -0.16010529
000030 51 82 db be 90 26 26 3e 1c 4b 20 3e 37 70 b7 be
       -0.4287286 0.16225648 0.15653652 -0.358278
000040 1c 08 c4 be 8c 46 83 be 33 b9 01 3e 5a 2a df be
       -0.38287437 -0.2563976 0.12668304 -0.43587
000050 ff 57 da 3c 8c 27 f6 be 4e 3e 5f be 98 a2 8d 3d
       0.026653288 -0.48077047 -0.21801111 0.06915778
000060 54 f2 94 3d f5 e7 2d be 71 87 39 be 36 bb d8 be
       0.07272783 -0.16983016 -0.18118073 -0.4233033
000070 2a 54 1a be cd c1 92 3d 8b 69 f8 bc d9 bb 06 3f
       -0.15071169 0.07165871 -0.030323764 0.5263038
000080 43 fc 14 3e bf 50 c8 be ad 30 eb bd 8a 3d d1 3e
       0.14549355 -0.39124104 -0.114838935 0.40867263
000090 c5 d6 a1 be d5 6b d9 be af 90 28 bd 23 13 89 3e
       -0.3160917 -0.42465082 -0.041153606 0.26772413
0000a0 17 19 18 be e7 f8 bf be db 22 7e be 42 af ec bd
       -0.14853321 -0.37494585 -0.24817984 -0.11556865
0000b0 21 eb b4 be 63 28 21 3e 4e f2 12 bf 43 02 f6 3e
       -0.3533564 0.15738063 -0.5740098 0.480486
0000c0 bf 3f fa ba a6 8a 99 3d eb 7d ea 3e 86 ff d7 3e
       -0.0019092484 0.07497148 0.45799193 0.42187136
0000d0 74 3a cb be 5a 91 ca 3e 42 25 e2 3e d6 9b e8 be
       -0.39693034 0.3956402 0.4416905 -0.45431393
0000e0 9a 0a d3 3d ce 45 f9 bd 5d 4d 8a be c5 04 a4 be
       0.103047565 -0.12171517 -0.27012148 -0.3203489
0000f0 e8 77 d5 be 26 92 c6 be 73 44 ba be 76 ee 02 bc
       -0.41693044 -0.38783377 -0.36380348 -0.007991424
000100 2c 97 1c 3f 0e 51 78 3e 2a 84 03 be f6 05 3a 3e
       0.6116817 0.2424967 -0.12843385 0.18166336
000110 cd 0d 9e 3d 09 d0 9e 3d 25 e0 51 3e cf f8 18 be
       0.07717476 0.07754523 0.2049566 -0.14938663
000120 df 04 4a be 6e 73 1e 3e 32 64 17 3e 3e 74 db be
       -0.1972842 0.1547372 0.14784315 -0.42862123
000130 c8 3e 61 3e 67 df 54 be 01 a2 30 be d4 bf 44 3e
       0.21996605 -0.20788346 -0.172493 0.19213802
000140 bb 56 43 3e e3 34 7d 3e 69 ce 1c be d9 f7 13 3e
       0.19076054 0.24727206 -0.15313114 0.14450015
000150 e6 b3 b1 3e 03 b6 17 bf bb 58 34 3e f3 79 21 be
       0.34707564 -0.592621 0.17611973 -0.15769176
000160 62 18 85 3e ea 8e 7b 3e 93 cb 79 3e b3 96 19 3e
       0.25995165 0.24566236 0.24394064 0.14998893
000170 93 5c 8c bc 02 8e af bd 0c a7 40 3e bf e1 4e be
       -0.017133987 -0.08572008 0.18813723 -0.20203303
000180 56 69 39 be 6b 8b 4e 3e 54 6c 38 be e0 2c 3b be
       -0.18106589 0.20170371 -0.18010074 -0.18278837
000190 af ae 94 3e 65 8f 30 3e b4 1a 31 3e 9d e0 20 be
       0.29039523 0.172422 0.17295343 -0.15710683
0001a0 16 7f 1c 3e 83 8c 6f 3e 89 01 0c bf 05 70 c9 bd
       0.15282854 0.23393445 -0.5468984 -0.09835819
0001b0 2c c2 94 3e 18 b2 50 be fd ad 5d 3e d9 80 19 be
       0.2905439 -0.20380437 0.21648403 -0.14990558
0001c0 ac 6d ee 3d 79 c8 18 be 28 ce 35 be f3 0f 26 be
       0.11642012 -0.14920224 -0.17754424 -0.16217022
0001d0 a1 a2 1c bf 31 35 77 be ff 45 8d be a9 1c 4e 3e
       -0.6118565 -0.24141385 -0.27592465 0.2012812
0001e0 e1 23 54 3e 61 ed 69 3e 92 bc 3a 3e fb d5 57 3e
       0.20716812 0.22844459 0.18235996 0.21077721
0001f0 c4 08 1b 3e 2c b8 0e 3e 5e bd 67 3e bb a3 1f 3e
       0.15140063 0.13937443 0.22630832 0.15589802
000200 3d 44 18 3f 41 15 7b 3e 35 3c 4d be b7 26 4b 3e
       0.59479123 0.24519826 -0.20042498 0.19838987
000210 35 9f 67 3d 11 ee d9 3d b0 30 1e 3e f4 49 0a be
       0.056548316 0.10641111 0.1544826 -0.13504773
000220 a1 72 26 be 11 35 32 3e 8d 60 42 3e 2f d1 df be
       -0.16254665 0.17403056 0.18982144 -0.43714282
000230 85 ef 32 3e 01 29 55 be 11 e5 52 be d3 31 7d 3e
       0.17474182 -0.20816423 -0.20595194 0.24726038
000240 f5 be 2d 3e 74 12 1b 3e 58 e9 1f be da c2 56 3e
       0.16967376 0.15143758 -0.15616357 0.20972767
000250 27 47 b8 3e a9 20 12 bf c9 f1 69 3e 1c 38 6e be
       0.35991785 -0.57081085 0.2284614 -0.23263592
000260 dc 14 8f 3e df 26 34 3e a7 87 24 3e 2f d2 6a 3e
       0.27945602 0.17592953 0.16067372 0.22931741
000270 26 b4 96 bb 07 e2 08 bd 65 81 3b 3e 08 08 3e be
       -0.004599112 -0.03341868 0.18311079 -0.18557751
000280 41 ef 4a be 9e 6d 1e 3e 26 37 59 be 92 67 43 be
       -0.1981783 0.15471503 -0.21212444 -0.19082478
000290 88 51 71 3e 22 a6 17 3e 85 9c 30 3e fe 7f 3b be
       0.23566258 0.14809468 0.17247207 -0.18310544
0002a0 88 05 40 3e 82 d1 74 3e 81 0a 12 bf ce 54 da bd
       0.1875211 0.23908046 -0.5704728 -0.106607065
0002b0 29 64 5d 3e c3 b3 51 be a6 e2 8c 3e ec 0d 42 be
       0.2162024 -0.2047873 0.2751667 -0.18950623
0002c0 db 4e c7 3d 39 9a 24 be 17 3b 5d be 3f 4f 0f be
       0.09731837 -0.16074456 -0.21604572 -0.13995074
0002d0 3f 15 1f bf 6a 82 56 be 61 5d 72 be 38 c5 26 3e
       -0.62141794 -0.20948187 -0.23668434 0.1628617
0002e0 dd 78 18 3e 74 18 26 3e f8 a4 57 3e 8e 8f 5a 3e
       0.14889856 0.16220266 0.21059024 0.21343824
0002f0 f6 09 7a 3e f2 62 44 3e 11 64 6f 3e e7 25 06 3e
       0.24417862 0.1917837 0.23378016 0.13100396
000300 28 5c 14 3f c4 ec 52 3e 85 f9 41 be 37 b7 36 3e
       0.5795312 0.20598131 -0.1894284 0.17843328
000310 ff 03 53 3d 9c b5 ed 3d ea d4 40 3e 93 8e 3e be
       0.051517483 0.11606905 0.1883122 -0.18609075
000320 c0 a7 25 be 4d 3c 0a 3e 8d 5e 1c 3e 94 80 df be
       -0.16177273 0.13499565 0.15270443 -0.43652785
000330 fe e6 20 3e 0f d5 65 be fb d1 38 be b9 25 3c 3e
       0.15713117 -0.22444557 -0.18048851 0.18373765
000340 38 6d 31 3e b5 18 48 3e f7 a5 5d be c8 95 13 3e
       0.1732682 0.19540675 -0.21645342 0.14412606
000350 bc 38 92 3e 4a 95 1c bf 27 85 58 3e 57 df 22 be
       0.2855891 -0.611653 0.21144544 -0.1590551
000360 3e 71 a4 3e 0e 69 82 3e da de 7c 3e 24 0e 11 3e
       0.32117647 0.25470775 0.24694386 0.1416555
000370 18 16 94 bd b0 ed 01 be 6c d6 7b 3e 44 83 72 be
       -0.072307765 -0.12688327 0.24593514 -0.23682886
000380 14 23 62 be d2 5a 4d 3e 73 c6 30 be 8f eb 2e be
       -0.22083694 0.20054176 -0.17263202 -0.17082046
000390 f7 62 8d 3e fd fb 3b 3e 64 c3 75 3e 90 6e 40 be
       0.27614567 0.18357845 0.24000317 -0.18792176
0003a0 c2 ff 4f 3e 9e 44 7a 3e 31 e1 02 bf e2 3c de bd
       0.20312408 0.24440238 -0.51124865 -0.10851456
0003b0 61 fa 5d 3e 26 da 29 be 52 48 94 3e 6d 5a 2c be
       0.21677543 -0.16587123 0.28961426 -0.1683137
0003c0 b3 c7 03 3e d1 86 40 be d5 07 09 be d1 7d 35 be
       0.12869148 -0.18801428 -0.13381894 -0.17723776
0003d0 f9 86 1b bf 5a 58 37 be db c6 88 be 73 a0 51 3e
       -0.60752827 -0.17904797 -0.26714215 0.20471363
0003e0 ba e0 35 3e ae 33 24 3e 52 ba 5e 3e 4b 5d 0b 3e
       0.17761508 0.16035339 0.21750763 0.13609807
0003f0 b2 a7 59 3e e8 32 43 3e 31 03 15 3e 7d df b4 3d
       0.21255377 0.19062388 0.14551999 0.088316895

fc.bias f4 [89]
000000 d5 13 ae bb 37 f0 85 be 67 07 53 be d2 68 63 be
       -0.0053124228 -0.26159832 -0.20608293 -0.22207955
000010 9b 14 77 be 82 a5 34 be ab 38 4a be 24 81 3e be
       -0.24128954 -0.17641261 -0.1974818 -0.1860395
000020 91 6c 3a be bf 06 76 be 53 0b 85 be 81 7e 87 be
       -0.18205477 -0.24026011 -0.25985202 -0.26463702
000030 3c b0 4b be 4c f6 58 be a5 57 81 be d3 3b 70 be
       -0.19891447 -0.21187705 -0.2526218 -0.23460321
000040 96 81 80 be 68 d8 88 be ef a4 4f be 7f fc 39 be
       -0.25098866 -0.26727605 -0.20277761 -0.18162726
000050 dc 0d 6a be 96 bc 54 be ae 78 6c be 37 9b 4f be
       -0.2285685 -0.20775065 -0.2309291 -0.20274054
000060 76 af 3d be b7 fa 6b be 08 de cc bd c1 6e e8 bd
       -0.18523964 -0.23044859 -0.100032866 -0.1134925
000070 25 1c 38 bd e4 1b c8 3c d9 1b 84 3d 90 2f a7 3e
       -0.044948716 0.024427362 0.06450624 0.32653475
000080 bf ac b8 3e 79 bf c8 3d 6a e2 c9 3d cb e0 05 3d
       0.36069295 0.098021455 0.09857638 0.032685082
000090 a2 f7 77 3e a7 32 76 3e 0f 46 ef 3c 35 a8 27 3e
       0.24215558 0.2404276 0.029208211 0.1637276
0000a0 fb b2 71 3d ba 2d 3b 3e 46 4f 87 bd 7f 97 fb bc
       0.05900858 0.18279162 -0.06606917 -0.030711887
0000b0 00 79 46 3d 4e 38 c1 bd bc fa b8 3d db 6d be bd
       0.04845524 -0.094345674 0.09032199 -0.09298297
0000c0 6c 93 47 bd ab 02 9b bb 5d b5 a3 3d 09 48 ee bb
       -0.048724577 -0.0047305427 0.07993577 -0.007271771
0000d0 06 8e 9e bd b3 8b 3a 3e 70 c5 c7 3d 24 d2 24 3d
       -0.077419326 0.18217354 0.09754455 0.04023947
0000e0 7d 98 0b 3e 80 5e 32 3e 07 7c 38 3e 91 0d a5 3e
       0.13632388 0.17418861 0.18016063 0.32236913
0000f0 c7 36 8e 3e 5d 20 1e 3e f7 26 ea bc bf f5 50 bd
       0.27776167 0.15442033 -0.028583033 -0.05101561
000100 a4 73 d6 bd 54 bb 05 be 14 68 02 be 19 08 fb bc
       -0.104712754 -0.13059741 -0.12735015 -0.03064351
000110 0f c1 e2 bd 57 84 82 be 38 ce 8e be 52 b5 67 be
       -0.11071979 -0.25491592 -0.27891707 -0.22627762
000120 33 e4 43 be f4 40 8b be d2 66 8c be dc d8 85 be
       -0.1913002 -0.27197993 -0.27422196 -0.26142013
000130 46 f1 51 be 45 c1 83 be a2 65 84 be 0d b0 32 be
       -0.20502195 -0.2573339 -0.2585879 -0.1744997
000140 a4 f6 4c be 65 51 7d be bd a1 38 be d5 6c 5a be
       -0.20015961 -0.24738081 -0.18030448 -0.21330579
000150 b8 f7 69 be fd 28 87 be dd 4f 84 be 61 b1 58 be
       -0.22848403 -0.2639846 -0.2584218 -0.21161415
000160 cc 5e 45 be
       -0.19274443
