src/models/bebop/runs/Nov15-18_21:23:40/generator_state.pt (torch_old, 180283 bytes, 7 tensors)

embedder.weight f4 [89, 64]
-0.690098 -0.6919028 -0.05559174 -0.17902306 -0.36900008 0.11841456 -0.628654 -0.5237785
0.20404945 -0.48398113 0.34323448 0.20871358 -0.6233816 -0.19204879 -0.7068888 -0.0872646
1.6492085 -0.6213701 -0.93896806 -0.75123143 0.692585 -0.028647022 -0.08744369 0.03233401
-0.6445442 -0.20912829 0.19416486 0.13634801 0.25190535 -0.6915551 0.16331767 0.21647824
-0.5324862 -0.17806022 -0.20183766 -0.34801802 0.3895044 0.11059472 -0.000682071 0.26513064
0.32663748 -0.047806855 -0.3143814 -0.1553544 -0.33268112 -0.20785166 0.37713227 -0.5779506
0.079390354 0.44551167 -0.5106761 0.4454948 0.27568847 0.44086316 0.41744897 0.0216477
-0.20305675 0.21548982 -0.39195794 0.30216956 0.22985435 0.36507574 0.49226844 0.23062484
-0.042006336 0.017715495 -0.0050666146 0.03401542 -0.00028967112 0.007231403 -0.007954914 -0.012471013
0.023952696 -0.014379889 0.047221262 0.03735367 -0.046851005 -0.035725124 0.006277062 -0.043144178
0.012550425 0.030055527 -0.021595163 -0.011191737 0.045448754 -0.047927093 0.043748613 0.022575777
-0.037005745 0.04698139 0.0431767 -0.040900636 -0.015235763 0.009955 0.03169692 0.031742338
0.008759864 -0.01344455 0.015180569 -0.01672434 -0.046331562 -0.0120734945 -0.03991565 -0.023265094
-0.031079674 0.011774212 0.024024975 0.010775931 -0.04038759 0.026035849 0.021034364 0.049994055
-0.0381639 -0.010286767 -0.02486427 -0.010737956 0.013514925 0.046531703 0.03427657 0.0419149
-0.022856092 -0.03408798 0.015849028 0.028608207 -0.017464317 -0.042157155 0.00054082274 -0.045191456
-0.030323371 -0.024924422 -0.04392709 -0.02976378 0.059791952 0.07178289 0.04094484 -0.037125017
0.045592505 0.0009939233 0.045748033 0.0046703303 0.047933076 -0.06926447 -0.02212589 -0.04396618
0.047993463 -0.009009526 -0.05174004 0.06749897 -0.011353574 0.0012157019 -0.036651194 0.04023235
0.030135341 -0.022072628 -0.047564004 0.022539236 0.014463788 -0.018647285 0.029312732 -0.051928386
-0.024542637 -0.0270462 -0.008350876 -0.008802926 0.00046643257 0.028284576 0.048691113 0.042933576
-0.043856867 -0.07151162 0.010907044 -0.003872817 -0.007397386 -0.028454036 -0.018548163 0.0212698
0.042363644 -0.03859853 0.024312953 -0.0020241546 -0.022326512 -0.06854013 -0.028838404 0.03660588
0.0075027742 -0.046500452 -0.043560795 -0.0050223283 -0.011098652 -0.019714048 -0.024551565 0.010985017
-0.020681268 -0.020029813 -0.0007317178 -0.004359342 0.04354466 -0.04077704 0.048096005 0.017441656
-0.038344152 0.042596582 -0.0063909777 0.037521522 0.023872737 0.016133543 -0.0016370825 -0.027967686
-0.012717627 0.00867293 -0.0374363 -0.041165672 0.048214663 -0.037413944 -0.007921688 0.028635446
0.018683944 0.036795948 0.037777063 -0.0033605471 -0.043324858 -0.03762295 -0.0061095282 -0.0006343797
-0.010083746 0.0003392808 0.043248963 -0.0099164955 0.023480248 -0.0024824925 -0.025659502 -0.037169598
-0.04565994 0.034388516 0.0071766675 -0.029843891 0.017471496 -0.022375291 -0.025671197 -0.026284236
-0.049684804 -0.038860936 -0.043504793 -0.021433849 0.043197315 -0.017360497 0.042781707 0.0013114214
0.039126802 -0.035345323 0.037386592 0.008083843 -0.009493522 -0.045603346 -0.045963865 0.0028473847
00000000: 43aa 30bf 8b20 31bf 2ab4 63bd d251 37be
00000010: 94ed bcbe 5583 f23d 78ef 20bf 5916 06bf
00000020: 57f2 503e 60cc f7be 6ebc af3e 03b9 553e
00000030: f095 1fbf 70a8 44be aaf6 34bf c8b7 b2bd
00000040: 4419 d33f 1c12 1fbf 3660 70bf b450 40bf
00000050: 404d 313f 29ad eabc ad15 b3bd ab70 043d
00000060: d900 25bf ba25 56be 27d3 463e d09e 0b3e
00000070: bdf9 803e c109 31bf bf3c 273e 79ac 5d3e
00000080: 0451 08bf 6b55 36be 88ae 4ebe 6b2f b2be
00000090: 1f6d c73e 7c7f e23d 03cd 32ba 34bf 873e
000000a0: 073d a73e 1fd1 43bd 99f6 a0be 3915 1fbe
000000b0: 2e55 aabe 11d7 54be 7b17 c13e 92f4 13bf
000000c0: 6997 a23d 1b1a e43e abbb 02bf e517 e43e
000000d0: 0a27 8d3e d1b8 e13e dfbb d53e 8456 b13c
000000e0: 1cee 4fbe 5da9 5c3e b6ae c8be f8b5 9a3e
000000f0: f05e 6b3e 35eb ba3e 9c0a fc3e eb28 6c3e
00000100: d60e 2cbd 1620 913c d805 a6bb c153 0b3d
00000110: 00df 97b9 68f5 ec3b 5455 02bc 3853 4cbc
00000120: 7238 c43c a099 6bbc 156b 413d 2900 193d
00000130: d7e6 3fbd 8254 12bd d0af cd3b f3b7 30bd
00000140: 4ca0 4d3c 0237 f63c 57e8 b0bc 8c5d 37bc
00000150: 7928 3a3d 334f 44bd bf31 333d d6f0 b83c
00000160: 5693 17bd 8f6f 403d 0dda 303d 6d87 27bd
00000170: 6c9f 79bc 4c1a 233c a1d4 013d 4104 023d
00000180: 8885 0f3c 8846 5cbc ecb7 783c 7c01 89bc
00000190: 2ac6 3dbd e8cf 45bc 987e 23bd 7096 bebc
000001a0: cd9a febc a0e8 403c 06d0 c43c 888d 303c
000001b0: 756d 25bd 2249 d53c 4250 ac3c 91c6 4c3d
000001c0: c051 1cbd d489 28bc 27b0 cbbc 40ee 2fbc
000001d0: b46d 5d3c 0798 3e3d 9765 0c3d f5ae 2b3d
000001e0: b33c bbbc d69f 0bbd d2d5 813c c25b ea3c
000001f0: 5411 8fbc fbac 2cbd 00c6 0d3a ad1a 39bd
00000200: b868 f8bc 4d2e ccbc e4ec 33bd 2cd3 f3bc
00000210: 68e8 743d e802 933d c7b5 273d 6710 18bd
00000220: 35bf 3a3d 8846 823a 4a62 3b3d 9209 993b
00000230: 7955 443d 88da 8dbd 5b41 b5bc e215 34bd
00000240: cb94 443d b19c 13bc 5ded 53bd e63c 8a3d
00000250: 5704 3abc 3058 9f3a 901f 16bd adca 243d
00000260: 64de f63c a8d1 b4bc 79d2 42bd 34a4 b83c
00000270: 86f9 6c3c 31c2 98bc 4121 f03c dcb2 54bd
00000280: a40d c9bc fe8f ddbc 1dd2 08bc 263a 10bc
00000290: 858b f439 0eb5 e73c 5570 473d 1edb 2f3d
000002a0: 42a3 33bd af74 92bd 75b3 323c 16cf 7dbb
000002b0: c565 f2bb 7018 e9bc 51f2 97bc 013e ae3c
000002c0: 8085 2d3d 7e19 1ebd f52b c73c aea7 04bb
000002d0: 17e6 b6bc c55e 8cbd 843e ecbc 0cf0 153d
000002e0: d5d9 f53b 4277 3ebd ce6c 32bd 5892 a4bb
000002f0: 1fd7 35bc 5b7f a1bc 5d20 c9bc 80fa 333c
00000300: c36b a9bc 9015 a4bc c0d0 3fba d0d8 8ebb
00000310: e35b 323d d305 27bd 5100 453d cee1 8e3c
00000320: c20e 1dbd c179 2e3d 686b d1bb 2bb0 193d
00000330: c290 c33c 7e2a 843c 6093 d6ba 7d1c e5bc
00000340: 985d 50bc e818 0e3c ce56 19bd 569d 28bd
00000350: bd7c 453d 5d3f 19bd f8c9 01bc e294 ea3c
00000360: 120f 993c 59b7 163d 1fbc 1a3d a03c 5cbb
00000370: 6875 31bd 861a 1abd 7032 c8bb 804c 26ba
00000380: 4c36 25bc 80e1 b139 d325 313d cc78 22bc
00000390: a659 c03c 50b1 22bb e033 d2bc 263f 18bd
000003a0: eb05 3bbd f9da 0c3d 402a eb3b 2d7b f4bc
000003b0: 6220 8f3c 634c b7bc 674c d2bc 0a52 d7bc
000003c0: 4b82 4bbd a52c 1fbd 1532 32bd 0a96 afbc
000003d0: abef 303d 9a37 8ebc df3b 2f3d 00e4 ab3a
000003e0: 6d43 203d 42c6 10bd af22 193d 1872 043c
000003f0: b88a 1bbc 93ca 3abd 9b44 3cbd 309b 3a3b

lstm.weight_ih_l0 f4 [256, 64]
0.043874495 0.23214257 0.23508622 -0.657559 0.6192271 -0.9263789 -0.11038049 0.12458331
-0.92470896 -0.87735707 2.0528336 0.020564122 1.2251796 -0.26180086 -1.1763294 0.19799516
0.08001633 -0.5380166 -0.97977036 0.5185441 -1.9336103 -0.81094974 -0.602675 -0.7755446
-0.83134586 -1.3493024 0.81136817 -0.4424459 1.1960481 0.8383804 -0.6098488 0.97596776
-0.5208293 -0.20394316 -0.80773824 0.5113113 -0.56737655 -0.28780952 0.39550665 -0.65942657
0.1894787 0.045894157 1.109542 -1.1172884 -0.6683434 0.56472224 -0.2406986 -1.2706279
0.40556136 -0.5407321 0.8361983 -0.3569639 -0.1923877 1.3720678 0.16405544 -0.13010018
1.2950336 -0.9377129 -0.646584 -0.8500273 7.469523e-05 0.7230663 1.3737987 0.15956944
0.6419837 0.3314325 -0.13344993 0.16379401 -0.12822913 0.87556416 0.6278067 -0.15903398
0.05818963 0.1330251 -0.20913354 0.3463244 -0.15908688 0.8920218 0.5974785 0.17995715
-0.05652107 0.034015387 -0.058643837 0.6946587 0.31847957 0.037284926 0.04751671 0.36681268
0.56700253 0.09488455 0.12145221 0.49933788 -0.69272333 0.21030238 0.2430608 0.054517463
0.46480027 -0.09137272 0.40095684 -0.047530454 -0.32072213 -0.11601395 -0.013546297 0.3822535
-0.27402776 0.27801856 -0.35392997 0.11845953 0.03799585 -0.44790152 0.45973513 0.21032831
0.3451493 0.25598854 -0.13516866 -0.5914528 0.22129393 -0.6921845 -0.3748491 -0.29228857
-0.34517166 0.3937814 0.15358114 0.30999696 0.16802019 -0.5900594 -0.55394596 0.116527595
-0.2584135 0.3666726 -0.06897622 -0.766371 -0.53109103 -0.4217926 -0.74289435 0.99192613
0.36858144 -0.8143033 0.15779248 1.1956533 -0.47574285 -0.35866234 -0.24798831 0.7774144
-0.58403754 -0.75025135 -0.7771559 -0.44657525 0.39701346 -0.73130304 -0.09600751 -0.31184882
-0.4176676 0.47597918 -0.5021651 -0.27694488 0.039206892 -0.480063 0.6308384 0.8389961
-0.8624227 -0.5389531 -0.67942554 -0.42792413 0.46299163 0.16315147 0.047188736 0.052395575
0.16607001 -0.1628901 -0.443365 -0.4034367 0.7271951 0.118414536 0.4064751 -0.64917815
-0.049405303 0.6748284 -0.38380864 -0.010958322 -0.5717247 0.6028301 0.26116252 -0.78047746
0.699771 0.3142151 -0.3563917 0.8770692 0.6670965 0.30291405 0.47159132 0.7784384
0.70391786 0.5325587 1.617788 0.059510637 0.28950548 -0.11507525 0.24085075 -0.33514765
-0.5755123 -0.31010863 -0.798787 0.6968899 0.61083186 -0.38736972 0.5440684 0.27912503
-0.081058964 0.44068184 0.3036611 0.7016994 -0.086789876 0.4441112 -0.054635163 -0.70592517
0.94618016 0.56737113 -0.6566496 -0.014417261 -0.9805816 0.08795045 -0.2151519 -0.8401751
0.22827715 0.26045448 -0.33224407 0.11163972 0.09943611 -0.6238904 0.8777 -0.31949225
-0.0060318997 -0.631987 0.016726855 -0.37427756 0.012569293 0.7105149 -0.6860049 -0.02496576
-0.30488867 -0.5894496 0.9486444 -0.69812846 -0.23031443 -0.4706144 -0.11087413 -0.38180944
0.064686485 -0.59781605 -0.35654184 -0.46359274 -0.21822906 -0.29625458 -0.5174199 -0.51921433
00000000: beb5 333d c8b6 6d3e 71ba 703e c955 28bf
00000010: ab85 1e3f 2b27 6dbf 2b0f e2bd 8925 ff3d
00000020: bab9 6cbf 799a 60bf a061 0340 1776 a83c
00000030: afd2 9c3f c30a 86be f691 96bf 3ebf 4a3e
00000040: 9adf a33d 75bb 09bf 3bd2 7abf 4ebf 043f
00000050: 8b80 f7bf 679a 4fbf e948 1abf 178a 46bf
00000060: 15d3 54bf f1b5 acbf d3b5 4f3f 4588 e2be
00000070: 1b18 993f 19a0 563f 0d1f 1cbf 06d9 793f
00000080: 1255 05bf 7ad6 50be efc7 4ebf 4ce5 023f
00000090: 973f 11bf c55b 93be d97f ca3e 2ed0 28bf
000000a0: b406 423e 83fb 3b3d 7905 8e3f 4e03 8fbf
000000b0: 8e18 2bbf a391 103f b279 76be efa3 a2bf
000000c0: bda5 cf3e 6b6d 0abf 1711 563f f9c3 b6be
000000d0: 4801 45be eb9f af3f 26fe 273e fb38 05be
000000e0: a9c3 a53f f40d 70bf 8786 25bf 649b 59bf
000000f0: b2a5 9c38 df1a 393f a3d8 af3f 2c66 233e
00000100: 0b59 243f 85b1 a93e 19a7 08be 9eb9 273e
00000110: 7f4e 03be f924 603f f1b7 203f ced9 22be
00000120: 4058 6e3d bb37 083e 1a27 56be 6f51 b13e
00000130: ace7 22be 8a5b 643f 5af4 183f b046 383e
00000140: a382 67bd b853 0b3d 8534 70bd 27d5 313f
00000150: c10f a33e 14b8 183d e2a0 423d dfce bb3e
00000160: 1427 113f d552 c23d f0bb f83d 37a9 ff3e
00000170: 5156 31bf 8259 573e eee4 783e b44d 5f3d
00000180: 4dfa ed3e 9f21 bbbd 374a cd3e 4baf 42bd
00000190: b135 a4be b998 edbd 4af1 5dbc bbb6 c33e
000001a0: 5e4d 8cbe 7358 8e3e 4f36 b5be e99a f23d
000001b0: 89a1 1b3d 5953 e5be 6762 eb3e 4e60 573e
000001c0: 69b7 b03e ee10 833e a769 0abe 7369 17bf
000001d0: e09a 623e 0133 31bf 39ec bfbe d9a6 95be
000001e0: 57ba b0be b79d c93e 6044 1d3e ecb7 9e3e
000001f0: 7c0d 2c3e 220e 17bf 67cf 0dbf 05a6 ee3d
00000200: c64e 84be 83bc bb3e 6843 8dbd e430 44bf
00000210: 95f5 07bf 33f5 d7be 532e 3ebf dfee 7d3f
00000220: b5b6 bc3e 2e76 50bf 5a94 213e 2b0b 993f
00000230: 9194 f3be 97a2 b7be a6f0 7dbe a104 473f
00000240: 7c83 15bf 7910 40bf b0f3 46bf 83a5 e4be
00000250: 5945 cb3e ad36 3bbf 969f c4bd a6aa 9fbe
00000260: 87d8 d5be 8bb3 f33e e48d 00bf b8cb 8dbe
00000270: 6897 203d d1ca f5be a07e 213f 73c8 563f
00000280: bcc7 5cbf d5f8 09bf d5ee 2dbf df18 dbbe
00000290: 3d0d ed3e 2e11 273e fa48 413d be9c 563d
000002a0: 420e 2a3e aacc 26be bd00 e3be 418f cebe
000002b0: 7529 3a3f 5283 f23d 811d d03e 8a30 26bf
000002c0: 375d 4abd 8ec1 2c3f 9182 c4be 898a 33bc
000002d0: 8d5c 12bf 1353 1a3f 18b7 853e 5fcd 47bf
000002e0: 3124 333f cde0 a03e f978 b6be 9b87 603f
000002f0: d6c6 2a3f 8d17 9b3e 6b74 f13e bd47 473f
00000300: f633 343f c455 083f ad13 cf3f 6dc1 733d
00000310: 103a 943e 93ac ebbd 94a1 763e 7998 abbe
00000320: c654 13bf 8fc6 9ebe 4e7d 4cbf 6067 323f
00000330: 7a5f 1c3f 5355 c6be 1148 0b3f 7ae9 8e3e
00000340: 3e02 a6bd 0da1 e13e 7879 9b3e 92a2 333f
00000350: e4be b1bd 8b62 e33e 1fc9 5fbd 83b7 34bf
00000360: dd38 723f 3c3f 113f 301a 28bf 6036 6cbc
00000370: 6507 7bbf 5e1f b43d c850 5cbe b715 57bf
00000380: 7cc1 693e 4a5a 853e e51b aabe 5ea3 e43d
00000390: 29a5 cb3d 48b7 1fbf f2b0 603f 7d94 a3be
000003a0: 3ea7 c5bb e6c9 21bf c206 893c 4fa1 bfbe
000003b0: 70ef 4d3c 4ee4 353f 049e 2fbf fe84 ccbc
000003c0: 5e1a 9cbe 2be6 16bf 5cda 723f 8cb8 32bf
000003d0: 8cd7 6bbe 5ff4 f0be fa11 e3bd 877c c3be
000003e0: 597a 843d 790a 19bf a78c b6be 075c edbe
000003f0: 7077 5fbe aeae 97be a175 04bf 3beb 04bf

lstm.weight_hh_l0 f4 [256, 64]
0.29308102 0.0510662 -0.58045864 -0.07073264 -0.18357843 0.055187587 6.761071e-05 -0.3071745
-0.07004202 0.017652461 -0.093436465 0.32315436 -0.09135619 -0.06561467 0.0883358 0.020703804
-0.14163546 -0.7487513 0.10852322 0.16610563 -0.45010206 -0.04626546 0.21237493 0.123830505
0.3988379 -0.21151504 0.09737611 -0.3766239 -0.1482396 -0.0057746093 0.074922845 0.019202363
-0.22925764 0.011305191 0.028859394 0.065778665 -0.031207742 0.105863355 0.12372844 -0.20017458
0.10031894 -0.24714604 0.028037429 0.3077938 -0.0824736 0.18532917 0.07581896 0.003390757
-1.6367542 0.12895787 -0.0077195344 0.104558386 0.17733684 0.14736773 0.053170435 -0.12983122
-0.10045111 0.18378809 -0.21740273 -0.21351314 0.06893382 -0.16235277 -0.039437335 0.33036116
-0.068216145 2.7613828 -0.15011156 0.053941492 0.17893842 0.19958958 -0.120099925 -0.6312431
-0.47484073 0.052573346 0.1712758 -0.40653554 -0.20935744 0.12743193 0.034159943 0.036796488
0.029487273 -0.4779229 -0.4792997 0.2073577 -0.70176774 -0.023774186 0.31795236 -0.29114977
0.17318934 -0.05362067 0.2154313 -0.74306244 -0.0915882 -0.18679968 -0.1262891 0.35346928
-0.4197428 -0.21709627 0.15357982 0.3707635 -0.227222 0.317682 0.15578656 -0.24534002
0.34743372 -0.043673478 -0.030197294 0.10210082 0.45065168 -0.15379971 -0.18928936 0.21190673
-0.27888736 0.21971852 -0.016108813 0.10517842 -0.1870232 -0.2843662 -1.2643554 0.0438299
0.5123738 0.1404943 0.36982116 0.87696683 -0.18859854 -0.0103101935 0.11792332 0.29462698
0.24298862 -0.267206 2.8663418 0.04881993 -1.0933717 0.25010818 -0.6668126 -0.079400755
0.34786525 0.079085074 -0.112553306 0.6396788 0.100552216 0.24776742 0.08524186 -0.6645806
0.035470266 0.27577496 -1.446694 0.19408679 -0.045243464 -0.3562275 -0.32754752 0.3563681
0.2185604 -0.3444582 0.3203812 0.6870162 -0.25473252 -0.48376444 -0.10651447 0.0050529027
0.8380259 -0.0023763892 -0.07676933 -0.8993214 0.08797414 0.49076828 -0.32969174 1.6026055
0.23831224 0.30813888 0.10329007 1.5313541 -0.06667605 0.8369618 0.03196516 0.85247886
-0.65496635 -0.76579165 0.15224615 0.28252184 0.040647272 0.21728322 0.065529436 -0.18966077
0.88464314 0.31821635 0.328773 0.116112456 0.07686548 -0.296735 0.26505142 -0.31319854
-0.52833366 0.16802809 0.77159774 -0.18204004 -0.03288994 0.057996828 -0.2600872 -0.33480886
-0.06325298 0.42596605 -0.21549523 -0.06322298 0.017508358 0.28820416 0.071639135 0.17960286
-0.1389385 0.07078893 0.14337546 0.016183442 -0.8216887 -0.28133237 0.07694765 0.1475612
-0.09484194 -0.73794895 0.056636687 2.0903914 -0.19482166 0.19545278 -0.095810816 -0.01082478
-0.067259304 0.12664467 -0.07827766 0.21099156 -0.10186985 -0.40793422 0.40732983 -0.17500952
0.61672825 0.18980017 0.5235858 0.24562567 0.3861216 0.34485993 0.062662676 0.1791574
1.2212682 -0.10350413 0.09694666 0.24743935 -0.7264852 0.79876953 0.05088258 0.35667983
-0.16651794 0.10152839 0.29300988 0.21267578 0.11615678 -0.26969305 0.44376817 -0.16285902
00000000: b70e 963e cb2a 513d f098 14bf 46dc 90bd
00000010: fcfb 3bbe 610c 623d 39ca 8d38 fa45 9dbe
00000020: 3172 8fbd e59b 903c 9e5b bfbd 7d74 a53e
00000030: f418 bbbd fc60 86bd 66e9 b43d 069b a93c
00000040: e308 11be 2aae 3fbf 6c41 de3d 9817 2a3e
00000050: c773 e6be da80 3dbd d078 593e d99a fd3d
00000060: 7b34 cc3e 6697 58be 206d c73d d9d4 c0be
00000070: 1fcc 17be ef38 bdbb 2671 993d 464e 9d3c
00000080: 84c2 6abe 6839 393c 896a ec3c f7b6 863d
00000090: 61a7 ffbc e3ce d83d 5665 fd3d 91fa 4cbe
000000a0: 0474 cd3d da13 7dbe c0ae e53c 2697 9d3e
000000b0: ebe7 a8bd eec6 3d3e f946 9b3d 7637 5e3b
000000c0: 2981 d1bf 880d 043e 26f4 fcbb b522 d63d
000000d0: ca97 353e 91e7 163e 3ec9 593d 7af2 04be
000000e0: 50b9 cdbd f232 3c3e d29e 5ebe 30a3 5abe
000000f0: 2d2d 8d3d ce3f 26be 0b89 21bd 1925 a93e
00000100: e8b4 8bbd 7fba 3040 d8b6 19be c1f1 5c3d
00000110: a23b 373e 3661 4c3e f3f6 f5bd 2699 21bf
00000120: 531e f3be 2657 573d ec62 2f3e 6d25 d0be
00000130: cc61 56be 847d 023e 4ceb 0b3d eab7 163d
00000140: 4b8f f13c 4fb2 f4be c566 f5be 9455 543e
00000150: 0da7 33bf 15c2 c2bc a7ca a23e 9511 95be
00000160: 8c58 313e 59a1 5bbd 069a 5c3e 5739 3ebf
00000170: 9892 bbbd 6a48 3fbe ee51 01be edf9 b43e
00000180: 87e8 d6be 7c4e 5ebe 0744 1d3e b7d4 bd3e
00000190: e2ac 68be 37a7 a23e 8386 1f3e 6a3a 7bbe
000001a0: d5e2 b13e f6e2 32bd 5160 f7bc 3c1a d13d
000001b0: d1bb e63e ac7d 1dbe 12d5 41be 14fe 583e
000001c0: 53ca 8ebe e4fd 603e a1f6 83bc c967 d73d
000001d0: 0283 3fbe 7298 91be 66d6 a1bf fb86 333d
000001e0: ee2a 033f bddd 0f3e 3359 bd3e e680 603f
000001f0: fa1f 41be 16ec 28bc c881 f13d 59d9 963e
00000200: 02d2 783e 3acf 88be 2572 3740 68f7 473d
00000210: 9bf3 8bbf 2e0e 803e 3bb4 2abf dd9c a2bd
00000220: 651b b23e 5bf7 a13d 5982 e6bd fdc1 233f
00000230: 52ee cd3d beb6 7d3e 4993 ae3d f421 2abf
00000240: 4549 113d 6032 8d3e 452d b9bf b0be 463e
00000250: 3651 39bd 7363 b6be 4fb4 a7be e175 b63e
00000260: 4cce 5f3e d35c b0be 0109 a43e 4be0 2f3f
00000270: 4d6c 82be f9af f7be 4224 dabd d292 a53b
00000280: de88 563f 32bd 1bbb 3d39 9dbd ed39 66bf
00000290: c92b b43d fb45 fb3e 5bcd a8be 2d22 cd3f
000002a0: 2008 743e 61c4 9d3e bf89 d33d 6903 c43f
000002b0: 748d 88bd 2143 563f e6ed 023d 0e3c 5a3f
000002c0: e0ab 27bf ec0a 44bf 6ae6 1b3e b4a6 903e
000002d0: c17d 263d 7e7f 5e3e 4c34 863d 6f36 42be
000002e0: f977 623f 41ed a23e ef54 a83e 5ecc ed3d
000002f0: a66b 9d3d a6ed 97be d2b4 873e 8f5b a0be
00000300: e040 07bf 8e0f 2c3e 6e87 453f b468 3abe
00000310: 9ab7 06bd 158e 6d3d 262a 85be 116c abbe
00000320: c78a 81bd 3918 da3e c8aa 5cbe 0d7b 81bd
00000330: b06d 8f3c 7f8f 933e 8ab7 923d d0e9 373e
00000340: e545 0ebe c9f9 903d 04d1 123e 2393 843c
00000350: 315a 52bf cc0a 90be bb96 9d3d 491a 173e
00000360: 7e3c c2bd 39ea 3cbf dffb 673d f9c8 0540
00000370: 547f 47be c624 483e 7638 c4bd 6b5a 31bc
00000380: 3fbf 89bd 24af 013e 0a50 a0bd 2c0e 583e
00000390: 24a1 d0bd c1dc d0be 898d d03e b235 33be
000003a0: e7e1 1d3f fa5a 423e b809 063f 4c85 7b3e
000003b0: bbb1 c53e 7b91 b03e 4a55 803d 0a75 373e
000003c0: 8452 9c3f f9f9 d3bd f88b c63d be60 7d3e
000003d0: effa 39bf 297c 4c3f 416a 503d bd9e b63e
000003e0: ae83 2abe 1eee cf3d 6405 963e aec7 593e
000003f0: 9be3 ed3d 3515 8abe 9535 e33e 84c4 26be

lstm.bias_ih_l0 f4 [256]
0.25725403 -0.24376078 0.34230438 0.22773087 0.188945 0.36578286 0.13954854 0.15064552
0.15939435 0.40053907 0.26526666 0.56378174 0.19982895 0.3023758 0.11157303 0.044756528
0.3387225 0.51991373 0.031299468 0.26368856 0.15598196 0.16710496 0.19159308 -0.106424384
0.3003524 0.13525821 0.2762158 -0.31968984 0.32210472 0.022357104 0.12857555 0.008454953
0.19587919 -0.05001031 0.0568201 0.26303974 0.10396957 -0.020862427 0.04822323 -0.13485642
0.13727178 0.15683031 0.24491832 -0.13054538 0.3385717 0.16608855 0.25184244 0.19265494
0.7957382 0.2800091 0.25561205 -0.045085624 0.14801204 0.26592523 0.09069736 -0.19408047
-0.046265684 0.18185169 0.43500152 0.34521165 0.33650813 0.25318083 0.3085487 0.3735548
0.25838867 0.4144558 0.0899031 0.034355707 0.23332432 0.24920836 0.06063439 0.16335517
0.06421058 0.061527263 0.09189545 0.4195479 0.18201962 0.08819714 0.08245594 0.19799492
0.23594484 0.18944249 0.21834835 0.08518129 0.18774828 0.08618473 0.21677986 0.120451525
0.01524819 0.05258631 0.3617342 -0.24658397 0.22239089 -0.049761124 0.22919744 0.15921077
0.12981647 0.08590198 0.018570116 0.13757688 0.030550174 0.22724813 0.094231136 -0.10706871
0.17533496 -0.07383613 0.036807105 -0.013458371 0.27576125 0.09872772 0.20163596 0.13757145
0.13443856 0.058627572 0.18755838 0.27174285 0.240181 0.18976301 0.083227225 0.058558468
0.33424857 0.19772649 0.3035466 0.2471222 -0.03375036 0.03425202 0.038335875 0.119456045
-0.22455364 -0.19186094 0.13666019 -0.12757383 -0.10777853 0.09187925 0.23051068 -0.21944128
-0.26356748 0.21940544 -0.1373026 0.24968326 -0.20810172 0.23478985 0.17008364 0.12786584
-0.25929853 0.22760472 0.08788153 0.25368336 0.52396166 -0.1777958 0.04357669 -0.093466185
0.26739702 -0.12215852 0.16525021 -0.016895289 -0.22217125 0.101130895 0.09669355 0.14523122
-0.24094805 0.11558264 -0.24051413 -0.260328 0.1780437 -0.47344115 0.26264703 0.046620965
0.18533295 -0.28745574 0.23807019 0.1464677 0.13313499 0.23882896 0.17353237 0.2758654
0.013827305 0.2480787 0.20291075 -0.104832865 0.1507427 0.11802494 0.13653205 -0.2709926
-0.2845224 0.27188718 -0.2626399 -0.17160714 0.1393497 -0.11096991 0.23689732 0.10970592
0.25845698 0.39884064 0.8412402 0.014259011 0.1714701 0.01817123 0.049006972 0.12856458
0.28705803 0.40903065 0.23104042 0.34897652 -0.023384746 -0.032549452 0.18150887 0.40264043
0.032371476 0.6370206 -0.08141018 0.52799094 0.26859143 0.06486751 0.36391202 -0.082387544
0.1658751 -0.24564713 0.36547187 -0.4687566 0.12954411 -0.10254234 0.2391006 0.29884535
-0.063404754 0.14727241 -0.07860266 0.22908181 0.38722965 0.11232338 -0.12958154 0.011165402
0.26741228 0.5667195 0.13972886 -0.2055195 -0.0646958 0.4280186 0.35161975 0.0034414672
0.37915853 0.20431772 0.18832415 0.14507756 -0.48935387 0.38758758 -0.29304966 0.15703201
0.17034253 0.15061714 0.15403374 0.26127458 0.34180972 0.33248213 0.4413292 0.60873127
00000000: cdb6 833e 6d9c 79be 8542 af3e 4832 693e
00000010: cc7a 413e e447 bb3e d0e5 0e3e d242 1a3e
00000020: 4638 233e 7513 cd3e 08d1 873e 0054 103f
00000030: f69f 4c3e 00d1 9a3e 6780 e43d 9f52 373d
00000040: 096d ad3e 1119 053f df33 003d 3002 873e
00000050: bcb9 1f3e 901d 2b3e fa30 443e 07f5 d9bd
00000060: cac7 993e 2181 0a3e 286c 8d3e 63ae a3be
00000070: e9ea a43e 3f26 b73c 4fa9 033e a586 0a3c
00000080: 8e94 483e 9cd7 4cbd 31bc 683d 25ad 863e
00000090: ffed d43d aee7 aabc b985 453d cd17 0abe
000000a0: f990 0c3e 2098 203e decb 7a3e b0ad 05be
000000b0: 4559 ad3e 1e13 2a3e 7ef1 803e 5647 453e
000000c0: 80b5 4b3f 5a5d 8f3e 95df 823e b4ab 38bd
000000d0: 7890 173e 5a27 883e 8abf b93d 08bd 46be
000000e0: 1681 3dbd 5437 3a3e 85b8 de3e 95bf b03e
000000f0: cb4a ac3e eba0 813e 18fa 9d3e 9342 bf3e
00000100: 854b 843e 8d33 d43e 1e1f b83d 92b8 0c3d
00000110: 92ec 6e3e 7a30 7f3e c45b 783d 9446 273e
00000120: d680 833d 0304 7c3d af33 bc3d fbce d63e
00000130: 5a63 3a3e b4a0 b43d a9de a83d 2ebf 4a3e
00000140: 869b 713e 36fd 413e b696 5f3e 8773 ae3d
00000150: 1641 403e 9f81 b03d 8afb 5d3e 4aaf f63d
00000160: 8bd3 793c be64 573d 3a35 b93e 8280 7cbe
00000170: 70ba 633e 52d2 4bbd bcb2 6a3e 2608 233e
00000180: 9cee 043e 61ed af3d 5b20 983c f4e0 0c3e
00000190: 5c44 fa3c bcb3 683e 41fc c03d d746 dbbd
000001a0: 028b 333e 6637 97bd 0cc3 163d 8080 5cbc
000001b0: 9430 8d3e c231 ca3d a879 4e3e 88df 0c3e
000001c0: 43aa 093e 7723 703d 4e0f 403e e121 8b3e
000001d0: 02f2 753e 3c51 423e 0973 aa3d 01db 6f3d
000001e0: a122 ab3e d078 4a3e 766a 9b3e 9a0d 7d3e
000001f0: d13d 0abd d94b 0c3d 1406 1d3d 5fa5 f43d
00000200: 64f1 65be 3277 44be a6f0 0b3e b7a2 02be
00000210: fdba dcbd 302b bc3d fe0a 6c3e 37b5 60be
00000220: 51f2 86be d2ab 603e 0e99 0cbe f8ac 7f3e
00000230: 9e18 55be c06c 703e 682a 2e3e 43ef 023e
00000240: c7c2 84be 3611 693e 3bfb b33d c9e2 813e
00000250: 5a22 063f 1a10 36be 797d 323d 336b bfbd
00000260: 43e8 883e 3f2e fabd 5a37 293e fd67 8abc
00000270: dc80 63be b71d cf3d 4507 c63d 7eb7 143e
00000280: 16bb 76be 97b6 ec3d 5649 76be b649 85be
00000290: 1651 363e e166 f2be ac79 863e a0f5 3e3d
000002a0: ecc7 3d3e 662d 93be acc8 733e a1fb 153e
000002b0: 8a54 083e 948f 743e 78b2 313e 3b3e 8d3e
000002c0: ec8b 623c 5808 7e3e d6c7 4f3e 9db2 d6bd
000002d0: 4b5c 1a3e 0fb7 f13d 0fcf 0b3e 8bbf 8abe
000002e0: ecac 91be cc34 8b3e bd78 86be c8b9 2fbe
000002f0: b0b1 0e3e 3144 e3bd 3695 723e 7fad e03d
00000300: 7954 843e d734 cc3e 855b 573f a09e 693c
00000310: dc95 2f3e d5db 943c 89bb 483d 6fa6 033e
00000320: 45f9 923e 776c d13e dc95 6c3e 0dad b23e
00000330: 5e91 bfbc 9352 05bd 76dd 393e e326 ce3e
00000340: f497 043d c813 233f 61ba a6bd 6a2a 073f
00000350: d184 893e 42d9 843d ad52 ba3e cdba a8bd
00000360: 2adb 293e ec8a 7bbe 211f bb3e dd00 f0be
00000370: 36a7 043e b801 d2bd cad6 743e 4202 993e
00000380: 5ada 81bd 94ce 163e 6efa a0bd 6c94 6a3e
00000390: f742 c63e cd09 e63d 06b1 04be 17ef 363c
000003a0: 43ea 883e 8714 113f 1515 0f3e b473 52be
000003b0: 3b7f 84bd 4125 db3e 8107 b43e 3d8a 613b
000003c0: 1121 c23e aa38 513e 0cd8 403e 368f 143e
000003d0: 978c fabe e171 c63e 9b0a 96be 00cd 203e
000003e0: 466e 2e3e 613b 1a3e 05bb 1d3e c8c5 853e
000003f0: af01 af3e 193b aa3e e7f5 e13e d0d5 1b3f

lstm.bias_hh_l0 f4 [256]
0.23606777 -0.177005 0.36784914 0.19228667 0.19565782 0.307101 0.069731265 0.06819215
0.109413855 0.35460564 0.28342208 0.53672177 0.20080386 0.29624334 0.19047058 0.027302912
0.3262234 0.51923376 0.033044465 0.22670394 0.1544599 0.21859905 0.15383638 -0.12813635
0.26889694 0.1760584 0.19043884 -0.27217427 0.2736234 -0.013901271 0.1745238 0.05395263
0.19621655 -0.011580508 0.008134388 0.24794415 0.11544644 -0.022227261 0.045433473 -0.07151784
0.17074859 0.15376744 0.2258639 -0.17315954 0.37260655 0.20975402 0.23616701 0.1625835
0.8660407 0.23117125 0.24891317 -0.095572546 0.17299047 0.34363863 0.07802053 -0.195259
-0.07619766 0.17829433 0.4858741 0.40150973 0.26522768 0.28976053 0.3858805 0.3539422
0.23948282 0.39140698 0.102992356 0.0219433 0.17395213 0.16485855 0.045978688 0.16702786
0.11311977 0.10445631 0.07631338 0.4560596 0.17441526 0.085153356 0.09007379 0.17582422
0.23276404 0.22294164 0.24209782 0.056294348 0.12683728 0.08734568 0.16419321 0.043842755
0.033157185 0.027987324 0.33761355 -0.2694134 0.21914497 -0.09356707 0.24385542 0.09271263
0.117899396 0.13336262 0.09784556 0.15080647 0.077140756 0.1990351 0.03609958 -0.06484848
0.23856148 -0.013977574 0.0077910367 0.016624147 0.24046421 0.090985894 0.18418446 0.2014561
0.2142944 0.031436637 0.23438856 0.27478206 0.2007181 0.13237926 0.03082495 -0.0076866453
0.28593096 0.19980893 0.33140865 0.23618206 0.03675142 0.086432464 0.08455492 0.10697215
-0.23625165 -0.19882903 0.21444595 -0.15352166 -0.13605005 0.12545854 0.205684 -0.23169413
-0.26699638 0.24081424 -0.14830229 0.2558195 -0.25823393 0.22343591 0.26582697 0.07111527
-0.20693526 0.19331871 0.11012203 0.20405844 0.5538368 -0.17308792 0.13450757 -0.14618634
0.23486853 -0.092976086 0.15560581 -0.05207214 -0.24149194 0.15738434 0.12982032 0.1187954
-0.24764061 0.077387124 -0.22099674 -0.23166999 0.21044627 -0.45494702 0.27181804 0.043894406
0.11831648 -0.2213273 0.22683874 0.10518565 0.15423664 0.3185508 0.2586654 0.25267202
0.04949771 0.19669205 0.22798106 -0.11007882 0.15290785 0.096587084 0.121762894 -0.24477094
-0.27448872 0.25058776 -0.298638 -0.2608287 0.10032273 -0.14092483 0.25387824 0.09212754
0.23704073 0.42505506 0.85553837 -0.021622663 0.18309942 0.03597089 0.07466399 0.110800266
0.31145358 0.37979427 0.317767 0.31479415 -0.06850138 -0.017678097 0.10245039 0.4336426
0.014094418 0.6392796 -0.046845 0.5737213 0.2702091 0.1127044 0.43614778 -0.1521388
0.16167209 -0.20775795 0.35946372 -0.42086217 0.18503985 -0.14298695 0.26491442 0.33689025
-0.095193684 0.087928176 -0.03415639 0.22800356 0.4483128 0.0880444 -0.13113528 0.022510866
0.24353057 0.59141314 0.12924068 -0.25396132 -0.07735405 0.42255136 0.3304169 -0.040603
0.32744047 0.13095993 0.24117127 0.07692368 -0.4117516 0.39578828 -0.34915867 0.10859348
0.14874479 0.16409507 0.1993081 0.27928922 0.3326291 0.25293195 0.43520662 0.6302763
00000000: c0bb 713e cc40 35be b956 bc3e cce6 443e
00000010: 865a 483e 583c 9d3e 44cf 8e3d 53a8 8b3d
00000020: 5f14 e03d df8e b53e b31c 913e 9966 093f
00000030: 879f 4d3e 35ad 973e b80a 433e 5baa df3c
00000040: c106 a73e 81ec 043f a259 073d 1425 683e
00000050: bc2a 1e3e 6ed8 5f3e 4987 1d3e 2d36 03be
00000060: dcac 893e a748 343e 6602 433e 6d5a 8bbe
00000070: 5e18 8c3e 28c2 63bc 5eb6 323e 6ffd 5c3d
00000080: feec 483e 2cbc 3dbc 1946 053c 12e5 7d3e
00000090: 2f6f ec3d f215 b6bc 7318 3a3d f277 92bd
000000a0: b8d8 2e3e 3675 1d3e de48 673e bc50 31be
000000b0: 49c6 be3e c2c9 563e c4d5 713e 4a7c 263e
000000c0: d8b4 5d3f 28b8 6c3e 18e3 7e3e 8abb c3bd
000000d0: 6a24 313e 67f1 af3e 3ac9 9f3d faf1 47be
000000e0: 850d 9cbd ca92 363e 7dc4 f83e af92 cd3e
000000f0: eccb 873e 7e5b 943e 2192 c53e e937 b53e
00000100: fc3a 753e 7f66 c83e a8ed d23d 6fc2 b33c
00000110: 8220 323e aed0 283e 2654 3c3d 5a09 2b3e
00000120: 57ab e73d 31ed d53d 304a 9c3d a580 e93e
00000130: ea99 323e e264 ae3d 9b78 b83d 440b 343e
00000140: b259 6e3e d04a 643e 7ee8 773e e794 663d
00000150: a2e1 013e 4be2 b23d 4422 283e 7694 333d
00000160: d4cf 073d ac45 e53c afdb ac3e 8ef0 89be
00000170: 8a67 603e 18a0 bfbd 3cb5 793e 1fe0 bd3d
00000180: 3d75 f13d 3690 083e 4163 c83d 036d 1a3e
00000190: f9fb 9d3d dbcf 4b3e 27dd 133d 48cf 84bd
000001a0: 7649 743e 3202 65bc f44b ff3b 5d2f 883c
000001b0: 403c 763e d056 ba3d da9a 3c3e 824a 4e3e
000001c0: fe6f 5b3e b4c3 003d 8e03 703e 3cb0 8c3e
000001d0: 0c89 4d3e 6e8e 073e 9b84 fc3c 41e0 fbbb
000001e0: 8b65 923e b69a 4c3e 65ae a93e b6d9 713e
000001f0: a888 163d 8103 b13d 212b ad3d 3714 db3d
00000200: f4eb 71be d699 4bbe b897 5b3e c834 1dbe
00000210: b450 0bbe 3478 003e d49e 523e 3a41 6dbe
00000220: c0b3 88be 0298 763e 8edc 17be c6fa 823e
00000230: 3d37 84be 62cc 643e 791a 883e e2a4 913d
00000240: d6e6 53be 57f5 453e a987 e13d b2f4 503e
00000250: 40c8 0d3f f63d 31be 5abc 093e dfb1 15be
00000260: 6081 703e 3f6a bebd 2157 1f3e 9949 55bd
00000270: aa49 77be 5c29 213e 9eef 043e 014b f33d
00000280: 8095 7dbe 247d 9e3d f84c 62be e63a 6dbe
00000290: 3a7f 573e d1ee e8be bc2b 8b3e 9fca 333d
000002a0: e94f f23d a0a3 62be 6a48 683e 936b d73d
000002b0: 36f0 1d3e 1719 a33e cb6f 843e 3a5e 813e
000002c0: 1cbe 4a3d a469 493e de73 693e 0171 e1bd
000002d0: e093 1c3e 73cf c53d d35e f93d 3ca5 7abe
000002e0: c989 8cbe 0a4d 803e 14e7 98be 578b 85be
000002f0: 0176 cd3d 994e 10be 54fc 813e 5dad bc3d
00000300: ceba 723e d1a0 d93e 9004 5b3f 0322 b1bc
00000310: 6a7e 3b3e 3656 133d 6fe9 983d 40eb e23d
00000320: d876 9f3e 6574 c23e 5bb2 a23e b32c a13e
00000330: 744a 8cbd a8d1 90bc 83d1 d13d 6706 de3e
00000340: 46ec 663c d4a7 233f 8be0 3fbd 66df 123f
00000350: d958 8a3e 91d1 e63d c34e df3e 46ca 1bbe
00000360: 5e8d 253e 80be 54be a10b b83e 3f7b d7be
00000370: 167b 3d3e 2c6b 12be dda2 873e e17c ac3e
00000380: e8f4 c2bd b013 b43d 92e7 0bbd c479 693e
00000390: 4189 e53e 9f50 b43d 5448 06be b568 b83c
000003a0: 1460 793e da66 173f ab57 043e 3807 82be
000003b0: cd6b 9ebd a758 d83e 672c a93e 554f 26bd
000003c0: 47a6 a73e 5c1a 063e 9af5 763e 2a8a 9d3d
000003d0: 1bd1 d2be c3a4 ca3e edc4 b2be 4266 de3d
000003e0: 8e50 183e 8a08 283e 6c17 4c3e fffe 8e3e
000003f0: 5d4e aa3e 4c80 813e 67d3 de3e ca59 213f

fc.weight f4 [89, 64]
0.27629796 0.21880752 0.53852254 0.036071118 0.027853828 0.10297655 0.14122738 -0.3805643
-0.17604625 0.020403583 0.027000178 0.20734517 -0.020183844 0.22452533 -0.23626581 0.16500613
-0.018349119 -0.61558104 0.026079863 0.08206784 0.19112481 -0.16648635 -0.38855848 0.07487946
0.01777982 0.26826587 -0.12457825 -0.82205886 0.44574443 0.16122401 0.053067636 -0.41145685
-0.43962207 0.14578965 0.052081943 -0.057894845 -0.33522424 -0.22141358 0.13092981 -0.9796768
0.020157006 -0.14710137 0.13969445 0.33444998 0.38170752 -0.09302467 -0.23322254 0.069353886
0.03081534 -0.09440243 0.015616425 0.038027365 -0.036365952 -0.34593877 0.13162547 -0.15313481
-0.16728511 -0.032190084 -0.42430905 0.52307135 0.06988982 -0.03152773 -0.291833 0.032435868
0.37256387 0.4987791 -0.07069128 0.21785712 0.18586344 -0.1516411 -0.6840318 0.22593504
0.12750313 -0.24410358 0.15479992 -0.4200804 0.13604419 -0.21839952 -0.22586054 -0.23388794
0.15660433 -0.84216666 -0.08420355 -0.29191485 -1.4277827 0.19366732 -0.12127242 0.13199082
-0.24250476 0.22312334 -0.15085551 -0.24030954 0.13856381 -0.10797269 -0.21484247 -0.23198417
0.18401927 -0.19632263 0.15535368 0.13763629 -0.21834588 0.28632507 -0.103469186 -0.0038575756
-0.16140229 0.35510805 -0.18199569 -0.24348399 -0.2626197 -0.17463332 -0.21545148 -0.1403757
0.09014427 -0.124563195 -0.21245381 0.15879741 -0.28005588 -0.29847464 -0.41749415 0.32512006
0.14242397 -0.13847505 0.6632673 0.17722486 -0.17333007 0.13453647 -0.39313015 -0.3897917
0.3614929 0.5201494 -0.10869331 0.19561595 0.1853118 -0.12200727 -0.66941136 0.15044181
0.14612791 -0.329577 0.18308035 -0.44287708 0.18649629 -0.28073648 -0.20971647 -0.15170757
0.190984 -0.8268608 -0.152491 -0.34010854 -1.388657 0.17448059 -0.11166147 0.12640028
-0.2643135 0.20421444 -0.14985912 -0.23795262 0.1358985 -0.18121889 -0.16936278 -0.2287758
0.17049475 -0.17819738 0.122979276 0.10895207 -0.22099523 0.27752796 -0.12847511 -0.0765744
-0.18597654 0.40101495 -0.14249025 -0.22587447 -0.2789383 -0.20841187 -0.17255029 -0.18569863
0.08059993 -0.1657941 -0.15524636 0.20310438 -0.35215405 -0.28810254 -0.42738792 0.33203927
0.21689719 -0.12828659 0.7060533 0.19053942 -0.14456417 0.19004053 -0.39914933 -0.3708547
0.31031257 0.58202064 -0.024126673 0.20299292 0.17451814 -0.16636012 -0.6652897 0.24192876
0.2032893 -0.3296199 0.20781747 -0.46626714 0.113404684 -0.2446126 -0.19815585 -0.22423586
0.1531859 -0.8055366 -0.07909364 -0.3236648 -1.372404 0.18615311 -0.1296863 0.13911945
-0.2536391 0.23750386 -0.20534968 -0.34895036 0.11003248 -0.16395038 -0.20065954 -0.18643758
0.24085654 -0.16815251 0.13475583 0.19808611 -0.15922344 0.23307955 -0.1024869 -0.0574811
-0.21211645 0.42542037 -0.19022903 -0.2827535 -0.1889514 -0.15424007 -0.1560875 -0.16428462
0.088993974 -0.13870808 -0.21902657 0.23153386 -0.31527635 -0.34489182 -0.41756567 0.40702608
0.17289391 -0.18782108 0.66525334 0.14866354 -0.11853292 0.2069231 -0.45343396 -0.34726587
00000000: ed76 8d3e 140f 603e 9ddc 093f 4fbf 133d
00000010: b62d e43c 5fe5 d23d e99d 103e 53d9 c2be
00000020: 7845 34be 6a25 a73c 7a2f dd3c 4b52 543e
00000030: 9758 a5bc f8e9 653e aaef 71be 5ef7 283e
00000040: e450 96bc b896 1dbf 70a5 d53c 2f13 a83d
00000050: 39b6 433e 667b 2abe 23f1 c6be 675a 993d
00000060: fca6 913c 255a 893e e222 ffbd 7372 52bf
00000070: 9d38 e43e e817 253e 735d 593d 79aa d2be
00000080: 2516 e1be e249 153e e053 553d 2523 6dbd
00000090: 83a2 abbe 3eba 62be 7712 063e 19cc 7abf
000000a0: 4e20 a53c bea1 16be 100c 0f3e 073d ab3e
000000b0: 2b6f c33e b883 bebd e4d1 6ebe 6909 8e3d
000000c0: 7470 fc3c 1056 c1bd 09dc 7f3c 95c2 1b3d
000000d0: 77f4 14bd e31e b1be d4c8 063e 5fcf 1cbe
000000e0: ca4c 2bbe c0d9 03bd 093f d9be 01e8 053f
000000f0: 6522 8f3d 3923 01bd 236b 95be 79db 043d
00000100: b1c0 be3e f95f ff3e 97c6 90bd f015 5f3e
00000110: fc52 3e3e ce47 1bbe b51c 2fbf 845b 673e
00000120: 2e90 023e 4af6 79be df83 1e3e c714 d7be
00000130: 2b4f 0b3e 20a4 5fbe fc47 67be 5280 6fbe
00000140: e35c 203e 3c98 57bf e972 acbd dd75 95be
00000150: 95c1 b6bf ba50 463e ad5d f8bd 9a28 073e
00000160: 2b53 78be 727a 643e de79 1abe b413 76be
00000170: ace3 0d3e c920 ddbd aaff 5bbe 428d 6dbe
00000180: 8c6f 3c3e cd08 49be 0915 1f3e 87f0 0c3e
00000190: 1096 5fbe 3399 923e a7e7 d3bd 61cf 7cbb
000001a0: a446 25be b9d0 b53e 145d 3abe de53 79be
000001b0: 1776 86be 14d3 32be 509f 5cbe a6be 0fbe
000001c0: 8f9d b83d fd1a ffbd 7e8d 59be ca9b 223e
000001d0: 7c63 8fbe abd1 98be cbc1 d5be 2376 a63e
000001e0: 97d7 113e 67cc 0dbe e3cb 293f 6f7a 353e
000001f0: 707d 31be eec3 093e 5b48 c9be c792 c7be
00000200: 9915 b93e 8328 053f 999a debd 8c4f 483e
00000210: 60c2 3d3e f3de f9bd 8b5e 2bbf 6b0d 1a3e
00000220: 8ea2 153e 51be a8be 6a79 3b3e c9c0 e2be
00000230: e2f8 3e3e b1bc 8fbe eabf 56be 3b59 1bbe
00000240: 4f91 433e 26ad 53bf 9a26 1cbe b522 aebe
00000250: 83bf b1bf 0aab 323e c5ae e4bd 136f 013e
00000260: 1954 87be 971d 513e ab74 19be daa9 73be
00000270: fa28 0b3e 7291 39be 706d 2dbe 3444 6abe
00000280: 2d96 2e3e 6079 36be 8fdc fb3d 4322 df3d
00000290: 934c 62be 2518 8e3e fb8e 03be 0ad3 9cbd
000002a0: a270 3ebe d551 cd3e f7e8 11be a34b 67be
000002b0: 00d1 8ebe ec69 55be 06b1 30be c827 3ebe
000002c0: 9311 a53d eec5 29be e7f8 1ebe 98fa 4f3e
000002d0: 894d b4be 2d82 93be 97d2 dabe 0d01 aa3e
000002e0: 4c1a 5e3e 8f5d 03be e9bf 343f c41c 433e
000002f0: a108 14be fc99 423e 4d5d ccbe abe0 bdbe
00000300: 4ae1 9e3e 4eff 143f 4da5 c5bc 60dd 4f3e
00000310: e2b4 323e 4f5a 2abe 6d50 2abf 2cbc 773e
00000320: 122b 503e f1c3 a8be 1ace 543e 91ba eebe
00000330: b740 e83d ba7b 7abe 5ee9 4abe 169e 65be
00000340: c4dc 1c3e a637 4ebf d9fb a1bd 65b7 a5be
00000350: efaa afbf ec9e 3e3e 7ccc 04be 5475 0e3e
00000360: fcdc 81be 3634 733e 3047 52be 9fa9 b2be
00000370: b558 e13d 9ce2 27be b279 4dbe 7ee9 3ebe
00000380: 19a3 763e 2c30 2cbe 6ffd 093e 16d7 4a3e
00000390: 780b 23be 68ac 6e3e a7e4 d1bd 4d71 6bbd
000003a0: 0e35 59be b3d0 d93e 66cb 42be 11c5 90be
000003b0: 7a7c 41be 1cf1 1dbe 67d5 1fbe 3a3a 28be
000003c0: 7942 b63d 7e09 0ebe 8048 60be 3617 6d3e
000003d0: e76b a1be a995 b0be 2bcb d5be b965 d03e
000003e0: 1a0b 313e 2b54 40be 0b4e 2a3f 413b 183e
000003f0: 63c1 f2bd a6e3 533e 7f28 e8be d5cc b1be

fc.bias f4 [89]
-0.029548798 -0.17876616 -0.1253811 -0.1377884 -0.12793845 -0.19048771 -0.08419692 -0.14760347
-0.18031082 -0.15315472 -0.15011169 -0.11321782 -0.118380554 -0.13683212 -0.11050201 -0.17122334
-0.09189821 -0.17040527 -0.100677975 -0.15075172 -0.11760651 -0.11615231 -0.117954455 -0.16741423
-0.12055337 -0.16800648 -0.1309208 -0.13320473 -0.113642134 -0.16838571 -0.103690766 -0.14754018
-0.14098208 -0.1231151 -0.16271284 -0.018163301 -0.1539855 0.09370327 -0.17746693 0.0003335999
0.17276421 -0.10704696 0.04789773 -0.3656325 0.12350745 -0.00396018 -0.21186426 0.17095402
-0.45760003 -0.018553732 0.08355707 0.048633028 0.33996615 0.035613354 0.2087295 0.03119152
0.31258467 0.110263154 0.30557853 0.21029606 -0.2835408 0.18851733 -0.021121984 0.15827513
0.21939486 -0.20572847 0.0352407 -0.16379467 -0.003002025 -0.15946692 -0.08502162 -0.17753302
-0.16582152 -0.1577369 -0.16542187 -0.17071573 -0.14287223 -0.093418725 -0.13568793 -0.101174854
-0.17962879 -0.1076652 -0.10323144 -0.114797495 -0.14445442 -0.16397616 -0.10172061 -0.14699201
-0.13710436
00000000: 5210 f2bc 7a0e 37be e763 00be 6718 0dbe
00000010: 4c02 03be 360f 43be 6f6f acbd 5d25 17be
00000020: 66a3 38be 97d4 1cbe e1b6 19be bfde e7bd
00000030: 8171 f2bd b81d 0cbe e14e e2bd 2c55 2fbe
00000040: 2135 bcbd b87e 2ebe 4130 cebd a95e 1abe
00000050: afdb f0bd 43e1 edbd 1b92 f1bd a36e 2bbe
00000060: afe4 f6bd e409 2cbe 1a10 06be d266 08be
00000070: 35bd e8bd 4e6d 2cbe d35b d4bd c614 17be
00000080: 9b5d 10be c523 fcbd 329e 26be 34cb 94bc
00000090: 60ae 1dbe 80e7 bf3d e4b9 35be 05e7 ae39
000000a0: 1ae9 303e 703b dbbd 6930 443d 2f34 bbbe
000000b0: 79f1 fc3d 66c4 81bb f2f2 58be 920e 2f3e
000000c0: 8d4a eabe fffd 97bc f81f ab3d 6d33 473d
000000d0: 0b10 ae3e 4fdf 113d 30bd 553e 5c85 ff3c
000000e0: 190b a03e a6d1 e13d ca74 9c3e da57 573e
000000f0: 422c 91be b00a 413e 0308 adbc e012 223e
00000100: 0ca9 603e 7caa 52be 8d58 103d cab9 27be
00000110: 9fbd 44bb 4c4b 23be d11f aebd 37cb 35be
00000120: 1ecd 29be c885 21be 5a64 29be 1bd0 2ebe
00000130: 194d 12be 5152 bfbd c7f1 0abe c334 cfbd
00000140: 9cf0 37be 937f dcbd 016b d3bd f31a ebbd
00000150: dceb 13be 5ee9 27be e552 d0bd 1385 16be
00000160: 1665 0cbe
