src/models/bebop/pretrained/generator.pt (torch_old, 467324 bytes, 7 tensors)

embedder.weight f4 [89, 64]
000000 06 a4 78 bb e7 c1 29 bd 42 36 63 bc 03 f0 f2 3b
       -0.0037939562 -0.041444685 -0.013867917 0.0074138655
000010 a0 12 0c 3d a9 30 bd bc 89 ea 19 3c e4 21 17 bd
       0.03419745 -0.023094492 0.009394296 -0.036897555
000020 1d 64 91 bb 3e 26 ae bc b1 16 cd 3c de b0 7e 3c
       -0.0044369833 -0.02125847 0.025035234 0.015545098
000030 7b 59 c9 bc b8 2f 33 bd fa 3f 2d bc 19 c6 d3 3c
       -0.0245788 -0.04374668 -0.010574335 0.025851296
000040 f0 64 1a 3d 99 2a 74 3d 18 4b ac 3a 1d 45 31 3d
       0.037693918 0.059610937 0.0013144938 0.043278802
000050 67 6d 2b 3d 64 d9 13 bd 73 48 70 3c 10 b7 4e bc
       0.04185238 -0.03609599 0.014665711 -0.012616888
000060 1a b2 3f bc ec 5c 83 3c f4 71 c9 3c 7a 63 cf 3c
       -0.011700178 0.01603552 0.02459047 0.025315989
000070 5b ab 81 bc 9d 03 f1 bb ac 11 05 bd e9 f0 5e 3c
       -0.015828779 -0.007355167 -0.032487556 0.013607242
000080 f4 e8 86 bc db f4 14 bd ab cf 85 3d 75 84 84 bd
       -0.016468503 -0.036366325 0.0653375 -0.06470577
000090 5a 8b 9b bc e2 6e 98 3d e5 32 ae 3c 4a d3 62 bd
       -0.018987346 0.07443024 0.021264503 -0.055377282
0000a0 33 93 9a 3c b4 98 1d bd 41 da 57 bd ff ab 6b bd
       0.018869018 -0.038475707 -0.052698378 -0.057537075
0000b0 5e 23 6c bc 73 fa 9a bd 74 89 48 3d 61 df fe 3c
       -0.014412729 -0.07567301 0.04895921 0.031112375
0000c0 62 b2 42 bb df f2 5c 3d b2 73 96 3b de 1c 8a 3b
       -0.0029708375 0.053942557 0.0045914287 0.004214867
0000d0 40 ec 4c 3d c8 d5 20 bd 97 ef 81 bc ec 26 86 bd
       0.050029993 -0.039266378 -0.015861316 -0.065503925
0000e0 29 69 87 3c dc 1c 61 3d 89 00 8c bd 25 d7 85 3c
       0.016529636 0.054959163 -0.068360396 0.01633794
0000f0 88 24 67 3d 3f 83 6b 3d 98 4b 28 bd 77 cb 5d 3d
       0.056431323 0.057498213 -0.041087717 0.054149117
000100 00 2c 4e bc 12 24 c7 3c 96 f9 95 3c 28 52 97 3b
       -0.012583733 0.024309192 0.018307488 0.004617948
000110 a0 15 36 bb 41 3d 04 3d ae 7b d9 3c fb b5 0e 3d
       -0.0027783886 0.03228498 0.026548233 0.03484152
000120 30 4b 33 3b ce 8e f3 3c 3c 3b 80 bc b8 27 35 bd
       0.0027358048 0.02973118 -0.015653245 -0.044227332
000130 33 cd d1 bc 71 5d 4a 3d e2 3f d5 3c 46 8e 80 3c
       -0.025610542 0.04940552 0.026031438 0.015692841
000140 e3 b0 d8 bc e9 6a 40 3d 93 a7 c0 bc 5d 77 d2 bc
       -0.026451534 0.046976957 -0.023517406 -0.025691682
000150 bd f4 28 bd a8 ee 93 3b 42 99 c3 3c d8 c6 d7 3b
       -0.041249026 0.004514534 0.02387679 0.0065849833
000160 8d d0 3e bd dd a3 00 bd 7b 88 46 3d f3 86 3b bd
       -0.04658561 -0.031406272 0.04847 -0.045782994
000170 54 bd 18 bc 02 de 34 bd 94 8a 75 bc 80 1a b7 b9
       -0.009322483 -0.044157036 -0.014986653 -0.00034924224
000180 65 7d 19 bd 52 b9 f6 3c c0 28 8f 3b c5 a2 34 bd
       -0.0374731 0.030117664 0.0043688715 -0.04410054
000190 de c5 e7 3c 50 02 e2 3b c7 e3 22 3d 4f c6 0b 3d
       0.028292593 0.0068972483 0.039768007 0.03412467
0001a0 6e a3 b5 3c 75 3c 18 bd 9a 42 40 bd 00 60 04 3a
       0.022172656 -0.03716703 -0.046938516 0.00050497055
0001b0 a8 a5 d5 bb 37 a1 4b bd cb 95 42 3d e1 3d 42 3d
       -0.006519992 -0.049714293 0.047506135 0.047422294
0001c0 36 19 81 3c 3e f8 bc 3c da b9 4c bd 54 bd 41 3c
       0.015759092 0.02306759 -0.04998193 0.0118249245
0001d0 e8 ec 0a 3c 60 09 88 bc 94 a3 21 bc 07 48 e7 bc
       0.008479334 -0.016606033 -0.00986566 -0.028232588
0001e0 48 3e 0c bc 6a aa 84 3c a6 a2 d2 3c 60 85 f6 3a
       -0.008559771 0.016194541 0.025712322 0.0018808059
0001f0 91 c4 02 3d 52 aa 1e bd 46 c4 ca 3c 93 97 c0 bc
       0.03192574 -0.03873665 0.024751794 -0.023509776
000200 34 6f 09 3c 18 c5 c8 3b 00 8a 03 3c ff ef 42 bd
       0.008388329 0.006127011 0.008028507 -0.04759216
000210 50 ab f8 bc f9 a2 05 3d e7 f9 a3 bc a0 c2 b3 bc
       -0.030355126 0.032626126 -0.020016624 -0.02194339
000220 68 47 09 3c de 8e b2 3c 70 a1 ba bb c1 fc 19 3d
       0.008378841 0.02179664 -0.0056955144 0.03759456
000230 c2 4e fa 3c 9e d4 dd 3c 6d e5 38 bd 60 70 27 bb
       0.030555133 0.027078923 -0.045140672 -0.0025549158
000240 c5 6b 02 3d e5 3b 09 3d 80 e2 04 3b 04 a8 6a 3c
       0.03184106 0.033504386 0.0020276606 0.014322285
000250 32 94 e1 3c ed aa 1f 3d b4 4f 2b 3c c3 55 c1 bc
       0.027536485 0.038981367 0.010456014 -0.023600465
000260 45 b2 22 bd 80 54 fa 3b 30 e8 d8 3b f9 c8 2a 3d
       -0.039720792 0.0076394677 0.006619476 0.04169557
000270 b7 76 0b 3d 7a 91 a3 bc b0 32 2c bd 9e b4 be 3c
       0.034048762 -0.01996683 -0.042040527 0.023279484
000280 36 54 c0 3c 5d 13 38 3d 02 fd 3f bd 7e 7d 0c bd
       0.023477655 0.04494034 -0.046872146 -0.034299366
000290 c5 75 3a 3d 37 50 06 3d 48 b6 18 bd 1a 98 bc 3c
       0.04552247 0.032791343 -0.037283212 0.023021746
0002a0 8a 05 cd 3c d8 80 ad bb 55 19 23 3d 80 03 69 3a
       0.025027055 -0.0052949004 0.03981908 0.0008888766
0002b0 e0 58 1a bd 83 25 1b bd 62 37 42 bd 9d 0e 1d bd
       -0.037682414 -0.03787757 -0.0474161 -0.038344014
0002c0 6a 75 c3 3c 13 69 3c bd e2 07 9c 3c 94 52 33 3c
       0.023859698 -0.045998644 0.019046728 0.010944981
0002d0 e2 87 ac 3c 00 14 4a 3a bc f4 64 3c 80 b0 ff bc
       0.021060888 0.00077086687 0.013974365 -0.031212091
0002e0 53 08 f2 bc ef e2 4a 3d 60 68 2c 3b be d0 94 3c
       -0.029544985 0.049532827 0.002630733 0.018165942
0002f0 34 c7 41 3c 63 33 40 3d db 8d 29 bd a8 e2 4e bc
       0.011827279 0.046924006 -0.04139505 -0.012627281
000300 fb c0 10 bd 6a 5f ea bc ec b1 30 bc 02 04 f0 3c
       -0.03534029 -0.02860995 -0.010784607 0.029298786
000310 80 bd 53 3b 0d 7a 07 bd 53 38 e0 bc 52 ac 8e 3c
       0.0032308996 -0.03307538 -0.027370607 0.017416153
000320 07 11 19 3d 2e a8 f1 3c 80 2d 57 3a b4 fb 14 bc
       0.037369754 0.02949914 0.0008208379 -0.009093214
000330 80 d0 38 3c 82 35 93 3c ae c1 ca 3c c7 93 c5 bc
       0.011280179 0.01796985 0.024750557 -0.024118317
000340 a0 a5 e5 bc 9f bf 45 bd 5a cf a3 bc 1d 63 b5 bc
       -0.028033078 -0.048278447 -0.019996334 -0.022141987
000350 e3 2f 43 bd 63 57 b6 bc 02 64 85 3c 20 2e 7d bb
       -0.04765309 -0.022258466 0.016283039 -0.003863223
000360 00 a4 df 39 69 08 4c 3d 60 4e 1c bc c3 04 f5 bc
       0.00042656064 0.049812708 -0.00954017 -0.029909497
000370 80 52 78 ba 5d a1 fc bc 63 db 3f 3d 8e 2c 24 bd
       -0.00094727427 -0.030838663 0.046840083 -0.040081553
000380 ab 20 4c 3d f6 b7 f3 3c 2a 61 ac 3c f0 36 b1 bb
       0.049835842 0.029750805 0.021042425 -0.0054081604
000390 d2 53 29 bd 91 54 1f 3d a0 37 39 bb a0 a4 b8 ba
       -0.041339703 0.03889901 -0.0028261915 -0.0014087148
0003a0 18 de 27 bc da 01 d1 3c e3 e8 3a 3d 84 b9 55 3c
       -0.010245822 0.025513578 0.045632254 0.013044719
0003b0 3b a4 0d bd d3 8e e7 bc 67 fa 4a 3d 0d e4 1d 3d
       -0.03458045 -0.028266346 0.04955521 0.038547564
0003c0 8f ad 13 3d 2c 78 91 bc 78 3c 2c 3c 30 a8 75 bb
       0.03605419 -0.017757498 0.010512464 -0.003748428
0003d0 1a 67 c6 3c b0 25 d3 3b 59 ca 2c 3d 25 f4 19 3d
       0.024219085 0.0064437017 0.04218516 0.03758635
0003e0 5b 05 1f 3d 96 93 fb 3c a0 97 20 3b 60 b8 96 ba
       0.038823467 0.030710023 0.0024504438 -0.001149904
0003f0 08 6f 05 bc 88 1b 26 3c 94 0d 17 bc 7d 9b 4a 3d
       -0.008144148 0.0101384 -0.009219546 0.04946469

lstm.weight_ih_l0 f4 [512, 64]
000000 fb 2b c7 3c 59 8c 25 3d 54 bb 07 3d 07 94 32 bd
       0.024312964 0.04041705 0.033137634 -0.0435982
000010 7b bf 15 3d 13 ca 87 3d 10 66 b1 3c f6 68 6a 3d
       0.036559563 0.066303395 0.021655113 0.057229005
000020 73 52 ec bc e1 d9 1d bd 02 9b 21 3c 67 9f 56 3d
       -0.028847909 -0.038537864 0.009863617 0.05239811
000030 c6 0c cc bc 38 15 4b 3b 69 ec 93 3b d6 75 0e 3d
       -0.024908435 0.003098799 0.0045142663 0.034780346
000040 02 2e 78 bc c9 4e a3 3c 51 53 a2 bc 9d cc 3b 3d
       -0.015147688 0.019935029 -0.019815119 0.04584943
000050 c9 1e 0a bc fb 5c c9 bc 03 36 f5 3c 25 89 14 3d
       -0.008430191 -0.02458047 0.029932981 0.036263604
000060 bc 0c 24 3d a0 5a a6 bb c3 97 92 3c 51 8f e8 3a
       0.040051207 -0.0050767213 0.017894631 0.0017742907
000070 1a 99 89 3c 2f 86 71 3d 6c 88 64 bd e8 5a 8c 3c
       0.016796637 0.058965858 -0.055794165 0.017133191
000080 ca 41 6b bd 6b f9 0c bd 04 15 90 3d 82 bc 28 3d
       -0.05743579 -0.03441755 0.070352584 0.0411954
000090 e9 40 e1 bc 2c eb 22 bc 74 01 7b 3d 60 d6 a8 bc
       -0.027496772 -0.009943765 0.061280683 -0.020610034
0000a0 4a db 77 bd 2b 24 0a bc e9 8d 34 3c db 8c 88 3c
       -0.060511865 -0.008431475 0.011020162 0.016668728
0000b0 71 7e 5a bd 95 29 9d bc bf af d0 3c 85 fb 00 3d
       -0.05334324 -0.019184867 0.025474427 0.031489868
0000c0 02 d7 94 bc 63 f2 35 3c b0 4f 06 3c f4 04 92 bd
       -0.01816893 0.011105153 0.00819771 -0.07129851
0000d0 a0 d1 6a 3c 49 e2 20 3c 03 af e6 3c 74 2e 64 bd
       0.014332205 0.009819576 0.028159624 -0.055708364
0000e0 49 bd b6 bb 74 dc e8 3c 2d 57 86 bc 90 c2 35 3d
       -0.005576764 0.028425433 -0.01639899 0.044375002
0000f0 83 ee 52 3d dc 9b bc 3a 91 9a 16 3b 0c 77 3f bd
       0.051496994 0.0014389711 0.0022980312 -0.04674439
000100 ee ee 45 bc f0 9d 01 bd ad a2 32 bd f3 5f 8a bc
       -0.012080891 -0.03164476 -0.04361217 -0.016891455
000110 66 fb f8 3b c2 aa 9d bc cc b0 12 bd 7d 8d 53 3d
       0.0075983284 -0.019246463 -0.035813138 0.051648606
000120 b3 ea 98 bc eb 34 c5 bb 18 1a 10 bd 0e cf e5 3c
       -0.0186666 -0.006018271 -0.035181135 0.028052833
000130 49 03 27 bc 5d 98 26 3b bb b7 91 bd 6b 8b c2 bb
       -0.010193654 0.0025420405 -0.07115122 -0.00593703
000140 8e d7 79 3d b4 9e 98 3b 30 52 1f bd 70 3c 50 3d
       0.060996585 0.0046575908 -0.03889674 0.050838888
000150 95 95 8b 3d cf 65 95 bd fb 34 69 bc b4 d3 93 bc
       0.0681564 -0.07294809 -0.014233823 -0.018045284
000160 30 b7 88 3c 09 a3 85 bc 4f 54 a4 bb 4f 39 56 3d
       0.016688913 -0.016313093 -0.005014933 0.052300747
000170 d8 cc d3 bb ac 89 94 3d fb 02 23 bd fc e0 4b 3c
       -0.0064636283 0.07252821 -0.039797764 0.012443777
000180 73 59 b6 3c 2a 08 90 bd 92 95 2f 3c 0e 42 d4 bc
       0.02225945 -0.07032807 0.010716813 -0.025910404
000190 1f b8 07 3d 79 7b 2c 3d b3 56 9d bc be ea f8 bb
       0.033134576 0.04210994 -0.01920638 -0.007596343
0001a0 5a 0e aa bc b5 56 88 3c 9a 90 9a bc e9 6f 7a bd
       -0.020758796 0.016642908 -0.01886778 -0.061141882
0001b0 43 45 0b 3d 68 12 c1 bc 7e 78 02 3b 32 af a1 bc
       0.0340016 -0.023568347 0.0019908245 -0.01973686
0001c0 90 65 ba bb 8f e9 90 3d 44 72 b5 3c fb 3c a1 bc
       -0.0056883767 0.07075798 0.022149213 -0.019682398
0001d0 f9 fc 6f ba 82 17 29 bd 6f 67 ba 3c 04 7d 13 bd
       -0.00091548223 -0.041282184 0.0227544 -0.036007896
0001e0 42 22 7b 3c 17 85 fc 3c 78 72 ab bc 2e 9e 2f b8
       0.015327992 0.030825181 -0.020928606 -4.1870568e-05
0001f0 2f 7c ac bc ba a1 0a 3d 5c 7f 5a bb 36 fb ca 3c
       -0.02105531 0.03384564 -0.0033340072 0.02477799
000200 de 4a be bc 1f 04 63 3c e3 aa 82 3d cb 6f 26 bd
       -0.023229059 0.013855963 0.0638025 -0.040633958
000210 89 eb 96 3c 13 2d 49 bb 71 41 1b bd eb c9 3c 3d
       0.018422859 -0.0030697032 -0.037904207 0.046091
000220 50 4d 1b bc f1 71 97 bd ac 47 4f 3d 4e 09 ac ba
       -0.009478882 -0.073947795 0.05060546 -0.0013125332
000230 7c 57 60 bc 28 1e 7b 3c b4 8a 39 3c 74 db 01 3d
       -0.013692733 0.015327014 0.011324573 0.031703427
000240 ca 00 e5 bb 9e 14 78 bd c4 ad 5a 3c 9f 9e 34 bc
       -0.0069886195 -0.060566537 0.013347093 -0.011024146
000250 96 05 9b 3c 46 ed e6 bc 70 ad 2a 3a 68 68 7e 3d
       0.018923562 -0.028189313 0.00065108296 0.06211129
000260 b4 d8 c6 bc 77 ce 82 3c d0 13 27 3c 48 2f 16 3d
       -0.024273254 0.01596759 0.010197595 0.036666185
000270 3b 64 84 bd 56 2e 67 3d e0 9a f5 bc fb ee 09 3d
       -0.0646443 0.056440674 -0.029981077 0.033675175
000280 ed 97 0d 3d cc 98 95 3b 1c 00 50 3d 83 92 1d bc
       0.034568716 0.004565334 0.050781354 -0.009617451
000290 6a f3 19 bd e3 2e 5c 3c f6 16 22 3d 1e 37 8b 3c
       -0.037585653 0.013438913 0.03957268 0.016994055
0002a0 a3 9c 35 bd f5 2d d9 3b 5b 80 64 3d f3 18 9f 3c
       -0.044338834 0.006627793 0.05578647 0.019421076
0002b0 b2 d7 f9 bc 52 f9 52 3c e8 ea 82 bc f3 bd 0d 3d
       -0.03049836 0.012876825 -0.015981153 0.034604978
0002c0 a2 2b 12 3d a4 60 d0 3b 9b cd b6 3c 43 04 ee bc
       0.035686143 0.0063591767 0.022314837 -0.029054767
0002d0 06 fd 03 3d 0d 76 24 bd d7 f9 8f bc 2c d7 4f bc
       0.032223724 -0.040151644 -0.017575188 -0.012685578
0002e0 90 cf d2 bc 56 82 b0 3c 73 6b aa ba 4e 61 10 3b
       -0.02573374 0.021546524 -0.0013001993 0.0022030654
0002f0 d7 fb 10 3d 17 77 d6 bb d6 a1 12 bb 40 76 a5 3c
       0.035396423 -0.0065449583 -0.0022374294 0.020197988
000300 36 81 df 3c eb 97 10 3d 70 a4 81 3d ff bf 10 bd
       0.027283292 0.03530113 0.06330192 -0.03533935
000310 ab f7 fc bb 8a ec 18 bd 65 8a 62 bd da 1b 50 3c
       -0.007719954 -0.037334956 -0.055307765 0.012701953
000320 e3 33 17 3d b6 db be 3c e1 35 eb bb 26 a4 f0 bc
       0.036914717 0.023298126 -0.0071780537 -0.029375147
000330 74 59 90 3c 1d 3c af bc cb 81 74 3c 82 85 e0 3c
       0.01762078 -0.021390969 0.014923523 0.027407411
000340 55 b0 40 3d 67 95 4b 3b d2 5f 95 bc 73 2f fa bb
       0.047043163 0.0031064393 -0.018234167 -0.007635051
000350 6a d1 07 3d 43 aa dc 3b 59 e5 be 3c 3b 2d 68 bb
       0.033158697 0.006734164 0.02330272 -0.003542735
000360 f6 71 f7 3c 9f 6a 88 bd ce ac 04 3b b5 ec 40 3d
       0.030205708 -0.06660961 0.0020244601 0.04710074
000370 2c 77 e8 bc fd 60 6a 3d f6 5d bf bc e3 9c bd 3b
       -0.028377138 0.0572214 -0.023360234 0.0057865246
000380 e7 4b a3 bc 7b 3a 07 bd c9 89 6c bc 93 11 06 bc
       -0.019933654 -0.033014756 -0.014437147 -0.008182901
000390 15 65 63 bc f3 ef 64 3c 51 68 a9 bb c7 65 87 bd
       -0.01387908 0.013973224 -0.005169906 -0.06611209
0003a0 c9 c5 f1 bb c4 10 a9 bc 96 fd 91 3c 28 8b 22 bd
       -0.007378314 -0.020637877 0.017821115 -0.03968349
0003b0 c3 ca 44 3c 0e 31 17 bd d5 46 c9 bc 64 8d 9b 3c
       0.012011233 -0.036912017 -0.024569908 0.018988319
0003c0 e9 b9 10 bd 73 a9 f9 3c 4d 94 12 bd aa cd 62 bd
       -0.035333548 0.030476307 -0.035785962 -0.055371918
0003d0 f3 89 24 bd 92 29 57 bd c6 a0 83 3d 57 82 ac 3c
       -0.04017062 -0.05252988 0.064271495 0.021058245
0003e0 a7 50 12 bd 17 75 5c 3d b7 5c 25 bd 43 59 d5 bb
       -0.035721447 0.053822603 -0.040371623 -0.006510885
0003f0 31 a6 5f 3d 3a be a5 3c ee 94 ba 3c 78 f0 89 3a
       0.05460185 0.020232309 0.022776093 0.0010523936

lstm.weight_hh_l0 f4 [512, 128]
000000 7d a1 e6 bc 7a 51 b6 3a 48 9a e1 bc cb 8f b7 bc
       -0.028153175 0.001390978 -0.027539387 -0.022407433
000010 5c 06 93 bc a5 0f 34 3b 4e 4c 1d bc 69 ec d4 3c
       -0.017947368 0.0027475145 -0.009600712 0.025991635
000020 b8 0d 70 3d c6 a2 57 bb 92 6e 43 3d 98 e2 8a 3c
       0.058606833 -0.0032903417 0.04771287 0.016953751
000030 fe 47 0c bd 8b 5a 3f bb 98 1f 34 3d 10 02 82 3d
       -0.034248345 -0.0029198255 0.043975443 0.0634805
000040 cb a6 9b 39 ae 6c cb bc fe a5 58 bd 5d 67 61 bd
       0.00029688174 -0.024832096 -0.052892677 -0.055030216
000050 02 2d c2 bb 1a 8b 70 bc a0 77 8e bc 05 92 18 3c
       -0.0059257755 -0.014681602 -0.017391026 0.0093121575
000060 80 8f 5f bc 04 08 5b bd ad c8 09 bd 9b b5 b8 bc
       -0.013645053 -0.05347444 -0.033638645 -0.022547534
000070 a3 ed 18 bc c6 10 c2 bc a7 42 3a 3c aa db 28 bb
       -0.009334001 -0.023689639 0.01136843 -0.0025765696
000080 37 8a a5 ba 14 64 ba bc af d9 34 bb 29 9f 53 3d
       -0.0012629692 -0.0227528 -0.002759557 0.05166546
000090 fb da 11 bd 4b 4d 96 bc 6d 49 8d 3d 3d 3a a6 3c
       -0.035609227 -0.018347403 0.068987705 0.020291442
0000a0 9d 87 e5 3c 7d f6 86 bc e4 c7 87 3c 5f f2 85 bc
       0.028018767 -0.016474957 0.016574807 -0.016350923
0000b0 19 4b 03 bc ef f4 60 3d 34 d0 e1 3c 67 64 16 ba
       -0.00801351 0.054921087 0.0275651 -0.0005737007
0000c0 e3 42 51 bc 9e e4 17 3d 39 90 48 bb 91 3f 90 bc
       -0.012772295 0.03708326 -0.0030603542 -0.017608436
0000d0 dc 12 4f bd 54 24 4d 3c ac 6f 3d 3d 86 b9 0f bc
       -0.050555095 0.012520868 0.046249077 -0.00877226
0000e0 70 72 c8 ba 2b 2b 55 bd 1e 19 bf 3c 75 38 85 bc
       -0.0015292894 -0.05204312 0.023327406 -0.016262272
0000f0 56 57 7f bc cd dc 04 bc c8 eb ea 3b 94 32 21 bb
       -0.015584787 -0.008109284 0.0071692206 -0.0024596797
000100 e2 0e 63 bd 91 6c bd bb a3 b1 34 bc bd 00 27 3d
       -0.055434115 -0.0057807644 -0.01102868 0.04077219
000110 a4 71 fb 3b 89 98 8b 3d 46 bd a9 bc 57 57 af 3c
       0.007673459 0.06816203 -0.020720135 0.021403952
000120 09 c0 dd bc d8 9e 0a 3d 2f 41 23 bd 10 af 27 bc
       -0.027069109 0.03384289 -0.039857086 -0.010234609
000130 33 ea 86 3c 31 34 49 bd 27 8d 98 3c e8 5f 7a 3d
       0.016469097 -0.04912204 0.018621994 0.06112662
000140 e9 7f df ba 13 4d 1d bc d0 c7 6d 3d 08 1a 80 3d
       -0.001705167 -0.009600895 0.058051884 0.06254965
000150 07 ec 08 bd 0b 88 9c bc 7e e3 8e 3d 0f b4 10 3d
       -0.03342822 -0.01910784 0.069769844 0.035327967
000160 95 3b 8d bc a1 c9 1e bd ab 5f 20 3d 6d 8d 6c bb
       -0.017240325 -0.038766507 0.039153736 -0.0036095039
000170 c7 53 be 3c 2f 69 17 3d 77 d6 90 3c 9f 4a ad 3c
       0.023233308 0.036965545 0.01768039 0.021153746
000180 d3 bf 2c bd fc 0d d3 3c e5 fa 66 3d 84 39 3a bd
       -0.042175125 0.025763504 0.056391615 -0.045465007
000190 d1 00 56 bd 89 3f e3 3c af b1 bb bc 23 c4 e3 bc
       -0.052246872 0.027740257 -0.022911875 -0.027803486
0001a0 52 de 52 3d 55 dc 83 bd c7 c1 8d bd b1 15 25 bc
       0.051481552 -0.064385094 -0.06921726 -0.010075972
0001b0 d9 3e 9c 3c 1a 0c 00 bc 37 16 4d bd 3f 35 81 3c
       0.019072937 -0.007815385 -0.050070014 0.01577246
0001c0 f1 3c 93 bc fe 77 82 bc 8c 97 11 bd d7 9a 00 bd
       -0.017973395 -0.015926357 -0.035544917 -0.031397667
0001d0 4e b7 1d 3d 8e 4e 91 3d 0c 72 d1 bc b8 bc c3 3c
       0.03850489 0.07095061 -0.025567077 0.023893699
0001e0 4d d7 22 3c 76 8b d8 bb 5e 18 03 bd 8f 81 2c 3c
       0.009939027 -0.006608422 -0.03200566 0.010528936
0001f0 77 83 c6 3c f3 86 2b bc 52 8c 5b bc 9a 11 1f bd
       0.02423261 -0.010469186 -0.013400154 -0.038835146
000200 d2 96 5f 3c f4 a5 c1 bb 66 c1 48 3d 02 b6 48 3d
       0.013646798 -0.0059096757 0.049012564 0.0490017
000210 14 b2 91 3c bd c5 c9 bc 30 7a 63 3d 30 d6 1d 3c
       0.01778511 -0.024630422 0.05553645 0.009633586
000220 6e 4f 46 3d 09 f4 4b 3c 72 82 6d bc a4 43 8a 3b
       0.048415594 0.012448319 -0.014496433 0.004219489
000230 8b 79 2e bd e1 ab 34 3c 7d 1b 1c 3d 55 e4 4f 3d
       -0.04259638 0.011027307 0.038112152 0.050754864
000240 78 62 cd bc 49 d6 bb bc 83 5e c4 bc c2 5c 36 bc
       -0.025071368 -0.022929328 -0.023970848 -0.011130514
000250 5f ac be bc 89 b1 42 3c 9e 15 e1 3c 7d 61 8f 3c
       -0.023275552 0.011883148 0.027476128 0.01750254
000260 f1 0d 0f 3d f6 93 eb bc fa 63 0d 3c 3d 30 39 3d
       0.034925405 -0.028757077 0.008629793 0.04521202
000270 06 34 d9 3c 5d f8 cf 3c ec 7f a0 bb 02 49 30 3d
       0.026514065 0.025386984 -0.004898062 0.043038376
000280 25 7e 82 3c e4 02 9f bb bd 2b 6a bd 60 09 2f 3c
       0.015929291 -0.0048526395 -0.05717062 0.0106833875
000290 85 be 0a bd 20 c1 e1 bb 30 9c 2e 3c 9d 92 89 3d
       -0.0338731 -0.0068894774 0.010657355 0.067174174
0002a0 b7 ff a1 3c b5 ca 8d bd be 4c 80 bd a7 74 f5 bc
       0.019775255 -0.06923429 -0.062646374 -0.02996285
0002b0 3c 7d 9f 3c 6a 50 54 3d 92 19 65 bd c5 ef 1c bc
       0.019468896 0.0518345 -0.05593259 -0.00957865
0002c0 6d 6b 22 bd 67 e5 87 bc b2 88 7a bd 53 53 82 bd
       -0.03965323 -0.01658888 -0.06116552 -0.06363549
0002d0 c1 a7 0d 3c b4 0f 80 bd cb 0d 82 3d 4d 20 4d 3d
       0.008645953 -0.06252995 0.06350287 0.050079633
0002e0 97 5b 06 3d 10 d3 68 bd 54 aa 47 3b ff 8d 54 3d
       0.03280219 -0.05684191 0.0030466514 0.05189323
0002f0 9e 64 42 3d 46 92 5d 3d b4 66 31 bc c7 13 7e bd
       0.047459237 0.054094575 -0.010827709 -0.06203058
000300 63 06 74 bb bd b5 19 bd 41 18 da bc f2 8b 4c bd
       -0.0037235252 -0.037526835 -0.026622893 -0.04993815
000310 fc cd bc 3c 9d 1d 19 bc 80 f4 8a 3c 81 b2 8a 3d
       0.02304744 -0.009345439 0.01696229 0.06772328
000320 5c 69 46 bd 0b de c7 bc 03 4f 82 bd d5 47 62 3d
       -0.048440322 -0.02439787 -0.063627265 0.055244286
000330 8a e2 ca bb b0 b7 05 bd ee 60 4c 3c 1b 45 b8 3c
       -0.0061915563 -0.03264588 0.012474282 0.02249389
000340 30 48 e0 bb a7 15 dd bc 7d dd d6 3c 16 16 95 3c
       -0.006844543 -0.026987864 0.02622866 0.018199008
000350 de 0e 26 3d 45 56 d2 bc 14 d7 7e 3d 7a 57 34 bd
       0.040541522 -0.025675902 0.062216833 -0.044028737
000360 c5 18 06 3d f8 a6 bc 3c d5 dd eb 3c 78 a2 91 3c
       0.032738466 0.023028836 0.028792301 0.017777666
000370 68 d2 f0 3b 36 83 c4 bc 6e f8 b6 3c 8e c9 72 3d
       0.007349301 -0.023988348 0.022335257 0.05927425
000380 0c 2d 2b bd 7a eb e8 bc 11 0e a2 3c 81 6e 58 bd
       -0.041791007 -0.028432596 0.019782098 -0.05283976
000390 76 98 73 bd 59 03 00 bb 15 a8 5f 3c 41 cc 4b 3d
       -0.05947157 -0.0019533245 0.013650914 0.04975534
0003a0 b9 e7 73 3c cf 9e ea b9 51 18 83 bd 96 6e 67 3d
       0.01488679 -0.0004475028 -0.06401122 0.056501947
0003b0 f3 ab 44 bd 04 4d 7e 3d 69 5a 04 bd 89 b5 d0 bc
       -0.048015546 0.062085167 -0.032312784 -0.025477188
0003c0 37 17 4c bc 74 5d 10 3c 2d d6 45 bd 55 dd 16 3c
       -0.012456707 0.008811343 -0.048299957 0.009208043
0003d0 8e 8f 8b 3d 06 d7 e3 3c 44 59 0f 3d 98 3f 27 3c
       0.0681449 0.027812492 0.03499724 0.010208033
0003e0 2e 3e 96 bc 53 74 92 3d ed 5b 34 bd 39 99 ba bc
       -0.018340196 0.07151093 -0.04403298 -0.02277814
0003f0 43 33 c1 3c be b1 0b 3d ef bd 91 3c 5d ca 49 bd
       0.023584014 0.034105055 0.017790763 -0.049265254

lstm.bias_ih_l0 f4 [512]
000000 34 00 95 bc 81 e6 6c 3d 9b 4d 14 3d b3 a0 c3 bc
       -0.018188573 0.057837013 0.036206823 -0.023880338
000010 77 1d c6 3a ae 4f 12 3d 39 32 b0 3c 8c 11 71 3d
       0.0015114982 0.03572052 0.021508323 0.058854625
000020 f1 c0 33 bc 77 78 28 bc 10 44 7d 3d 43 b0 40 bc
       -0.010971294 -0.010282627 0.061832488 -0.011760774
000030 b2 7d 55 3d 31 d0 04 3d a5 62 cd bc 14 9e 1c bc
       0.052121826 0.03242511 -0.025071451 -0.009559173
000040 cd 62 50 3c 37 f2 c8 3c 7d 46 6c 3d 57 00 e3 bb
       0.012718868 0.02452956 0.05768441 -0.0069275307
000050 4c 56 0c 3d da 87 bc 3c 48 a3 8c 3d 20 ec 55 3d
       0.034261987 0.023013998 0.06867081 0.05222714
000060 7b bf 6e bb 5b 02 d3 3c e6 14 0b bd 08 09 b3 3c
       -0.003643005 0.02575796 -0.033955477 0.021854892
000070 be 64 ca 3b a1 d0 6f 3d c8 77 1f 3d 9e cb 58 3c
       0.00617656 0.058548573 0.03893259 0.01323214
000080 f6 4e 35 3d 40 11 80 bc a8 41 6e 3d 56 33 cb 3c
       0.044264756 -0.015633225 0.058168083 0.024804752
000090 6f ba 86 bb b9 4c 92 bc f7 ad 0f bb 3b 4b c6 bc
       -0.00411158 -0.01785885 -0.002192376 -0.024205795
0000a0 f7 31 0a ba fe 3d a6 bc 9d 79 8f 3d a0 0c d8 3c
       -0.00052717276 -0.020293232 0.07005618 0.026373208
0000b0 39 7b b6 3c 37 e9 25 3d 70 39 05 3d f8 26 5e 3d
       0.022275554 0.040505614 0.03252548 0.054236382
0000c0 6f 99 8c 3d 4b 99 f3 3c 32 d3 5c bc 26 80 0e bc
       0.06865203 0.029736182 -0.013478087 -0.008697545
0000d0 e5 16 63 3b 80 35 2b 3d 8d e4 cd bc 83 74 3d 3c
       0.0034651097 0.04179907 -0.025133396 0.011563423
0000e0 5b 4d 29 bd d7 20 58 bc b5 8c 3c 3d a7 55 bf bc
       -0.041333538 -0.013191423 0.046032626 -0.023356272
0000f0 01 f8 7c 3d 1b 4d 56 3d 91 de 94 3d e5 cf 0e 3c
       0.061759952 0.052319627 0.07269014 0.008716558
000100 72 d2 38 3d 99 c3 5f bb 8c 7b 63 3d e5 58 82 bd
       0.04512257 -0.0034143685 0.055537745 -0.063646115
000110 3b 39 04 3a 0d 76 98 3a 09 c8 9c 3c 22 9e 34 3c
       0.00050439284 0.0011631862 0.019138353 0.01102403
000120 6f 28 cb bc ee 00 3e bc de 63 dd 39 0d ae be 3c
       -0.024799554 -0.011596901 0.00042226812 0.023276353
000130 da 49 0e 3d 60 a4 6d 3d a2 b4 af bc 26 da 88 3d
       0.0347384 0.05801809 -0.021448437 0.066822335
000140 3c 01 cd 3c e7 c7 05 bb 38 f0 5f bc fb 4c e0 bc
       0.025025003 -0.002041334 -0.013668112 -0.027380457
000150 55 8a 42 3c 70 72 5f bc a3 4d dd bc 66 6e 84 3d
       0.011873801 -0.013638124 -0.02701456 0.06466369
000160 48 55 9a bc b1 cf 0b 3d c2 8f 16 3d 7a 7e 2d 3d
       -0.018839493 0.034133617 0.036758192 0.042356946
000170 a7 c8 7a 3d a8 b9 b9 3c 63 c4 2d 3a de 74 91 3d
       0.061226513 0.022671536 0.000662869 0.07102369
000180 91 56 b1 bc f2 1a 13 bc 66 32 b2 bc 68 3f ae bc
       -0.021647723 -0.008978592 -0.021752547 -0.021270469
000190 fa 62 0d 3d 07 22 1b 3d 22 6a 48 3d 82 ba 37 3d
       0.03451822 0.037874248 0.04892934 0.044855602
0001a0 69 a5 5b 3d 40 5d 05 3d 1b 55 ab bb 3d 0e 43 3d
       0.053624544 0.032559633 -0.005228651 0.047621
0001b0 db 19 50 3c 2b 48 4e 3c 6d d8 8d 3d 57 aa 42 3d
       0.012701477 0.012590448 0.069260456 0.04752573
0001c0 6b af c6 bc 4f c2 4f 3d ef 4d 6f bc e5 79 49 3c
       -0.024253568 0.050722416 -0.014605983 0.012297128
0001d0 62 59 83 3d fd 86 e2 bc 38 ec 3f 3c d9 ba 3d bc
       0.06413533 -0.027652258 0.011714034 -0.0115801925
0001e0 fa d0 82 3c 67 75 62 3b d0 a1 08 3d fb c7 13 bc
       0.015968788 0.003455484 0.03335744 -0.009019847
0001f0 27 15 41 3d ab bd 05 39 dc dc 47 3d 47 14 b8 3c
       0.047139313 0.00012754525 0.048794612 0.022470606
000200 89 d6 88 3c b4 01 be bb e6 92 38 bc b5 62 0d 3d
       0.01670386 -0.005798543 -0.011265492 0.034517962
000210 c6 ea 55 3c e1 c1 9d 3c 6e 01 dc bc 3c 8d 2b bc
       0.013056463 0.019257488 -0.02685615 -0.010470685
000220 ae db 60 3d 84 74 ca 3c 96 8b 49 3d f1 23 10 3d
       0.054897003 0.024713762 0.049205385 0.035190526
000230 b4 ba 5f 3d 82 ce 5a 3d b5 5a ac bc 7e 9b f3 ba
       0.054621413 0.053419597 -0.021039346 -0.0018585769
000240 09 d2 80 3d bb 1a 70 3b f2 5d 31 bc 68 00 6f 3d
       0.06290061 0.0036637026 -0.010825621 0.058349997
000250 b1 ae 5f 3c 86 a7 2b 3d 5d ab 48 bc ce 08 23 3d
       0.0136524895 0.04190781 -0.012247887 0.03980332
000260 bd 04 91 3d 10 d7 11 3d ac 81 a5 3c f4 71 90 bc
       0.07080982 0.03560549 0.020203434 -0.017632462
000270 94 5b c8 3c cf ba 13 3d 69 80 f8 3b 6e 62 ab bc
       0.02445773 0.036066826 0.007583667 -0.020920958
000280 f5 44 8e 3d 22 31 92 3b 0a 5c 37 3d 54 19 77 3d
       0.06946746 0.0044614235 0.04476551 0.06032689
000290 38 54 19 3d 49 17 4a 3c 65 0c b6 3b af 3c 66 3c
       0.037433833 0.012334653 0.0055556768 0.014052554
0002a0 bd 10 f9 3c 87 19 88 3c 35 eb 97 3c 85 82 65 3d
       0.03040349 0.016613735 0.018544773 0.056032676
0002b0 25 48 2d bb 24 33 86 3d 77 59 7c 3d b5 78 d3 bc
       -0.0026440707 0.06552723 0.061608758 -0.025814394
0002c0 2c 36 f5 39 78 c1 13 bd 35 4b 8b 3d 36 69 66 3d
       0.00046770403 -0.036073178 0.06801454 0.05625268
0002d0 9d 6a 13 3d 70 4e 2c 3d f8 e8 af bc 2c 43 12 bd
       0.035990346 0.04206699 -0.021473393 -0.03570859
0002e0 bc 46 e6 3c b6 23 22 3d 6b 71 44 3d 44 a8 30 3d
       0.0281099 0.039584838 0.047959726 0.04312922
0002f0 15 88 22 3d 74 6d 93 3d ee c5 82 bc 00 a7 cb bc
       0.03968056 0.07198611 -0.01596352 -0.024859905
000300 38 b4 cf bc 95 20 5e bc 48 73 ae 3c da 17 91 bb
       -0.02535449 -0.013557573 0.021295205 -0.004427892
000310 6b 44 5a bc 0c ad 91 b9 d5 58 27 3d 83 46 59 3d
       -0.013321976 -0.00027785485 0.0408562 0.05304576
000320 28 a6 49 3d 68 3c 32 bc 80 d7 7b 3d 5d fb 8f 3c
       0.049230725 -0.01087866 0.061484814 0.017575914
000330 a7 30 c6 bc bd da 1c 3d ed d8 3d 3d fe 3b 7f 3d
       -0.024193121 0.038294543 0.046349455 0.062313072
000340 61 20 7a bc 94 3c 12 3d 29 ba a8 3c ed db 52 3d
       -0.015266509 0.035702303 0.02059658 0.05147927
000350 48 46 ac bc ed 8a 1b 3d cf 1a b3 3b 12 fd d4 3c
       -0.021029606 0.037974287 0.0054658423 0.02599958
000360 5e 37 87 ba 5f 46 5d 3d b9 a8 b6 3b 05 a6 da 3b
       -0.0010316183 0.05402219 0.0055743125 0.006672623
000370 f7 32 7b 3d 2a 24 83 3b 0a 96 47 3d 08 e3 11 3d
       0.0613279 0.004002114 0.048727073 0.035616904
000380 70 e9 06 3d cd 58 8f 3d f1 1f 81 3d 06 e9 d3 bc
       0.032937467 0.06999359 0.063049205 -0.02586795
000390 e9 6c ba 3c 1f f4 51 bc 9f f9 1e 3d 42 98 40 3d
       0.02275701 -0.012814551 0.038812276 0.047020204
0003a0 7c d1 7d bc f1 04 e7 3c 69 23 7a 3c 83 54 12 3d
       -0.0154918395 0.028200598 0.0152672315 0.035725128
0003b0 9b 23 1d 3d 3d 45 12 3d 07 dc 8f 3d cc 76 48 bc
       0.038364034 0.035710562 0.07024389 -0.012235355
0003c0 53 4a b9 bc 02 6d b2 3c 86 b5 81 3d 80 5c be 3b
       -0.022618448 0.021780495 0.06333451 0.0058093667
0003d0 cd 3a 47 3d ac bc 76 3d 78 74 a7 3c b1 d0 8b 3d
       0.04864006 0.060238525 0.020441279 0.06826914
0003e0 60 f0 27 3d fa 5f c1 bc e9 96 7f 3c c6 33 76 3d
       0.041000724 -0.023605336 0.015599945 0.06010797
0003f0 8d 8b bd bc 6c 6b 8b bc c1 90 3e 3d d4 e9 bb bc
       -0.023137832 -0.017018996 0.046524767 -0.022938646

lstm.bias_hh_l0 f4 [512]
000000 53 cf 5a 3c 43 63 5e 3d 52 c8 e8 3c 39 a6 7d 3d
       0.013355094 0.054293882 0.028415833 0.0619261
000010 59 02 19 3c 35 e1 76 3d d3 6b 41 3d af 10 05 bc
       0.009338939 0.060273368 0.04722197 -0.008121653
000020 03 92 7d 3d 1d 97 85 3b 1e 7b 0f 3d 2e 88 c6 bc
       0.061906826 0.004076852 0.035029523 -0.024234857
000030 b8 f0 49 3d 4f 3c 8b 3d 3c 64 30 bc e3 03 72 3d
       0.049301833 0.06798612 -0.010766085 0.059085738
000040 62 39 0a 3d c9 20 73 3c 28 26 f5 bc c7 10 d1 3c
       0.03374613 0.01483936 -0.02992542 0.025520695
000050 07 24 14 3d ff 52 f4 3c 77 3b 91 3d 96 58 f5 3c
       0.03616717 0.029824732 0.0709142 0.029949468
000060 6c c4 4a 3d bd b2 ad bc bb 83 17 bd ab 24 90 38
       0.04950373 -0.021203393 -0.036990862 6.873285e-05
000070 c2 f7 8e 3c 96 86 6b 3c 0c 05 c4 3c 9e 25 27 3d
       0.017452125 0.0143753495 0.023928188 0.04080736
000080 7e 5a f2 3c bc 8f 2c 3d 49 29 c3 bc d0 77 1e 3d
       0.029584166 0.042129263 -0.023823397 0.03868848
000090 81 fe 10 3d f9 45 e4 3c 8d 60 a9 bc 70 53 3a 3c
       0.035398964 0.027865397 -0.020675922 0.011372432
0000a0 e1 cb c2 3c cd 63 ad bc 13 0a 86 3d 48 ae b5 bb
       0.023778858 -0.021165753 0.0654489 -0.0055444576
0000b0 e0 f6 a2 bc 0c f5 12 3d 2f 53 5c 3d 72 01 78 3d
       -0.01989311 0.035878226 0.053790268 0.060548253
0000c0 e0 9a b8 3b 57 ad ee bc 19 5b 5d 3d cf 8c 44 3d
       0.005633697 -0.02913539 0.054041956 0.047985848
0000d0 5c b3 0e bc 1e b7 61 bc e8 3d 93 3d 04 1c 8b 3c
       -0.008709755 -0.013776569 0.07189542 0.016981132
0000e0 d4 d5 b9 bc e6 c4 ad bc f2 95 1a 3d 9a cc 40 3d
       -0.022684969 -0.021212053 0.037740655 0.047070123
0000f0 35 f2 c4 bb 1d 04 1a 3d 8d 06 74 3c de 9d d4 bb
       -0.0060103186 0.03760158 0.01489414 -0.006488546
000100 13 ff c5 3c 91 90 47 3d 70 91 7a 3c d4 3e 6d bd
       0.02416948 0.048721854 0.015293464 -0.057921246
000110 26 92 a3 3a cb 75 9d 3c ed cd 88 3d b0 86 84 3d
       0.0012479469 0.019221207 0.06679902 0.06471002
000120 ad ea 12 3d 02 ea 91 3d f6 d6 fe 3c a9 b0 09 3d
       0.035868336 0.071247116 0.03110836 0.033615742
000130 87 9c d1 bb 1b ee ee bc ff 20 38 3c a0 ab 8a 3d
       -0.0063968333 -0.029166272 0.011238336 0.06771016
000140 34 60 84 3d ad 3c 04 3d d3 6e de bb b6 4a 08 bd
       0.06463662 0.032284427 -0.0067881136 -0.033274375
000150 cf 90 29 3c 10 72 21 3d 52 db 81 bc 1f 5d 53 bc
       0.010349466 0.03941542 -0.01585165 -0.01290062
000160 35 a0 01 3c d9 da 41 bb e8 98 29 3d f4 cc 2a 3c
       0.0079117315 -0.0029579906 0.04140559 0.010424841
000170 72 62 1f 3d f3 e9 83 bc 2b 54 16 3d 83 88 ce bc
       0.038912244 -0.016102767 0.036701363 -0.025211578
000180 2e db 89 3d b2 af 2c 3d 0a 40 62 3d 51 c6 41 3d
       0.06731258 0.042159744 0.055236854 0.04730827
000190 8d 73 5b 3d a1 58 5c 3d 6c 4e fd bc 95 ac f8 3c
       0.053576995 0.05379546 -0.030921184 0.030355731
0001a0 40 33 cf 3c 93 6b b4 bc 26 a3 4b 3d 93 8b 10 3d
       0.025292993 -0.022023952 0.049716137 0.03528936
0001b0 70 4f 16 3c 0f 53 ad 3c de e8 a3 bc 37 48 81 bc
       0.009174213 0.02115777 -0.0200085 -0.015781505
0001c0 c4 ef 7a 3d d6 20 fa 3c 54 b9 e7 3c 73 44 b5 3c
       0.061263815 0.030533236 0.028286614 0.022127366
0001d0 50 8e 70 3d 13 9d 5e bb b3 2c 1b 3d f3 41 ef 3c
       0.05872947 -0.0033968135 0.037884425 0.029206252
0001e0 51 d9 6a 3d d0 b8 52 3d 59 dd 93 ba da b4 bd bc
       0.057336155 0.051445782 -0.0011281177 -0.023157526
0001f0 1e 42 91 3c bc 6a 51 bc c4 28 41 3d 17 65 97 bb
       0.017731722 -0.012781795 0.047158018 -0.004620205
000200 9f 63 3e bb 6d fe 30 bb 62 07 e6 3c 82 ea 6c 3c
       -0.0029051078 -0.0027007118 0.028079692 0.014460208
000210 45 06 5b 3b 36 98 30 3d d3 a9 dd 3c 62 f3 22 3d
       0.0033420485 0.04311391 0.027058518 0.03978289
000220 19 38 cc bc 79 f4 51 3b f9 a8 d5 3c 15 c8 a7 bc
       -0.024929093 0.0032036586 0.026081549 -0.020481149
000230 6b ad ec 3b 92 ca 26 ba 9a 1a aa 3c c2 14 b8 bb
       0.0072228215 -0.0006362583 0.020764638 -0.005617709
000240 ab d5 e3 3b f6 6e 20 3d 8f 99 c5 3b 06 71 31 3b
       0.0069529614 0.03916832 0.0060302685 0.0027075424
000250 e3 9c 35 3c a4 01 2e 3d d6 18 8b 3c e5 03 4f 3d
       0.011084768 0.042482033 0.016979616 0.050540823
000260 87 d8 ce 3c 10 19 17 3d ef 98 18 3c 75 2f 6b 3d
       0.025249733 0.036889136 0.009313806 0.057418305
000270 83 23 89 bb 8f 90 dc 3b fb 66 dc 3c 40 9d 27 3d
       -0.0041851415 0.0067311 0.026904574 0.04092145
000280 31 3a 1c 3d fd 54 e4 ba 3a 91 af bc 90 34 96 3c
       0.038141433 -0.0017420348 -0.021431554 0.01833561
000290 40 02 3c 3d 99 f9 8f 3d 80 5a 6b bc f2 a8 ea 3a
       0.045900583 0.07030029 -0.014364839 0.0017903133
0002a0 7e 3a d7 bc 79 f3 5b 3d 15 c7 55 3d d7 69 63 3d
       -0.026273008 0.05369899 0.052191813 0.05552086
0002b0 07 2f 85 3d cf a1 f7 3c 7b 1d 5c bc e3 ec db bb
       0.065031104 0.030228524 -0.013434763 -0.0067115887
0002c0 7b 10 ff 3c 09 f0 12 3d 71 ba 37 3d 7a 88 1d 3d
       0.031135788 0.035873447 0.04485554 0.038460232
0002d0 b2 21 84 bb 59 bd 81 3b 34 9e 82 3d 0c 2d 57 3c
       -0.004032337 0.0039593396 0.06377831 0.013133299
0002e0 4c c2 8c 39 e0 3e ea bc fe 82 11 3a 51 f7 91 bc
       0.00026847643 -0.028594434 0.00055508304 -0.017818125
0002f0 0d 32 1d 3c 1a 3d 6f bc d7 d1 0e 3d bc 08 6d 3b
       0.009594453 -0.01460197 0.034868088 0.0036168536
000300 80 0f 27 3a 42 a6 69 3d f8 01 38 3c 37 fc 91 3c
       0.0006372854 0.05704332 0.011230938 0.01782046
000310 e5 04 51 3d 78 8f f6 3c 12 04 5b 3d fe 42 2f 3d
       0.05103006 0.030097708 0.05347068 0.042788498
000320 37 66 cf bc b9 40 57 3d 02 5d 3e 3d b5 b2 01 3d
       -0.025317295 0.05255196 0.046475418 0.03166457
000330 5e 84 e1 bc 27 07 b3 bc 4a 36 83 3d e2 72 98 3b
       -0.027528938 -0.021853996 0.06406839 0.004652367
000340 1f 5b 29 bc 59 1f 22 3d e4 5c 6d 3d cb b1 15 3d
       -0.010336666 0.039580677 0.057949916 0.03654651
000350 cc 78 5b 3d d7 0c 65 bc 7b 6b 54 bc 1f c5 57 3d
       0.053581998 -0.013980112 -0.012965078 0.052678224
000360 ea 83 2c bc 75 94 c2 3c f8 44 fc 3c 85 a1 f7 3c
       -0.010529498 0.02375243 0.030794606 0.030228386
000370 7e c9 13 bc d8 c9 0f 3d 96 ec 11 3b d5 d4 32 3b
       -0.009020207 0.035104603 0.002226626 0.0027287502
000380 c5 d7 08 3b f1 74 89 3d 12 56 d4 bc da a1 91 bc
       0.0020880562 0.06711758 -0.025919948 -0.017777372
000390 97 71 70 3d 28 35 35 3b 90 06 4c 3c ef d2 ad bc
       0.058702078 0.0027650092 0.0124527365 -0.021218745
0003a0 c4 ea 39 3d 37 00 ab bc 3a 01 20 3a 08 be 99 bc
       0.045389906 -0.020874126 0.00061036984 -0.018767372
0003b0 a1 99 46 3d fa dd 45 3d 3b 76 59 3c 05 e6 39 3d
       0.048486356 0.048307396 0.013272817 0.04538538
0003c0 9c ef 47 3c 26 bf 5e 3d ab 99 66 bc 8c f0 60 3d
       0.012203123 0.054381512 -0.014074723 0.054916903
0003d0 d6 05 3f 3d b6 74 74 3d 5b f8 2b bb 88 29 b5 bc
       0.046636425 0.059681617 -0.002624056 -0.02211453
0003e0 e7 bc 95 bb 46 ad c7 bc ab 72 32 3d 0f 3f ca bb
       -0.004569638 -0.024374615 0.043566387 -0.006172068
0003f0 d9 8f 47 3d 5e b9 51 3c 57 84 02 3d a8 12 03 3d
       0.04872117 0.012800543 0.03186449 0.032000214

fc.weight f4 [89, 128]
000000 aa 60 3e bc 98 f0 9b 3d 55 4a e7 3b 9e 03 a2 3d
       -0.011619726 0.07614249 0.0070584216 0.07910846
000010 f3 fa 98 bd 30 90 09 bc ed a4 86 3c 41 95 96 3d
       -0.0746974 -0.008396193 0.016436065 0.07352687
000020 cb 14 94 3c a7 6c 54 bd d6 f4 ac bb 37 a3 0f 3d
       0.018076321 -0.05186143 -0.00527821 0.035067763
000030 80 21 e9 bc d4 d8 01 3d 71 b6 98 3d f5 44 3e bc
       -0.028458357 0.031700924 0.07456673 -0.01161312
000040 ba 1a c9 3c 16 cd 3a 3c 71 ea 84 3c 98 73 ab bc
       0.024548877 0.011401435 0.016225072 -0.020929143
000050 ea 52 70 bc df e7 63 bd e4 0b 5d 3b 37 b1 3f 3c
       -0.014668206 -0.05564105 0.0033729011 0.011699966
000060 b0 88 07 3d 41 87 17 bd 2b cb b2 ba 23 e3 00 3d
       0.03308934 -0.036994223 -0.0013640871 0.031466614
000070 54 1f 7e 3c 58 4f b2 bc e9 e3 65 bd ad 01 e1 bb
       0.015510399 -0.02176635 -0.056125555 -0.006866655
000080 65 06 98 bd 30 ac 10 3d 8a 38 d8 3c 08 e1 49 3d
       -0.07423095 0.03532046 0.026394147 0.049286872
000090 23 95 7e bd 6e 43 7c 3d da ad 15 bc 19 62 1f 3d
       -0.062153947 0.061587743 -0.009135688 0.038911913
0000a0 33 ab c2 ba c1 82 95 bc 4f 77 df ba 85 bf 89 3d
       -0.0014852047 -0.018250825 -0.0017049107 0.067259826
0000b0 ff 56 23 bd b4 7d 3b 3d d1 89 4b bd d5 f4 f8 3c
       -0.039877888 0.045774177 -0.04969198 0.030390183
0000c0 6b 3a 27 bd cd d4 a7 3c 3e d1 96 bd fc eb f8 bc
       -0.040827196 0.020487214 -0.073641285 -0.030385964
0000d0 81 9d a0 bd cc c6 57 3b a3 47 9d bb 71 4d 2d 3d
       -0.078425415 0.0032924889 -0.0047997995 0.042310182
0000e0 73 0e 4c bd fb d5 d1 bc 73 09 94 3d e7 ad f3 3b
       -0.049818467 -0.02561473 0.07228365 0.0074365023
0000f0 d5 5e ff bb f0 51 c6 3c bd f0 29 bc 4f 6b 50 bb
       -0.0077932873 0.024208993 -0.010372338 -0.0031802242
000100 77 c5 0d bd e8 2a 92 bc 00 e5 a4 bd 77 54 14 3c
       -0.034612145 -0.017842725 -0.08051491 0.009053341
000110 ed 22 84 bc 76 80 48 3b ee 70 88 3d 0e 7a 89 bb
       -0.016129935 0.0030594147 0.06662165 -0.0041954583
000120 e0 44 fd 39 4a 1e 21 3d 3d 2e 63 bc 37 f5 82 3d
       0.00048307236 0.039335527 -0.0138660045 0.06394427
000130 77 a0 05 3d 1a c8 51 bc 2e e8 64 3d ff 44 2c 3d
       0.032623734 -0.012804056 0.055885486 0.042057987
000140 89 94 ae 3c de 09 26 bd 43 58 19 3c 7e 1a 80 3c
       0.021311061 -0.040536754 0.009359422 0.015637632
000150 f7 72 29 3d 80 00 9e 3d e9 c6 1d 3c 6b 86 d8 bc
       0.041369405 0.07714939 0.009629943 -0.026431283
000160 6f 5b 4a 3d 12 6a 67 bd d6 87 47 3d 41 c1 94 3d
       0.049403604 -0.05649764 0.048713528 0.07263423
000170 7f 36 90 bc 40 9a 62 3d 54 a4 c4 bc 17 bb 8a 3d
       -0.01760411 0.055322886 -0.024004139 0.06773966
000180 71 9a 65 bd f2 36 8c bd 93 84 8d 3d b1 cd 87 bd
       -0.05605549 -0.068464175 0.06910052 -0.066310294
000190 2d 07 1e bd 14 f4 04 3c be c8 55 bd 7c e6 02 3d
       -0.038581062 0.008114833 -0.052193396 0.03195809
0001a0 7c 02 0f 3d fa 53 2f bd e6 6f a8 bb b2 ee a3 3d
       0.03491448 -0.042804696 -0.0051402925 0.08004512
0001b0 e2 a7 59 bd 4d 5c 2b 3c de d2 23 bd 51 94 9e 3c
       -0.05313862 0.010459018 -0.03999602 0.019357832
0001c0 23 c6 a7 3c 57 53 67 3c d7 db 8b 3a ee 33 85 bd
       0.020480221 0.014118991 0.0010670376 -0.065040454
0001d0 81 e0 6d 3c 23 e1 65 bc 70 15 7b bb f0 24 3a bc
       0.014518858 -0.014030728 -0.0038312338 -0.011361346
0001e0 2b 32 ed 3c d3 e5 5c 3d 35 05 7b bd 10 2d 07 3b
       0.028954586 0.053930115 -0.061284263 0.0020626225
0001f0 c0 d4 31 bd 65 e9 44 3d 09 d7 b3 3b b1 90 55 bd
       -0.043415785 0.048074145 0.0054882807 -0.05213994
000200 17 32 19 3d fb 0f 2e bd e7 d2 aa 3c 7e ad e9 bc
       0.037401285 -0.04249571 0.02085252 -0.02852511
000210 c4 be b5 3c 0a aa 49 3d f9 23 41 3c 16 ec 9f bd
       0.02218569 0.049234428 0.011788362 -0.07808702
000220 90 5c 39 bd e5 61 8b 3d 72 fc a0 bd a4 3c e5 bb
       -0.04525429 0.06805781 -0.0786065 -0.0069957543
000230 72 b8 ff 3c 00 d2 64 bd 44 79 9d 3a ad 88 d5 bc
       0.03121588 -0.055864334 0.0012014289 -0.026066149
000240 cf 06 d2 bb ac 3f 0c bc e0 5e 66 3d 12 9b a0 3d
       -0.006409503 -0.008560102 0.056242824 0.07842077
000250 37 be 3a 3c 4d 20 8f 3c 98 12 a2 3d 96 41 b7 bc
       0.01139789 0.017471457 0.07913703 -0.022370141
000260 dd 8f f3 bb 85 57 5b ba 1b e2 8a 3c 92 e2 33 bc
       -0.0074329213 -0.00083672284 0.016953519 -0.010979312
000270 ab 3b e0 bc d1 2c 51 3c 46 0b 2f bc ed 0a d6 bb
       -0.027372202 0.012767033 -0.01068384 -0.006532064
000280 69 93 21 bc bc 62 a9 3c 44 8c cc 3c e2 89 0c bd
       -0.0098618055 0.020676963 0.024969228 -0.034311183
000290 8e f1 45 3d fd f9 09 bd 00 ba 80 bd 72 d8 23 bd
       0.048326068 -0.033685673 -0.06285477 -0.04000134
0002a0 2e 21 7a bc a8 09 6a 3d 4a e4 c7 3c 17 11 06 bd
       -0.0152667 0.057138115 0.024400849 -0.032731142
0002b0 a3 7a 9d 3d cf cf 69 bd 73 74 89 3d a7 0a 9b bd
       0.07689407 -0.057082947 0.06711664 -0.07570391
0002c0 a3 9a 01 3d 32 d1 08 bd c8 64 01 3d bb 71 64 3c
       0.031641614 -0.03340263 0.031590253 0.013943131
0002d0 5d 8c b6 3c 30 c9 c2 3b 32 95 10 bd d8 d9 55 bd
       0.022283727 0.0059443936 -0.035298534 -0.052209705
0002e0 7f 50 c1 3c 28 76 ad 3c 85 60 8c bd 6b 6a 82 bd
       0.023597954 0.021174505 -0.06854347 -0.06367954
0002f0 73 41 55 bc c8 26 9d bb aa 3b 93 3b 52 ca d1 ba
       -0.013016093 -0.004795883 0.0044931965 -0.0016005731
000300 ae e6 9a 3d 0b 1a 3c 3b 32 ba 4d bc 28 3c 59 3d
       0.0756353 0.0028702046 -0.012556599 0.053035885
000310 f9 f0 cb 3a d4 e8 74 ba fa 32 ec bb 67 d0 1b 3c
       0.0015559486 -0.00093425554 -0.0072082253 0.009510136
000320 bd 05 97 3b 63 d2 a0 bd 82 47 fa 3c 16 a9 8f bc
       0.0046088384 -0.07852628 0.030551676 -0.017536681
000330 02 b4 1b bd ce bb 05 3d 35 3f c6 bb c5 95 bd ba
       -0.038013466 0.032649808 -0.0060500153 -0.001446419
000340 3b ac 7e bd 07 61 3c 3d 9b d3 61 bd 1b e5 fb bc
       -0.06217597 0.04599097 -0.055133443 -0.030748894
000350 29 63 2c 3c 1b a9 53 bd da cb 1b bd 0e 93 d4 3c
       0.0105216885 -0.051674943 -0.038036205 0.025949027
000360 e8 a9 89 bd 78 27 00 3d e1 78 9f bc b5 39 3f bc
       -0.0672186 0.03128764 -0.01946682 -0.011671473
000370 60 d5 96 3d d4 3c a3 bd 5f 72 6c 3d 74 52 7c bd
       0.07364917 -0.079705864 0.05772626 -0.06160207
000380 82 02 56 3d 59 f1 a0 3c 24 97 8e bd ea b2 a4 3c
       0.052248485 0.019646334 -0.069624215 0.020104844
000390 3c 37 d8 3a cc 48 8f bd 5b 96 57 bc ba a3 75 3c
       0.0016495953 -0.06996307 -0.013158406 0.014992649
0003a0 77 fa ef bb a7 72 76 3d 67 1d 8b 3d ff fc 01 3b
       -0.007323559 0.060167935 0.067927174 0.0019834635
0003b0 33 c8 9b 3d 55 24 63 bd ed 79 19 3d 22 10 32 bc
       0.07606544 -0.05545457 0.037469793 -0.010868104
0003c0 26 06 30 bd 13 7a 00 3d 51 e7 2b 3d 25 c8 ab 3c
       -0.042974614 0.03136642 0.041968647 0.02096946
0003d0 62 1c 92 bd 4c d7 d1 bc d6 d6 c8 3a 46 07 bf 3a
       -0.0713432 -0.025615357 0.0015322815 0.0014574311
0003e0 6e 2c cc bc 98 5f 9f bd 6e 9b 9c 3d 37 d2 37 bc
       -0.02492353 -0.07781905 0.07646833 -0.011219553
0003f0 93 6e 26 bc 53 48 54 bc 04 88 be bb c8 b0 59 3d
       -0.010158199 -0.012956697 -0.005814554 0.053147107

fc.bias f4 [89]
000000 84 61 e5 3c 44 4d ae bc 45 e9 4b bc 01 dd 5b 3c
       0.0280006 -0.021277077 -0.0124457525 0.013419391
000010 80 df 8e bd af 25 1b bd 92 3f 45 bb 24 7f 8d bd
       -0.06976223 -0.037877735 -0.0030097705 -0.06909016
000020 9c 57 f5 bb ea 18 47 bb e3 ec b5 bc cc 7f f3 bc
       -0.0074872505 -0.003037984 -0.022207683 -0.029724024
000030 8e 86 ed 3a ae 79 0f bd 81 fe 25 bd f0 61 04 bd
       0.0018121765 -0.035028152 -0.040525917 -0.032319963
000040 22 c8 83 3c ec a9 af 3b f2 43 74 bd 9c 58 03 bd
       0.016086642 0.0053608324 -0.05963511 -0.032066926
000050 34 18 4c 3c ea 23 89 bd 21 3e 91 bd 3b d3 86 bc
       0.012456942 -0.06696303 -0.07091928 -0.016458144
000060 29 4a e1 bc c5 9b 85 bd 36 e3 87 bd 17 23 41 bd
       -0.027501183 -0.06523851 -0.06635134 -0.047152605
000070 db d6 f7 3b fe df 39 bd 11 fb 32 bd e5 03 4a bc
       0.0075634546 -0.04537963 -0.043696467 -0.01233003
000080 e6 4e a7 bc 48 82 9c 3c 99 cf 5b bd 27 ab 97 bd
       -0.020423364 0.019105092 -0.053664777 -0.074056916
000090 02 bb 7b bb d3 5f 0e 3c f0 ee 96 3d cf 6a b2 3c
       -0.0038411026 0.008689838 0.073697925 0.021779446
0000a0 c6 97 9b 3d 62 45 1b 3c d3 9a 5b 3d 7a 22 5f 3c
       0.07597308 0.009476991 0.05361445 0.01361906
0000b0 06 47 a2 3c e4 2a 1b 3c 44 ed ae ba 9a e6 12 3d
       0.019809257 0.009470675 -0.0013345857 0.03586445
0000c0 59 4c 28 3d 82 33 2e 3c db 8e fa 3b 1a 29 e9 bc
       0.041088436 0.010632398 0.007646424 -0.028461982
0000d0 90 07 3f bd 0c 82 fe bc 36 86 07 bd 32 cb 68 3b
       -0.04663807 -0.03106787 -0.033086978 0.0035521504
0000e0 b2 14 40 bd 4e f6 27 bd c3 5a a4 3a 65 03 82 bd
       -0.046894737 -0.04100638 0.0012539256 -0.06348304
0000f0 e3 63 7c 3c 02 8a f4 bc 4f 7d e6 bc df 07 5c 3c
       0.015404674 -0.029850964 -0.028135924 0.013429611
000100 31 57 22 bd 2a e5 55 ba e8 da 63 bd 36 e2 6a bd
       -0.039633933 -0.0008159453 -0.055628687 -0.057344638
000110 90 5f 8d bd 09 66 2a 3c d9 1d d0 3b 7d 14 1d bd
       -0.06902993 0.010400304 0.0063512144 -0.038349617
000120 bc c2 8b bd 80 3f f2 bc 97 ed 9d bd 3d fa 41 bd
       -0.06824252 -0.029571295 -0.07711332 -0.047357786
000130 fc e5 7b bd 77 38 9a bd cb 83 cb bc 93 00 af 3c
       -0.061498627 -0.07530301 -0.024843117 0.021362578
000140 e9 f9 fb bb a8 c5 ce 3a bc 86 92 bc 5a bc 3a bb
       -0.0076897037 0.0015775459 -0.017886512 -0.0028493614
000150 32 70 7f bd 7a b6 64 bc db 68 38 bc 29 1b 8e bc
       -0.062362857 -0.013959521 -0.011255468 -0.017346935
000160 20 79 da bc
       -0.026669085
