src/models/nottingham/runs/Nov01-18_01:43:28/generator_state.pt (torch_old, 58083 bytes, 7 tensors)

embedder.weight f4 [89, 32]
-0.20642993 0.28367102 -0.90442675 -0.36022338 -0.26341778 -0.47899368 -0.13658972 -0.69035333
-0.3473395 -0.30185112 0.3577565 -0.15338147 -1.2975659 0.6664241 -0.7135681 -0.3636682
0.29208362 1.0553049 -0.78772855 -0.15964235 -0.43236062 0.963369 -0.42570078 0.7857457
-0.4097385 0.315807 0.6430624 0.576978 -0.3973199 0.00021917789 -0.15226242 -0.38364848
0.04884615 -0.024649048 -0.0299065 -0.012689002 0.015067164 -0.012656309 0.017282922 0.04286522
-0.028230889 0.011279695 0.021333251 -0.012850553 -0.048814245 -0.009984028 -0.024981624 0.033280525
0.020522017 0.03829429 0.040009852 0.023544226 0.0030976236 0.014456313 0.0074991398 0.011705287
-0.03736627 -0.01871445 -0.04388625 0.0018774793 -0.036139764 -0.011552006 0.021792125 -0.00048542023
0.018001232 -0.007015992 0.0057155415 -0.023428982 -0.042226244 0.0031883232 -0.028767629 -0.008445196
-0.04300327 -0.028943926 0.025454711 0.01715399 0.0033803657 0.011883367 8.4321946e-05 -0.0218432
0.044855867 -0.015702933 -0.028162587 0.025569532 -0.0073528215 0.0480336 -0.022930598 -0.036201734
-0.039906155 -0.017505627 -0.035025258 -0.033915177 0.017237838 0.014820885 -0.00037911534 0.036839318
-0.038477372 0.0013444833 0.012919191 0.010179978 0.043978665 0.043408986 -0.001886867 0.011183143
0.035744976 -0.0014029257 -0.003808219 0.04293299 0.025690582 0.00039672107 0.014768604 0.04240335
-0.015524108 0.03788401 -0.00043475628 -0.029306436 -0.004751254 -0.01064574 -0.027294094 0.040764783
0.04201236 0.023547981 -0.027980078 -0.012530468 -0.027402973 0.025242727 0.0019018836 -0.011716973
-0.021109058 -0.026567 0.013872627 -0.01968925 0.038724337 -0.01614998 -0.0066808984 0.028471623
-0.023356944 -0.023396207 -0.038779844 -0.0125900395 -0.005668111 -0.026963001 -0.0491683 0.032493267
-0.008568756 -0.03376151 -0.036675632 0.023644399 -0.045836356 -0.017887522 0.022572774 -0.016480852
0.039761852 -0.0005434863 0.006263882 -0.02202164 -0.026546134 0.047080096 0.039249364 -0.033743747
0.043796 0.048872624 0.045278583 -0.0440282 0.03587305 -0.0008418076 -0.046145845 -0.028664012
0.02439304 0.0175221 0.02510919 0.034425963 -0.02741853 0.010639381 0.03304958 -0.037730694
0.03925972 0.0122973025 -0.013433851 0.007478304 0.007704109 0.006303124 -0.047570925 -0.012872137
-0.037685852 0.015630197 -0.045454282 -0.025338894 -0.0117246285 0.04651284 -0.009083696 -0.0011191554
-0.04777647 0.048507433 -0.002120901 -0.039269984 -0.01434613 -0.04897483 0.023235772 -0.0016135797
-0.045034785 0.007869624 0.01135356 0.040245358 0.02207822 0.04277054 0.030880395 -0.032023586
-0.040529154 0.010298241 -0.025255764 -0.016710352 0.01796687 -0.045540698 -0.020795006 -0.014131583
-0.0221438 -0.031665105 -0.017240278 0.026907016 0.020294372 -0.036428966 -0.03102473 0.036941517
-0.03974828 -0.024445498 -0.013468236 -0.02021628 -0.037301023 -0.02073865 0.007022463 -0.03050903
-0.03777758 -0.02038576 0.008899502 -0.04447483 0.035768267 0.027146313 0.013416346 0.025035534
-0.025401032 -0.019145114 -0.005368255 0.027952898 0.019007254 0.035538916 0.032853547 0.023714472
0.0031022057 -0.01422777 -0.041392483 -0.011885561 0.0014532283 0.0050146207 0.017859671 -0.02132075
00000000: 5e62 53be 543d 913e 8388 67bf 336f b8be
00000010: b2de 86be a93e f5be 2dde 0bbe ffba 30bf
00000020: 7cd6 b1be 3b8c 9abe dc2b b73e 0810 1dbe
00000030: a416 a6bf c59a 2a3f 66ac 36bf b832 babe
00000040: fc8b 953e 3b14 873f 94a8 49bf 4979 23be
00000050: 5f5e ddbe 5a9f 763f 74f5 d9be a126 493f
00000060: 3fc9 d1be 75b1 a13e bd9f 243f d5b4 133f
00000070: 846d cbbe 1ed3 6539 aeea 1bbe 936d c4be
00000080: e712 483d cdec c9bc 7afe f4bc 88e5 4fbc
00000090: 44dc 763c 685c 4fbc ea94 8d3c 7193 2f3d
000000a0: 7744 e7bc 78ce 383c 12c3 ae3c 208b 52bc
000000b0: 72f1 47bd 0c94 23bc 43a6 ccbc 2951 083d
000000c0: ca1d a83c 79da 1c3d 5fe1 233d d2df c03c
000000d0: 8001 4b3b 2cda 6c3c 58bb f53b 88c7 3f3c
000000e0: 600d 19bd 0c4f 99bc 12c2 33bd c015 f63a
000000f0: 4a07 14bd a044 3dbc 6685 b23c 0080 feb9
00000100: 5277 933c 68e6 e5bb 7049 bb3b 23ee bfbc
00000110: 6df5 2cbd 30f3 503b 17aa ebbc b85d 0abc
00000120: 3224 30bd d01b edbc 6686 d03c 8686 8c3c
00000130: 2089 5d3b 74b2 423c 00d6 b038 83f0 b2bc
00000140: c9ba 373d 70a3 80bc 3ab5 e6bc 3277 d13c
00000150: f0ef f0bb e1be 443d f3d8 bbbc 4548 14bd
00000160: a374 23bd f667 8fbc a576 0fbd a4ea 0abd
00000170: 5e36 8d3c 4cd3 723c 00c4 c6b9 d3e4 163d
00000180: 739a 1dbd 6039 b03a 04ab 533c ecc9 263c
00000190: f922 343d 9fcd 313d c050 f7ba 8039 373c
000001a0: 5369 123d 60e2 b7ba 5093 79bb 81da 2f3d
000001b0: 0e75 d23c 00ff cf39 04f8 713c 23af 2d3d
000001c0: d458 7ebc 432c 1b3d 00f0 e3b9 0d14 f0bc
000001d0: 68b0 9bbb 786b 2ebc dd97 dfbc f9f8 263d
000001e0: 2715 2c3d b2e7 c03c 7a36 e5bc 984c 4dbc
000001f0: 337c e0bc d6c9 ce3c a048 f93a 8cf8 3fbc
00000200: e7ec acbc 0aa3 d9bc 044a 633c 5a4b a1bc
00000210: 699d 1e3d f64c 84bc 70eb dabb 523d e93c
00000220: 1057 bfbc 67a9 bfbc 9dd7 1ebd 7446 4ebc
00000230: 90bb b9bb 83e1 dcbc b364 49bd a917 053d
00000240: f863 0cbc 8249 0abd 3039 16bd e6b1 c13c
00000250: e7be 3bbd da88 92bc 8aea b83c da02 87bc
00000260: 53dd 223d c078 0eba 4041 cd3b ba66 b4bc
00000270: 4777 d9bc 0fd7 403d f1c3 203d e236 0abd
00000280: 6f63 333d a92e 483d 0976 393d ea56 34bd
00000290: 9fef 123d c0ac 5cba 6d03 3dbd cad0 eabc
000002a0: ead3 c73c 828a 8f3c cab1 cd3c 3d02 0d3d
000002b0: d39c e0bc cc50 2e3c ff5e 073d 808b 1abd
000002c0: cdce 203d a07a 493c a819 5cbc 900c f53b
000002d0: c072 fc3b 708a ce3b bbd9 42bd a8e5 52bc
000002e0: 7b5c 1abd e60a 803c 452e 3abd 8393 cfbc
000002f0: a818 40bc 3f84 3e3d c8d3 14bc a0b0 92ba
00000300: 43b1 43bd bbaf 463d d0fe 0abb 90d9 20bd
00000310: 080c 6bbc d599 48bd f258 be3c c07e d3ba
00000320: 6576 38bd 98ef 003c 4804 3a3c 51d8 243d
00000330: 62dd b43c 2930 2f3d e2f8 fc3c 2a2b 03bd
00000340: e601 26bd f4b9 283c 2de5 cebc 26e4 88bc
00000350: 422f 933c e288 3abd 4a5a aabc 2888 67bc
00000360: ea66 b5bc 45b3 01bd 7c3b 8dbc 1a6c dc3c
00000370: 6240 a63c 8a36 15bd 9327 febc fd4f 173d
00000380: 18cf 22bd ed41 c8bc e0a9 5cbc 9d9c a5bc
00000390: f5c8 18bd 1ae4 a9bc b01c e63b 13ee f9bc
000003a0: aabc 1abd 0a00 a7bc 38cf 113c 3d2b 36bd
000003b0: bf81 123d f261 de3c 3cd0 5b3c 5217 cd3c
000003c0: d315 d0bc 37d6 9cbc 30e8 afbb 7afd e43c
000003d0: 1ab5 9b3c 4191 113d 7191 063d da44 c23c
000003e0: 604e 4b3b 981b 69bc 2a8b 29bd a8bb 42bc
000003f0: 407a be3a b051 a43b 724e 923c daa8 aebc

lstm.weight_ih_l0 f4 [128, 32]
0.40791214 -0.4473674 0.30258292 1.2666435 1.0474625 0.30624261 -0.5381098 -0.43051758
0.351629 -0.24876249 0.66321236 -0.45487958 -0.5606274 0.23366217 0.05460319 0.6088009
0.66634035 -0.5683998 -0.14056133 -0.7046118 -0.44242507 -0.69758356 0.09988794 0.67991126
0.21824871 0.0761582 0.20593722 -0.5174178 0.102205634 -0.8369445 -0.58010405 -0.6999558
0.31399143 -0.25817302 -0.6323113 0.6801704 0.15992384 -0.34269676 0.050857894 0.84980166
-0.47479048 0.37277946 0.29348898 0.49030432 -0.21018161 0.82484597 -0.1660458 -0.24488865
-0.8983527 0.24314465 -0.56170493 0.14901502 -0.50622153 0.58100414 1.066402 0.22988851
0.056048147 0.1437088 0.21146303 -0.20236337 -0.4043673 -0.5617291 -0.5176499 0.43140817
0.5903026 1.3829806 -0.4222369 -0.48791716 -1.1021206 -0.7763864 -1.1189448 -0.5002128
-0.71414816 -0.3524338 -0.3330501 -0.95702845 0.55017287 -0.062226254 0.33409786 0.32527137
-1.599515 0.7241447 1.1859869 0.4291129 -0.21130283 1.1646225 -1.4578916 0.4698598
-0.6828239 -0.27824125 -0.7449113 0.51929253 -1.0089949 0.14344856 1.1061963 -0.31914318
0.4242777 0.06458765 -0.25541654 -0.09606542 0.092069544 -0.24214756 0.004684051 0.41657132
0.45975736 -0.5216117 0.37553188 -0.41962793 0.32363617 0.3574703 0.11234109 0.032593723
-0.12993586 -0.4614237 -0.018910196 0.22700979 -0.19366968 0.26638126 0.09519453 -0.34886795
0.26931256 -0.051113527 -0.08825751 -0.2699932 -0.41193834 0.3086217 -0.49258718 -0.073318936
-0.015165989 0.8697242 1.8739903 -1.0837895 0.22389774 -0.9729441 0.46180347 0.35409302
-0.7900712 3.2339587 -0.58940256 -0.3264895 0.687021 0.38335115 0.1859621 -0.64577323
-0.9231143 0.38405845 1.1083871 0.059563402 -1.4597288 0.44454882 0.060207523 -0.7195793
-0.6848986 0.87399966 -0.6207748 -0.104556546 1.5876485 -0.9110785 -0.34890997 -0.4592415
-0.44771647 -0.5365024 0.04843334 0.076077126 -0.2665852 0.5740534 -0.35960698 0.4220736
-0.23642471 -0.16309616 0.059077334 0.15080091 0.47636834 0.23846157 -0.5144003 0.29433692
0.20248345 0.43729872 -0.20782001 -0.030090379 -0.028254986 0.11749288 0.40771437 0.23881936
-0.080099784 -0.77308595 0.25102982 0.24361685 -0.1319121 -0.15922946 -0.4033013 0.044497855
-0.01965001 -0.120288104 0.27137873 0.6471099 0.25178844 0.1384864 -0.54101217 -0.46774977
-0.17013368 -0.05808925 0.03291401 -0.06102748 -0.21174406 -0.42166606 -0.19372557 -0.4808789
-0.60589695 0.038404807 0.44186094 0.43319824 -0.16035023 0.25171965 0.10576204 -0.15360142
-0.35158023 -0.40978712 0.14768861 -0.48346728 -0.63261557 0.1738222 -0.2766567 -0.6457527
0.066715725 1.5365261 -0.054745 -0.37734035 -0.7341764 -0.41928655 -0.29647323 -0.16196841
0.057641186 -0.55478555 -0.099522285 -0.8883158 0.056233484 -0.31360918 0.3839728 0.4831685
-0.28803807 -0.39605704 -0.2401701 -0.66157454 0.8962665 0.3818668 -0.93082935 0.41886318
-0.2747319 0.314727 0.26034307 0.49746835 -0.2401242 0.6589478 0.049161725 -0.1986345
00000000: dcd9 d03e 570d e5be 26ec 9a3e 6021 a23f
00000010: 4013 863f d5cb 9c3e 90c1 09bf cd6c dcbe
00000020: b708 b43e 98bb 7ebe 49c8 293f fae5 e8be
00000030: 4785 0fbf 2345 6f3e 98a7 5f3d 60da 1b3f
00000040: 4895 2a3f a682 11bf 4fef 0fbe 7061 34bf
00000050: 8a85 e2be d694 32bf 0c92 cc3d aa0e 2e3f
00000060: 977c 5f3e d5f8 9b3d 35e1 523e 7e75 04bf
00000070: 3051 d13d ff41 56bf b381 14bf 4e30 33bf
00000080: 7cc3 a03e 412f 84be 27df 21bf a61f 2e3f
00000090: 13c3 233e f375 afbe 5e50 503d 9a8c 593f
000000a0: bd17 f3be f3dc be3e 3044 963e 2b09 fb3e
000000b0: d939 57be 1b29 533f e907 2abe 17c4 7abe
000000c0: 71fa 65bf e9fa 783e e5cb 0fbf 6597 183e
000000d0: bc97 01bf b0bc 143f dc7f 883f e567 6b3e
000000e0: be92 653d 6628 133e c489 583e 5838 4fbe
000000f0: 3b09 cfbe 7acd 0fbf b484 04bf 88e1 dc3e
00000100: 121e 173f 8205 b13f 6f2f d8be 47d0 f9be
00000110: 4a12 8dbf 42c1 46bf 9539 8fbf f20d 00bf
00000120: 6ad2 36bf 3472 b4be 8b85 aabe d1ff 74bf
00000130: 21d8 0c3f f5e0 7ebd e00e ab3e f889 a63e
00000140: e8bc ccbf 8c61 393f 6bce 973f b0b4 db3e
00000150: c55f 58be 5a12 953f 319c babf 7791 f03e
00000160: 8ccd 2ebf a375 8ebe 82b2 3ebf 5bf0 043f
00000170: bf26 81bf 2ee4 123e d797 8d3f bc66 a3be
00000180: ed3a d93e 8846 843d f5c5 82be f2bd c4bd
00000190: f58e bc3d 88f5 77be ab7c 993b d648 d53e
000001a0: 5165 eb3e 5888 05bf b745 c03e 79d9 d6be
000001b0: a4b3 a53e 5906 b73e 1613 e63d ff80 053d
000001c0: e80d 05be ba3f ecbe 8ee9 9abc 4175 683e
000001d0: 5851 46be 2063 883e 5af5 c23d d29e b2be
000001e0: 56e3 893e 6b5c 51bd 5ac0 b4bd 8c3c 8abe
000001f0: 95e9 d2be aa03 9e3e 6334 fcbe 3d28 96bd
00000200: c57a 78bc 3fa6 5e3f eade ef3f 9db9 8abf
00000210: 7345 653e dd12 79bf 8171 ec3e ae4b b53e
00000220: 1b42 4abf 2ef9 4e40 16e3 16bf a229 a7be
00000230: 9ce0 2f3f 9a46 c43e d96c 3e3e 6551 25bf
00000240: 3851 6cbf 4fa3 c43e a1df 8d3f c1f8 733d
00000250: 65d8 babf e79b e33e 2a9c 763d 5936 38bf
00000260: 8455 2fbf 71be 5f3f 19eb 1ebf be21 d6bd
00000270: 1138 cb3f 713c 69bf 54a4 b2be b421 ebbe
00000280: 183b e5be 3958 09bf 0a62 463d 53ce 9b3d
00000290: db7d 88be 2af5 123f 681e b8be 081a d83e
000002a0: 5219 72be ae02 27be 13fb 713d 8e6b 1a3e
000002b0: 8de6 f33e 452f 743e bdaf 03bf 54b3 963e
000002c0: d257 4f3e 9ee5 df3e c5ce 54be 1980 f6bc
000002d0: 0077 e7bc 1ba0 f03d f0bf d03e 108d 743e
000002e0: 5b0b a4bd f6e8 45bf fb86 803e b276 793e
000002f0: f713 07be 0c0d 23be 827d cebe 6243 363d
00000300: 0ff9 a0bc 9c59 f6bd 27f2 8a3e ffa8 253f
00000310: 6aea 803e 61cf 0d3e c67f 0abf e67c efbe
00000320: 8637 2ebe feee 6dbd d7d0 063d f3f7 79bd
00000330: 6fd3 58be 9de4 d7be ff5f 46be c235 f6be
00000340: 101c 1bbf 5c4e 1d3d 993b e23e 29cc dd3e
00000350: da32 24be 66e1 803e c599 d83d b149 1dbe
00000360: 5302 b4be 9ecf d1be af3b 173e 0689 f7be
00000370: 18f3 21bf 72fe 313e f2a5 8dbe 0d50 25bf
00000380: 41a2 883d e3ac c43f 4b3c 60bd c132 c1be
00000390: fcf2 3bbf baac d6be 57cb 97be 0cdb 25be
000003a0: 2a19 6c3d 6d06 0ebf 57d2 cbbd aa68 63bf
000003b0: 1555 663d 6291 a0be 1598 c43e dd61 f73e
000003c0: ba79 93be fdc7 cabe 27ef 75be f35c 29bf
000003d0: b971 653f 0c84 c33e d54a 6ebf 3c75 d63e
000003e0: a9a9 8cbe e623 a13e b04b 853e 2cb4 fe3e
000003f0: 1ee3 75be ceb0 283f ce5d 493d d866 4bbe

lstm.weight_hh_l0 f4 [128, 32]
-0.55331206 -0.7175691 -0.77126765 -1.4350122 -0.42945302 -0.2284843 0.18472137 0.34393102
0.75649637 1.1645684 -0.9122218 0.5715316 -0.20524468 1.5595987 -0.22846156 0.18560417
0.5579977 -0.5795416 -0.49716026 1.1689843 1.2330824 0.74575156 -1.3883736 0.5295768
-0.62904906 -0.5105924 -0.01874785 -0.07249557 -0.35083237 -2.292613 -2.3901143 0.1943889
-0.9129379 -0.26246244 -0.009648761 0.49132782 -2.0593324 0.35772148 -0.5239103 1.0939748
-0.42060533 0.23147263 1.3931451 -0.9933921 0.764969 1.4892741 0.23901686 1.7642138
0.71481913 0.04686138 -1.6597238 -1.1760818 -0.5608892 -1.4639225 0.55271417 -0.3248881
-1.8536038 0.34562945 1.8870997 0.63102174 -1.6760381 1.9422263 -0.78858215 -0.100350626
-0.6726246 1.9340804 0.36027843 0.0382574 0.12194231 3.0276577 0.67092526 0.0904613
0.0964336 0.14301038 2.1448128 -1.1316005 -0.74463475 0.47452697 -0.13223115 0.82014275
-0.700293 1.1130008 0.20952663 -1.7623414 -1.0225015 0.73714286 0.4751376 1.1435082
0.8088331 -1.3364875 1.4218844 0.7843837 -1.1199626 -1.1782013 -0.35735142 0.48502392
0.24180779 0.277033 -0.035037704 0.032840565 -0.5514395 0.015459829 -0.3859767 0.7024971
0.114414535 -0.44999552 -1.0215279 0.3335293 0.077039905 -0.6588603 0.1600048 -0.1578352
-0.078542076 0.44487062 -0.028655749 0.072830066 0.5886794 -0.78163165 -0.30946183 -0.5301966
-0.33684316 -0.05425989 0.5121671 1.1607506 1.2332698 0.5265528 -0.4181952 -0.0028019433
-1.125205 -0.30483505 0.71676725 4.404282 -2.076557 -0.027660802 1.7393637 -0.21043824
0.10908336 -0.06897297 -0.89204216 -0.9619891 -0.32078046 -0.07727798 -1.3445983 -0.13485977
-0.97687685 1.6107119 -3.3853817 0.3721957 0.57466793 0.5702713 2.3432279 -0.023527544
0.9387833 -0.30250087 -0.4705675 0.9396795 0.60489047 0.08783067 0.9431444 -0.33060536
-0.6804615 0.27084053 -0.321849 -0.2699428 -0.70034087 -1.9328905 0.39080882 0.22542147
0.43959722 -1.0635535 0.027284881 -0.43926936 0.14765365 0.10032558 0.07761161 0.01936438
0.037827253 0.28557402 0.2447109 -0.020786189 0.17382437 -0.3373004 -0.3762325 -0.7781439
-0.35421526 0.34204692 0.1933851 0.3432887 1.1378206 -0.17037855 0.21323478 -0.9882874
0.35651648 0.22609884 -0.5320486 -0.05198442 0.2896787 0.28223917 0.65622944 1.1512419
-0.17814182 -0.43440846 -0.4682884 0.7886814 -0.5187352 -0.23343812 0.3070326 0.51397187
0.15457976 0.36730057 0.24786077 -0.06994207 0.09676107 -0.31961498 -0.36615595 -0.16300918
-1.0325696 0.7697843 1.196436 1.0024927 1.1794044 -0.41283408 -0.7137916 -0.011327824
-1.530522 -0.025105849 0.3460099 -0.22122924 1.0392591 -0.06620353 1.2496953 0.0983635
0.27570218 -0.9067333 0.7063885 2.1073499 0.3561951 -1.0693592 0.2524388 -0.19595556
0.12955709 1.1338787 -0.586484 0.39624617 0.63164216 -0.3584435 0.48515582 -0.112057574
-0.14822492 0.2789182 -0.5845699 1.6033559 -0.52604014 -0.6608543 -0.0015569375 0.26093435
00000000: dca5 0dbf 9cb2 37bf cc71 45bf 7bae b7bf
00000010: 44e1 dbbe caf7 69be 9927 3d3e ba17 b03e
00000020: bfa9 413f 9410 953f 5e87 69bf e54f 123f
00000030: a92b 52be eea0 c73f d4f1 69be 050f 3e3e
00000040: f0d8 0e3f d75c 14bf ca8b febe 47a1 953f
00000050: a5d5 9d3f 93e9 3e3f 3ab6 b1bf 5892 073f
00000060: 5c09 21bf 2fb6 02bf 1795 99bc 8f78 94bd
00000070: 4da0 b3be 2cba 12c0 a2f7 18c0 e20d 473e
00000080: 4cb6 69bf 7a61 86be d615 1ebc 528f fb3e
00000090: 1acc 03c0 4527 b73e fc1e 06bf 5e07 8c3f
000000a0: 9559 d7be 2907 6d3e 9452 b23f f24e 7ebf
000000b0: 02d5 433f 89a0 be3f d6c0 743e c2d1 e13f
000000c0: 63fe 363f b8f1 3f3d d471 d4bf d989 96bf
000000d0: 6f96 0fbf d061 bbbf ad7e 0d3f bc57 a6be
000000e0: e442 edbf 58f6 b03e 7c8c f13f a48a 213f
000000f0: 6b88 d6bf df9a f83f 85e0 49bf a184 cdbd
00000100: 2031 2cbf f28f f73f 6a76 b83e cbb3 1c3d
00000110: e4bc f93d 25c5 4140 c2c1 2b3f c643 b93d
00000120: fb7e c53d 5071 123e 9d44 0940 49d8 90bf
00000130: 62a0 3ebf 33f5 f23e 9a67 07be e0f4 513f
00000140: 6746 33bf cf76 8e3f 268e 563e 6794 e1bf
00000150: 54e1 82bf 65b5 3c3f 3c45 f33e 7a5e 923f
00000160: b00f 4f3f 0612 abbf 4f00 b63f 5fcd 483f
00000170: ef5a 8fbf 4dcf 96bf c4f6 b6be 0e55 f83e
00000180: 769c 773e 45d7 8d3e b283 0fbd d483 063d
00000190: 242b 0dbf 394b 7d3c bd9e c5be dad6 333f
000001a0: 2b52 ea3d d065 e6be 6dc1 82bf 5ac4 aa3e
000001b0: 19c7 9d3d 12ab 28bf 4cd8 233e 8d9f 21be
000001c0: abda a0bd 15c6 e33e 76bf eabc ee27 953d
000001d0: b1b3 163f 0319 48bf c871 9ebe f7ba 07bf
000001e0: b576 acbe 9e3f 5ebd 621d 033f 7a93 943f
000001f0: c9db 9d3f 2acc 063f ae1d d6be cfa0 37bb
00000200: b806 90bf 5713 9cbe 0f7e 373f e1ef 8c40
00000210: 4fe6 04c0 e898 e2bc 78a3 de3f 1f7d 57be
00000220: 1967 df3d b341 8dbd e05c 64bf eb44 76bf
00000230: 563d a4be eb43 9ebd cc1b acbf ae18 0abe
00000240: 9a14 7abf cf2b ce3f 18aa 58c0 6f90 be3e
00000250: 701d 133f 4dfd 113f 72f7 1540 d6bc c0bc
00000260: 1a54 703f 65e1 9abe 39ee f0be d68e 703f
00000270: 1ada 1a3f 91e0 b33d e971 713f 1b45 a9be
00000280: ba32 2ebf 9cab 8a3e 64c9 a4be f135 8abe
00000290: 8a49 33bf f568 f7bf 1818 c83e e3d4 663e
000002a0: e312 e13e 8522 88bf 8b84 df3c eae7 e0be
000002b0: 8532 173e 7f77 cd3d d6f2 9e3d 0ca2 9e3c
000002c0: c0f0 1a3d c236 923e 7f95 7a3e cc47 aabc
000002d0: 04ff 313e a3b2 acbe 8ca1 c0be 7034 47bf
000002e0: b45b b5be c620 af3e be06 463e 89c3 af3e
000002f0: 1ba4 913f b777 2ebe 385a 5a3e 6700 7dbf
00000300: 5489 b63e 7486 673e 5634 08bf 9ded 54bd
00000310: c450 943e a781 903e a7fe 273f e55b 933f
00000320: cf6a 36be c96a debe 7fc3 efbe 06e7 493f
00000330: d4cb 04bf 670a 6fbe 6033 9d3e a993 033f
00000340: 284a 1e3e d20e bc3e 37cf 7d3e ca3d 8fbd
00000350: ab2a c63d 93a4 a3be cb78 bbbe e1eb 26be
00000360: 3e2b 84bf 9510 453f d124 993f ae51 803f
00000370: b9f6 963f fd5e d3be 0cbb 36bf 5698 39bc
00000380: 25e8 c3bf c8aa cdbc 3628 b13e eb89 62be
00000390: 7106 853f b795 87bd 04f6 9f3f cd72 c93d
000003a0: d628 8d3e ac1f 68bf e0d5 343f d2de 0640
000003b0: 345f b63e c3e0 88bf a93f 813e 93a8 48be
000003c0: 9daa 043e f022 913f d123 16bf c7e0 ca3e
000003d0: 4db3 213f e885 b7be 5866 f83e 717e e5bd
000003e0: 46c8 17be 5ece 8e3e 5fa6 15bf c43a cd3f
000003f0: 91aa 06bf bf2d 29bf 2712 ccba 3099 853e

lstm.bias_ih_l0 f4 [128]
0.32218358 -0.14324088 1.5913142 -0.6391474 0.3203947 -0.8191003 -0.6048649 1.9649422
3.1846213 1.9287695 1.7463768 -0.09567785 0.9410121 -0.5361295 -0.10870177 0.35042456
-0.13315819 0.47163048 0.060700774 0.4675562 0.0227647 2.3736453 -0.19065905 1.3853172
1.2463487 -0.2548077 1.0721285 1.558009 1.2659904 -0.16379228 -0.2895864 1.5242589
0.365484 -0.035855476 0.44585636 -0.32545948 -0.08230062 -0.20141052 0.15873785 0.49021113
0.43900326 1.2410115 0.6477883 -0.35688737 -0.3292228 0.39189547 0.43284595 0.3446207
0.958687 0.32697093 0.0033348675 0.7021397 0.5163875 -0.30568752 -0.13081305 0.55382085
0.13431457 0.42879108 -0.432596 0.1335479 0.793655 0.21225508 0.60207623 1.1296062
-0.3460417 -0.5539008 -0.6674362 -0.11784565 -0.54546326 -0.03322592 0.22678275 1.3140143
0.837638 -1.0851262 -0.4828214 0.24934416 0.025360482 0.39774442 -0.48286125 1.378752
-0.31114227 -0.6442987 0.23174319 -0.5414554 -0.27900946 -1.0689805 0.3841274 0.010480981
-0.2139256 0.10007357 0.48508874 1.3543222 -0.46913254 0.05012895 0.38838398 -0.59367853
0.69617635 0.26028076 1.3902979 -0.07754315 0.6502815 0.1334934 0.13957593 2.2007587
1.7816838 2.7614264 0.7233483 -1.205148 0.3472965 0.10478491 0.8400149 0.229576
1.0676756 0.11458028 0.8260363 0.16202262 0.49027607 0.8105576 0.79996616 1.2375579
2.145501 0.83985823 0.14184652 1.1768876 -1.0862572 -0.5407904 -0.2013926 1.0494614
00000000: 3ff5 a43e bdad 12be 2fb0 cb3f 2a9f 23bf
00000010: c60a a43e 8fb0 51bf 6dd8 1abf 3a83 fb3f
00000020: d6d0 4b40 ebe1 f63f 4689 df3f c0f2 c3bd
00000030: 2be6 703f c83f 09bf 099f debd d96a b33e
00000040: 9f5a 08be 8d79 f13e 60a1 783d 8763 ef3e
00000050: 097d ba3c cee9 1740 203c 43be 1352 b13f
00000060: 5b88 9f3f 2876 82be 823b 893f d76c c73f
00000070: f90b a23f 2ab9 27be ab44 94be ea1a c33f
00000080: b820 bb3e 31dd 12bd 4947 e43e a0a2 a6be
00000090: 3a8d a8bd 8f3e 4ebe 2d8c 223e f4fc fa3e
000000a0: 09c5 e03e 77d9 9e3f 74d5 253f f1b9 b6be
000000b0: e48f a8be 86a6 c83e fc9d dd3e 2072 b03e
000000c0: 836c 753f bc68 a73e cb8d 5a3b 6dbf 333f
000000d0: f931 043f 1383 9cbe dbf3 05be 34c7 0d3f
000000e0: c289 093e 818a db3e 397d ddbe c8c0 083e
000000f0: f92c 4b3f 6559 593e ab21 1a3f f096 903f
00000100: 612c b1be 71cc 0dbf 19dd 2abf 0f59 f1bd
00000110: 7ba3 0bbf e717 08bd bd39 683e 9f31 a83f
00000120: 726f 563f 6ae5 8abf 5e34 f7be 1354 7f3e
00000130: c9c0 cf3c 28a5 cb3e 9739 f7be f27a b03f
00000140: 0a4e 9fbe c2f0 24bf 164e 6d3e d29c 0abf
00000150: 54da 8ebe 5ad4 88bf 59ac c43e 6cb8 2b3c
00000160: 500f 5bbe 5ff3 cc3d 8d5d f83e 6e5a ad3f
00000170: 2432 f0be 0454 4d3d 44da c63e 51fb 17bf
00000180: 9d38 323f 8543 853e 48f5 b13f f1ce 9ebd
00000190: d978 263f 7eb2 083e feec 0e3e 3bd9 0c40
000001a0: 370e e43f 36bb 3040 5b2d 393f 4a42 9abf
000001b0: d9d0 b13e 7999 d63d 370b 573f f915 6b3e
000001c0: 98a9 883f 11a9 ea3d 1d77 533f 42e9 253e
000001d0: 7705 fb3e b480 4f3f 95ca 4c3f 4c68 9e3f
000001e0: e34f 0940 f300 573f 3740 113e 41a4 963f
000001f0: 7a0a 8bbf 3d71 0abf dd39 4ebe c054 863f

lstm.bias_hh_l0 f4 [128]
0.28726852 -0.16149384 1.5406994 -0.6302183 0.36346844 -0.81650317 -0.6668562 1.9877858
3.2758527 1.9654595 1.6898575 -0.09564509 0.90837264 -0.49280173 -0.121232174 0.41485292
-0.13117889 0.44066292 -0.0046616537 0.48016173 0.07382021 2.3550255 -0.2078928 1.3580064
1.2238456 -0.25570387 1.1281401 1.522594 1.2491508 -0.19122185 -0.31238285 1.5263126
0.35813546 -0.01030255 0.45589802 -0.33779356 -0.10982309 -0.20509721 0.19637185 0.56585675
0.49382102 1.2585275 0.63909984 -0.26327607 -0.32133827 0.39862955 0.44105163 0.36565977
1.0338553 0.3685348 0.071322195 0.7010463 0.53295636 -0.3133809 -0.08195856 0.575405
0.15052281 0.49376705 -0.46512264 0.14741495 0.75510997 0.24979056 0.6301307 1.0852604
-0.35927758 -0.5830654 -0.6996957 -0.14805025 -0.6229406 -0.016639376 0.19573024 1.2695347
0.7855888 -1.0818968 -0.40447512 0.22441372 -0.03540914 0.3928927 -0.4450499 1.3919041
-0.30968997 -0.6202197 0.2697858 -0.6115388 -0.28820413 -1.0774856 0.4058114 -0.052124474
-0.2214629 0.1365947 0.484153 1.3803452 -0.4289605 0.10941248 0.44040212 -0.54509974
0.740422 0.20408419 1.3990318 -0.055191573 0.6740024 0.11054976 0.1612564 2.2632327
1.7661288 2.7571754 0.75521624 -1.1617961 0.27978846 0.15702464 0.7796825 0.2748206
1.0491167 0.06867668 0.82062346 0.16211335 0.4751726 0.75365466 0.75999737 1.2670535
2.1561418 0.7576263 0.1033067 1.1874022 -1.0729184 -0.53743786 -0.13162892 1.0200756
00000000: dc14 933e a45e 25be a335 c53f fd55 21bf
00000010: 8918 ba3e 5a06 51bf 17b7 2abf c46f fe3f
00000020: 92a7 5140 2d94 fb3f 404d d83f 93e1 c3bd
00000030: 1c8b 683f 8250 fcbe 9348 f8bd 9a67 d43e
00000040: c253 06be 929e e13e c9c0 98bb c2d7 f53e
00000050: 0d2f 973d bdb8 1640 dae1 54be 27d3 ad3f
00000060: f9a6 9c3f 9eeb 82be e566 903f 5ce4 c23f
00000070: 2ce4 9f3f a9cf 43be a5f0 9fbe 365e c33f
00000080: 885d b73e 07cc 28bc 776b e93e 47f3 acbe
00000090: eeea e0bd 0105 52be b415 493e fddb 103f
000000a0: 1cd6 fc3e 6e17 a13f 0c9c 233f 1fcc 86be
000000b0: 7386 a4be 2c19 cc3e 85d1 e13e c237 bb3e
000000c0: 5f55 843f 98b0 bc3e 5f11 923d c577 333f
000000d0: d46f 083f 7673 a0be e4d9 a7bd be4d 133f
000000e0: a722 1a3e 09cf fc3e 8e24 eebe f2f3 163e
000000f0: e34e 413f 19c9 7f3e 3f50 213f d0e9 8a3f
00000100: 3bf3 b7be c643 15bf 421f 33bf 7c9a 17be
00000110: 0979 1fbf 4d4f 88bc 826d 483e 1d80 a23f
00000120: 591c 493f 987b 8abf 5d17 cfbe b6cc 653e
00000130: 2d09 11bd 3b29 c93e 95dd e3be ea29 b23f
00000140: af8f 9ebe b8c6 1ebf 5d21 8a3e cf8d 1cbf
00000150: 7e8f 93be 0ceb 89bf 83c6 cf3e 7980 55bd
00000160: 2cc7 62be 7bdf 0b3e e7e2 f73e 27af b03f
00000170: b6a0 dbbe a613 e03d 637c e13e a88b 0bbf
00000180: 4c8c 3d3f 72fb 503e 7913 b33f 8f10 62bd
00000190: 6c8b 2c3f ea67 e23d 6620 253e ced8 1040
000001a0: 8210 e23f 9075 3040 da55 413f bcb5 94bf
000001b0: 6f40 8f3e 11cb 203e 4699 473f 49b5 8c3e
000001c0: 7549 863f 5ca6 8c3d 6114 523f 0b01 263e
000001d0: d349 f33e 83ef 403f 308f 423f cf2e a23f
000001e0: 3afe 0940 ccf3 413f 7792 d33d ccfc 973f
000001f0: 6455 89bf 8795 09bf bbc9 06be d691 823f

fc.weight f4 [89, 32]
-0.2829804 1.6433544 0.4009697 -1.8453305 2.3344078 0.31023097 2.3408515 -0.20323826
1.172261 -0.22913946 -0.8416483 2.701013 -0.6735601 -1.4133344 -0.9378537 -0.055206638
0.43540335 0.28973952 1.4367523 -1.951594 0.17770498 -0.31639504 0.06954029 -0.20697957
-0.91455925 0.33472675 1.0666728 -0.48335868 -0.19162504 2.2039158 0.2262239 -1.5543964
1.2313145 1.4692402 -2.9190853 -0.9006892 2.853261 -0.08717439 -0.20494209 2.9758525
1.8224323 -5.6634455 -0.9386928 -0.94851255 -0.97370756 0.5248924 0.6542147 -2.4068646
0.33201957 2.894879 -0.3623817 0.92673874 -0.6838003 -3.1939921 0.2588497 -2.5895586
1.7536826 -1.5010419 1.321934 1.3804834 2.929032 0.43233478 0.1582814 -2.0068388
1.2194508 1.473655 -2.899701 -0.9020633 2.8634958 -0.074157 -0.18157524 2.9318693
1.8363162 -5.701142 -0.8959831 -0.96343243 -0.98205805 0.5188929 0.64080405 -2.3925874
0.35783628 2.9032102 -0.36397332 0.9289982 -0.70034087 -3.1956067 0.27030212 -2.58627
1.756525 -1.4719074 1.3381989 1.431448 2.9163966 0.4159482 0.18497212 -2.00244
1.2267312 1.4877611 -2.9184186 -0.91620755 2.8923254 -0.115798235 -0.18093058 2.9302835
1.8496445 -5.6352077 -0.94690657 -0.97995055 -0.9877251 0.5235134 0.62517726 -2.403516
0.3579066 2.90594 -0.38091126 0.9107305 -0.6623245 -3.2326796 0.2350582 -2.5823824
1.7882463 -1.5275427 1.3273212 1.3827934 2.9266021 0.4474409 0.20054735 -2.0151122
1.1869719 1.4768167 -2.9217134 -0.92348766 2.8867235 -0.06874844 -0.17182203 2.9810238
1.8321692 -5.6556773 -0.9383185 -0.9551101 -0.9561744 0.5082148 0.65035224 -2.370777
0.3571085 2.8902924 -0.37406665 0.9355473 -0.668502 -3.1932676 0.25706315 -2.6013021
1.7995243 -1.518199 1.3318615 1.3863006 2.928167 0.44045472 0.1988402 -2.0236719
1.1831378 1.4789478 -2.9211805 -0.9162178 2.8794773 -0.07644788 -0.1322269 2.9612494
1.8037318 -5.6795335 -0.9053571 -0.95960504 -0.9656461 0.5157371 0.66577214 -2.4249775
0.3390147 2.9204793 -0.36062822 0.9081854 -0.701947 -3.2003832 0.2714831 -2.5940394
1.7782056 -1.4852263 1.3446802 1.4156036 2.931535 0.41675258 0.16701144 -2.0336607
1.2015013 1.4572923 -2.8995795 -0.9268915 2.866396 -0.09459507 -0.14625043 2.9684694
1.8507303 -5.663293 -0.8942161 -0.96078646 -0.9655366 0.51148665 0.65788424 -2.3924444
0.3518918 2.9137125 -0.36936355 0.9266011 -0.6818747 -3.1800241 0.25970665 -2.586944
1.7820342 -1.507024 1.344261 1.4068162 2.9169092 0.4180852 0.17775837 -2.0081272
1.2328154 1.462505 -2.9114075 -0.9442996 2.8319755 -0.11320673 -0.17141767 2.937371
1.782071 -5.5991974 -0.89752126 -0.96498436 -0.99137896 0.4941039 0.5995888 -2.3953223
0.34462988 2.8675656 -0.38770276 0.93456745 -0.68171436 -3.1838164 0.23705389 -2.5617807
1.7570616 -1.5080462 1.3406656 1.3825061 2.911345 0.40597042 0.19235592 -1.9980386
00000000: cfe2 90be 7059 d23f e74b cd3e ca33 ecbf
00000010: f066 1540 98d6 9e3e 83d0 1540 b11d 50be
00000020: a60c 963f 89a3 6abe 4376 57bf 66dd 2c40
00000030: 6f6e 2cbf 24e8 b4bf 2e17 70bf 5b20 62bd
00000040: 30ed de3e bd58 943e 80e7 b73f d5cd f9bf
00000050: 4bf8 353e 88fe a1be 246b 8e3d 74f2 53be
00000060: 8e20 6abf 4e61 ab3e bc88 883f ca7a f7be
00000070: 5b39 44be f50c 0d40 3da7 673e 76f6 c6bf
00000080: b79b 9d3f 1010 bc3f 4bd2 3ac0 9193 66bf
00000090: d49b 3640 7d88 b2bd 57dc 51be 5e74 3e40
000000a0: 7645 e93f f23a b5c0 2c4e 70bf b8d1 72bf
000000b0: e644 79bf 595f 063f 9d7a 273f 120a 1ac0
000000c0: 78fe a93e b345 3940 188a b9be c03e 6d3f
000000d0: 890d 2fbf 5e6a 4cc0 f387 843e 54bb 25c0
000000e0: ac78 e03f 2422 c0bf 2235 a93f aeb3 b03f
000000f0: 4375 3b40 fc5a dd3e 8514 223e 0c70 00c0
00000100: f716 9c3f baa0 bc3f b494 39c0 9fed 66bf
00000110: 8443 3740 a0df 97bd dcee 39be bfa3 3b40
00000120: 690c eb3f c16f b6c0 265f 65bf 82a3 76bf
00000130: 2868 7bbf 2ad6 043f bc0b 243f 2720 19c0
00000140: 5136 b73e 32ce 3940 b65a babe d3d2 6d3f
00000150: 8a49 33bf d284 4cc0 0a65 8a3e 7385 25c0
00000160: d0d5 e03f 7667 bcbf 1a4a ab3f b039 b73f
00000170: 3ea6 3a40 2af7 d43e 5569 3d3e fa27 00c0
00000180: 8705 9d3f f56e be3f 5fc7 3ac0 948c 6abf
00000190: dc1b 3940 a027 edbd de45 39be c489 3b40
000001a0: 27c1 ec3f 9f53 b4c0 7868 72bf 0ade 7abf
000001b0: 8ddb 7cbf f904 063f 9e0b 203f 35d3 19c0
000001c0: 893f b73e ecfa 3940 cd06 c3be a225 693f
000001d0: 198e 29bf 39e4 4ec0 19b3 703e c145 25c0
000001e0: 41e5 e43f 8586 c3bf a9e5 a93f 60ff b03f
000001f0: 734d 3b40 f916 e53e 495c 4d3e 99f7 00c0
00000200: b2ee 973f 5408 bd3f 5afd 3ac0 b069 6cbf
00000210: 14c0 3840 fbcb 8cbd 1df2 2fbe 18c9 3e40
00000220: 8584 ea3f 4ffb b4c0 a435 70bf 1882 74bf
00000230: d8c7 74bf 5d1a 023f 7c7d 263f cfba 17c0
00000240: edd6 b63e 8dfa 3840 aa85 bfbe 0780 6f3f
00000250: f222 2bbf 7f5e 4cc0 c89d 833e bc7b 26c0
00000260: d056 e63f 5854 c2bf 707a aa3f 4c72 b13f
00000270: 1767 3b40 4883 e13e c49c 4b3e d783 01c0
00000280: 0f71 973f 294e bd3f 9ff4 3ac0 408d 6abf
00000290: 5b49 3840 b590 9cbd 7d66 07be 1c85 3d40
000002a0: afe0 e63f bdbe b5c0 7cc5 67bf ada8 75bf
000002b0: 9534 77bf 5907 043f 0b70 2a3f d532 1bc0
000002c0: 5693 ad3e 22e9 3a40 43a4 b8be d77e 683f
000002d0: ccb2 33bf 14d3 4cc0 d5ff 8a3e be04 26c0
000002e0: 3e9c e33f e51b bebf 7b1e ac3f 8032 b53f
000002f0: 459e 3b40 9860 d53e 0c05 2b3e 7f27 02c0
00000300: cbca 993f 8e88 ba3f b692 39c0 c348 6dbf
00000310: 0873 3740 0fbb c1bd acc2 15be 67fb 3d40
00000320: bbe4 ec3f b239 b5c0 59eb 64bf 1af6 75bf
00000330: 682d 77bf caf0 023f 1a6b 283f cf1d 19c0
00000340: 292b b43e 447a 3a40 381d bdbe bb35 6d3f
00000350: 578f 2ebf 8485 4bc0 45f8 843e 7e90 25c0
00000360: b219 e43f 2ae6 c0bf bf10 ac3f 8e12 b43f
00000370: a4ae 3a40 430f d63e 4a06 363e 2885 00c0
00000380: e5cc 9d3f 5d33 bb3f 8054 3ac0 9ebd 71bf
00000390: 163f 3540 eed8 e7bd 1d88 2fbe e3fd 3b40
000003a0: e71a e43f a02c b3c0 f4c3 65bf 3709 77bf
000003b0: 03cb 7dbf 30fb fc3e a77e 193f f64c 19c0
000003c0: 5473 b03e 3286 3740 fa80 c6be d03f 6f3f
000003d0: d584 2ebf a6c3 4bc0 41be 723e 37f4 23c0
000003e0: 65e7 e03f a807 c1bf ee9a ab3f f6f5 b03f
000003f0: 7a53 3a40 5bdb cf3e f3f8 443e bbbf ffbf

fc.bias f4 [89]
-0.94237864 -5.152189 -5.1541023 -5.1599755 -5.138158 -5.105566 -5.1543927 -5.253856
-5.1101136 -5.216734 -5.1313634 -5.1902857 -5.1555467 -5.173672 -5.1453013 -5.1415772
-5.164299 -5.1256027 -5.1037235 -5.174137 -5.172924 -5.11141 -5.1646557 -5.2407017
-5.147679 -5.178193 -5.196102 -5.237543 -5.22051 -5.191709 -5.1900673 -5.1654367
-5.190138 -5.0946503 -5.173356 -1.1418842 -1.3404202 1.1177707 -0.44894403 0.64908534
-0.64620095 -0.32038814 0.28232333 0.32620624 0.85132587 -0.5703918 0.2464482 0.4485336
-0.8384735 -0.025277248 0.02256128 -0.036022313 -0.41584474 -0.2777536 0.6834018 0.14102566
-0.2339726 -1.5484083 -0.46391988 1.1786314 -0.4845834 -0.85687494 0.09639293 0.6116549
0.11140427 -0.92724645 0.04662113 -5.1590934 -0.5543528 -5.086926 -5.2232957 -5.0671606
-5.196336 -5.2204375 -5.202449 -5.1576033 -5.1814423 -5.2003155 -5.1436415 -5.2334185
-5.1501727 -5.1896777 -5.1320567 -5.1648808 -5.17226 -5.1623178 -5.2632113 -5.1224036
-5.18937
00000000: ba3f 71bf bbde a4c0 68ee a4c0 851e a5c0
00000010: ca6b a4c0 cc60 a3c0 c9f0 a4c0 971f a8c0
00000020: 0d86 a3c0 7cef a6c0 2134 a4c0 d216 a6c0
00000030: 3dfa a4c0 b98e a5c0 4fa6 a4c0 cd87 a4c0
00000040: f041 a5c0 f004 a4c0 b451 a3c0 8892 a5c0
00000050: 9888 a5c0 ac90 a3c0 dc44 a5c0 d4b3 a7c0
00000060: c9b9 a4c0 c2b3 a5c0 7846 a6c0 f499 a7c0
00000070: 6b0e a7c0 7b22 a6c0 0815 a6c0 424b a5c0
00000080: 9c15 a6c0 6007 a3c0 228c a5c0 4329 92bf
00000090: e492 abbf 1c13 8f3f fedb e5be 752a 263f
000000a0: 6d6d 25bf ea09 a4be af8c 903e 8104 a73e
000000b0: 7ef0 593f 3205 12bf eb5c 7c3e 32a6 e53e
000000c0: 33a6 56bf 3b12 cfbc 6fd2 b83c 228c 13bd
000000d0: 9ae9 d4be b835 8ebe 6cf3 2e3f 0869 103e
000000e0: 8396 6fbe 3e32 c6bf e886 edbe 65dd 963f
000000f0: 511b f8be 285c 5bbf a869 c53d 6a95 1c3f
00000100: ec27 e43d 0660 6dbf ccf5 3e3d 4b17 a5c0
00000110: 11ea 0dbf 19c8 a2c0 3d25 a7c0 2e26 a2c0
00000120: 6248 a6c0 d30d a7c0 767a a6c0 160b a5c0
00000130: 60ce a5c0 fc68 a6c0 b698 a4c0 2a78 a7c0
00000140: 37ce a4c0 d711 a6c0 cf39 a4c0 b446 a5c0
00000150: 2783 a5c0 b531 a5c0 3a6c a8c0 bbea a3c0
00000160: 520f a6c0
