src/models/bebop/runs/Nov28-18_15:40:28/generator_state.pt (torch_old, 467187 bytes, 7 tensors)

embedder.weight f4 [89, 64]
0	0x3f212b55	0.62956744
1	0xbf3a3464	-0.7273619
2	0xbd358550	-0.04431659
3	0x3f8f3294	1.118731
4	0x3e181742	0.14852622
5	0x3ee52e9a	0.44762117
6	0x3f172f30	0.5905638
7	0xbfa13f64	-1.259747
8	0x3d73e787	0.059546974
9	0xbec88d09	-0.391701
10	0x3fe2400c	1.7675796
11	0xbaf0bc21	-0.0018366614
12	0x3e0f9a47	0.14023696
13	0x3e80ed16	0.25180882
14	0xbf869615	-1.0514551
15	0xbf0c5871	-0.5482245
16	0x3f4413a8	0.76592493
17	0xbf08d74b	-0.5345351
18	0x3ef08b9b	0.4698151
19	0xbedf82c7	-0.43654463
20	0x3d97c78f	0.0741111
21	0xbf1281f1	-0.57229525
22	0x3f021294	0.508096
23	0x3e49366e	0.1964967
24	0xbefceaf5	-0.49398008
25	0x3f4af4b5	0.79279643
26	0xbeea56ee	-0.45769447
27	0x3f34acac	0.70575976
28	0xbed3bf4a	-0.4135688
29	0xbf009007	-0.5021977
30	0x3e8a5e1d	0.27024928
31	0xbfc15fce	-1.5107362
32	0x3dd71067	0.105011754
33	0x3f9bfbbe	1.2186201
34	0xbe6fbc45	-0.23411663
35	0x3ec599a2	0.38593775
36	0xbf1edee6	-0.62058866
37	0x3e0606d7	0.13088547
38	0xbecac9fd	-0.3960723
39	0x3e38d613	0.18050413
40	0x3e295367	0.16535722
41	0xbf0fd9a2	-0.56191456
42	0x3de2dbee	0.110771045
43	0xbe201bae	-0.15635559
44	0x3f64f86f	0.8944158
45	0xbf4d196f	-0.80116934
46	0xbe5497d2	-0.2076104
47	0x3da1264f	0.07868635
48	0xbf3b46e7	-0.73155063
49	0xbfa35882	-1.2761385
50	0xbe8c5d6a	-0.2741502
51	0x3f8731b8	1.0562048
52	0xbf5e9fc6	-0.86962545
53	0x3d226200	0.03964424
54	0x3f3408f0	0.7032614
55	0x3f390b93	0.72283286
56	0x3ecf2f90	0.40465975
57	0xbe25f506	-0.1620675
58	0xbeb24aff	-0.34822842
59	0xbf8afc8f	-1.0858325
60	0xbe868caf	-0.26279208
61	0xbf065e40	-0.52487564
62	0x3e8d18b5	0.27557912
63	0xbe6f0d08	-0.23344815
64	0x3cd6ded2	0.026229296
65	0xbc831dac	-0.01600536
66	0xbd360d4d	-0.04444628
67	0xbcfbdda3	-0.030745333
68	0xbc456ee8	-0.012050368
69	0x3cc86566	0.024462413
70	0xbd13ce36	-0.03608533
71	0xbba07ac0	-0.0048974454
72	0xbc35a478	-0.011086576
73	0xbc8490aa	-0.016182262
74	0x3d20f151	0.039292637
75	0xbc0db3f4	-0.008648861
76	0xbcb9e097	-0.0226901
77	0xbca33523	-0.019922798
78	0x3d19301b	0.037399393
79	0xba731a80	-0.0009273663
80	0xbcab8e3d	-0.020941848
81	0xbce0b49a	-0.027429868
82	0x3cc3c5a6	0.023897957
83	0xbd4b0ada	-0.049570896
84	0x3bf02990	0.0073291734
85	0x3cd91922	0.026501242
86	0xbc9db047	-0.019249095
87	0xba686ac0	-0.00088660046
88	0x3cd47dce	0.025938895
89	0xbd04316d	-0.0322737
90	0xbce81970	-0.028332442
91	0x3be0d3e8	0.0068611987
92	0xbc9df357	-0.019281073
93	0xbbd5c440	-0.006523639
94	0x3c95cf22	0.018287245
95	0xbd18bd6d	-0.037290026
96	0x3d04e461	0.03244436
97	0xbd391303	-0.045184147
98	0x3d44cff7	0.048049893
99	0xbd1f4833	-0.038887214
100	0x3c85a4d2	0.016313944
101	0x3cc88a12	0.0244799
102	0x3d0a7f35	0.03381272
103	0x3bdc6ee8	0.0067270882
104	0x3c971506	0.018442642
105	0x3b026c20	0.0019900873
106	0xbd2e6765	-0.042579073
107	0xbcf4b8f0	-0.029873341
108	0x39fae680	0.00047855452
109	0xbba9e9d8	-0.005185347
110	0xbd08ae98	-0.03336963
111	0xbc1f940c	-0.009739887
112	0xbcd4d1fa	-0.02597903
113	0xbcea9017	-0.02863316
114	0xbc236774	-0.009973396
115	0xbcbc6fd0	-0.023002535
116	0xbd1e7806	-0.038688682
117	0xbc8b1320	-0.016976893
118	0xbd296192	-0.041352816
119	0x3c50c2cc	0.012741756
120	0x3a9963a0	0.0011702664
121	0x3d3b7897	0.0457693
122	0x3d085749	0.033286367
123	0x3d3f6e15	0.04673584
124	0x3c5c1ddc	0.013434853
125	0x3d165681	0.03670359
126	0xbd12182d	-0.035667587
127	0xbd317f6d	-0.043334413
128	0x3cd1e352	0.02562109
129	0xbc3c7db4	-0.011504579
130	0x3d187fe9	0.03723136
131	0x3d4690c7	0.048477914
132	0x3c60a09c	0.013710167
133	0xbc3af0e8	-0.011409976
134	0xbcef42fd	-0.029206747
135	0x3d3520cb	0.044220727
136	0x3a013cc0	0.0004930012
137	0x3d0a5899	0.0337759
138	0x39ea1280	0.00044645742
139	0xbd0f3968	-0.034966856
140	0x3d453639	0.048147414
141	0xbc608bf8	-0.013705246
142	0x3c75ca0c	0.015001785
143	0x3c9a6c0a	0.018850345
144	0x3cf1a72a	0.029498655
145	0x3cd4106a	0.025886733
146	0x3b801458	0.003908675
147	0x3c7fc88c	0.015611779
148	0xbcd8ceed	-0.026465857
149	0xbd3f121a	-0.046648122
150	0xbb973518	-0.0046144836
151	0x3c688544	0.014191929
152	0xbd0d32c2	-0.034472235
153	0x3d47f727	0.048819687
154	0x3d37a2df	0.04483306
155	0xbd38e932	-0.045144267
156	0xba809860	-0.0009811036
157	0x3d318267	0.043337252
158	0xbd1fd4ae	-0.039021187
159	0x3b342020	0.0027484968
160	0xbc8d1b0c	-0.017224811
161	0xbba50e68	-0.0050371177
162	0xbd24317b	-0.04008625
163	0x3d425029	0.047439728
164	0xbcf83b3a	-0.030301679
165	0x3d2c61d5	0.042085487
166	0x3d24042d	0.040043045
167	0x3d33c4e3	0.043888938
168	0xbca4ab3d	-0.020101184
169	0xbbd7cbe8	-0.006585587
170	0x3cf6fcf2	0.03014991
171	0xbd201d8b	-0.039090674
172	0x3d39f847	0.04540279
173	0x3d48b4c9	0.049000535
174	0xbc7b3740	-0.015332997
175	0x3cb2852a	0.021792013
176	0xbd186f3e	-0.037215464
177	0x3d03698f	0.03208309
178	0xbd46321d	-0.048387635
179	0xbd38f0fb	-0.045151692
180	0x3cc5275e	0.024066623
181	0x3c527754	0.012845833
182	0xbd026b7a	-0.03184078
183	0x3d0a02ff	0.033694264
184	0x3d3f19b9	0.04665539
185	0x3d249c31	0.04018802
186	0xbd296880	-0.041359425
187	0x3d29ac1d	0.041423906
188	0xbd149d45	-0.036282796
189	0xbc8d8a1c	-0.01727777
190	0x3d3d56eb	0.04622547
191	0xbd2575b8	-0.04039547
192	0x3cb97702	0.022639755
193	0xbd124c1d	-0.03571712
194	0xbcde2870	-0.027118891
195	0x3cc93dee	0.024565663
196	0x3a9f3d40	0.0012148991
197	0xbc402760	-0.011728138
198	0xbbe4edd0	-0.0069863573
199	0x3c723d94	0.014785189
200	0x3c1fb5d4	0.009747941
201	0x3b58c1b0	0.003307443
202	0xbd0150b4	-0.031571105
203	0xbc3d8060	-0.0115662515
204	0xbd34c38d	-0.044131804
205	0x3aef5440	0.0018259361
206	0xbc680398	-0.014161013
207	0xbbd33328	-0.0064453073
208	0xbc68b398	-0.014202975
209	0x3cd2e1c2	0.025742415
210	0x3d1821e9	0.037141714
211	0x3c1fd68c	0.009755742
212	0x3c85f25e	0.016350921
213	0xbc138838	-0.009004645
214	0x3cb9db0a	0.022687454
215	0xbc5cc138	-0.013473801
216	0x3d092121	0.03347886
217	0xbb6612a0	-0.0035106316
218	0xbcc4f8fd	-0.024044508
219	0xbcf65d20	-0.030073702
220	0xbd2318d0	-0.039818585
221	0xbd0bd64d	-0.03413992
222	0xba165a80	-0.00057355314
223	0xbc050088	-0.008117802
224	0x3ca06c52	0.019582901
225	0x3cd3e5e2	0.025866453
226	0x3c34aa40	0.011026919
227	0x3cff20c2	0.03114355
228	0x3c4a28b8	0.01233881
229	0xbb57e760	-0.0032944307
230	0x3d116361	0.035495166
231	0xbd4c3823	-0.049858224
232	0x3d4cb599	0.049977873
233	0x3c3b6640	0.0114379525
234	0xbbfc0900	-0.0076915026
235	0x3d058fc1	0.032607798
236	0x3d18beef	0.037291463
237	0xbc7575f8	-0.014981739
238	0x3d167dd1	0.03674108
239	0xbd3bc3ab	-0.0458409
240	0x3b349cb0	0.0027559213
241	0x3d0f1627	0.034933235
242	0x3d0f2eb3	0.034956645
243	0x3d428829	0.047493134
244	0x3d453609	0.048147235
245	0xbd1d80c5	-0.038452882
246	0xbc154678	-0.009111039
247	0xbc7b1718	-0.01532533
248	0xbca69230	-0.02033338
249	0xbbee9e30	-0.007282041
250	0x3d351e7f	0.044218536
251	0xbd406430	-0.046970546
252	0x3d2297a9	0.039695416
253	0xbd0964d2	-0.033543415
254	0x3cbf8efe	0.023383614
255	0x3c5b6134	0.013389874

lstm.weight_ih_l0 f4 [512, 64]
0	0x3f20a5a6	0.6275276
1	0xbee587a9	-0.44830063
2	0xbf24a606	-0.6431583
3	0x3ea49cfd	0.32151023
4	0xbedb5031	-0.4283462
5	0x3e80ffef	0.25195262
6	0xbf89df0d	-1.0771195
7	0x3f8195be	1.0123823
8	0x3c5be494	0.0134211965
9	0xbe911da5	-0.2834293
10	0xbe9be3e5	-0.30447307
11	0xbf1591e9	-0.58425766
12	0x3e967e8f	0.29393432
13	0xbe2d718a	-0.16937843
14	0xbf874643	-1.0568317
15	0x3c28a6af	0.010293647
16	0x3eb50b55	0.35360208
17	0x3e88a236	0.26686257
18	0x3d1fac1f	0.038982507
19	0x3f5befb6	0.85912645
20	0x3ce1d143	0.027565604
21	0x3def96be	0.11698674
22	0x3fe91d40	1.8212051
23	0x3ecd0796	0.4004485
24	0x3fbbffd0	1.4687443
25	0xbcb63419	-0.022241639
26	0x3e436157	0.19080101
27	0xbf09f30d	-0.5388649
28	0x3f0c3187	0.5476307
29	0xbe8bbca1	-0.2729235
30	0xbe8a1b32	-0.26973873
31	0x3e96b0c5	0.2943174
32	0x3f4539c4	0.7704127
33	0xbe4947ae	-0.1965625
34	0xbdf608f8	-0.120134294
35	0x3f1efdf3	0.62106246
36	0x3f096e29	0.53683716
37	0x3f8d0dae	1.10198
38	0xbec259e2	-0.379592
39	0x3ea274d7	0.31729767
40	0xbe990eb8	-0.29894042
41	0xbf2aa7e2	-0.6666242
42	0x3f0574bf	0.52131265
43	0x3f13248c	0.5747764
44	0xbf5cefd6	-0.8630346
45	0xbecd1496	-0.40054768
46	0x3ec005cf	0.37504432
47	0x3f044ec0	0.5168266
48	0x3e714ae8	0.2356373
49	0x3fc1826a	1.5117924
50	0x3dedbff4	0.11608878
51	0x3f5113b2	0.8167068
52	0x3ec229cb	0.3792251
53	0xbf2c91ad	-0.67409784
54	0x3e1193df	0.14216565
55	0x3ec4aee9	0.38414696
56	0xbf2a2a0d	-0.66470414
57	0x3f8a84c3	1.0821766
58	0x3fb30563	1.3986019
59	0x3e3430af	0.17596696
60	0x3e567e17	0.20946537
61	0x3f3eb97c	0.74501777
62	0xbfdf55f6	-1.7448108
63	0xbe937d91	-0.28806737
64	0xbd6a3aea	-0.05718509
65	0x3b6c5bc7	0.0036065446
66	0xbcf043ee	-0.029329266
67	0xbe5d003e	-0.21582124
68	0xbe9a2e7f	-0.301136
69	0x3ebb0747	0.3652899
70	0xbeedaecc	-0.46422422
71	0x3d46e570	0.048558652
72	0xbedc091c	-0.429757
73	0x3df5b5d8	0.119975746
74	0x3e52f91b	0.20602839
75	0x3ea233d2	0.3168016
76	0x3ed80fdc	0.421996
77	0xbf0b408d	-0.5439537
78	0x3d8f4ff0	0.06997669
79	0xbe9a28e9	-0.30109337
80	0x3de22fcf	0.11044275
81	0xbf39ba1d	-0.7254961
82	0x3e36df7d	0.17858692
83	0x3e78cf6e	0.24297878
84	0xbb628317	-0.0034563
85	0xbf642e75	-0.8913339
86	0x3f891a19	1.0711089
87	0x3e69c8e9	0.22830547
88	0xbe2dbd6b	-0.16966788
89	0xbe7e5698	-0.2483772
90	0xbe2cccdf	-0.16875027
91	0x3e16564c	0.14681357
92	0xbe685f7b	-0.22692673
93	0xbee6f9a7	-0.45112345
94	0xbf21b56b	-0.63167447
95	0x3f08aaf2	0.5338584
96	0xbed6085c	-0.41803253
97	0xbf242cdf	-0.6413097
98	0xbe8f45c4	-0.27982914
99	0xbe8de416	-0.27713078
100	0x3f4ce2c2	0.80033505
101	0xbe7c4a82	-0.24637797
102	0xbebf6b2f	-0.37386462
103	0x3eb40a63	0.35164174
104	0x3e562ffe	0.20916745
105	0xbe2e371b	-0.17013209
106	0x3e9df949	0.30854252
107	0x3f18ef36	0.59740007
108	0xbef0c142	-0.47022444
109	0x3dd2fc07	0.10301977
110	0xbf204cd2	-0.6261722
111	0x3f2777c3	0.65417117
112	0xbf0213f1	-0.5081168
113	0xbea105b1	-0.31449655
114	0xbd5d7d4c	-0.05407457
115	0xbf21580f	-0.6302499
116	0x3f266de7	0.6501145
117	0xbeae2071	-0.34009126
118	0xbd4ad4b1	-0.049519245
119	0x3f65f64f	0.8982896
120	0x3e259e6b	0.16173713
121	0x3f66c3f0	0.90142727
122	0x3ebcde7e	0.36888498
123	0xbf28cdf2	-0.6593925
124	0x3f053b87	0.52043957
125	0xbeb6eef8	-0.35729194
126	0xbed6d94a	-0.41962653
127	0x3eaba63a	0.33525258
128	0x3e9293ea	0.28628474
129	0xbf06d955	-0.5267537
130	0xbf63dbee	-0.8900746
131	0x3d6dc2b0	0.058046997
132	0x3f0c9cb1	0.5492659
133	0xbd8f2dac	-0.06991133
134	0x3ea8915e	0.32923406
135	0xbe8fff58	-0.281245
136	0x3f641f20	0.89109993
137	0xbe4ea4d7	-0.20180069
138	0xbf329683	-0.6976091
139	0x3ef28d92	0.47373635
140	0xbe5a298c	-0.21304911
141	0x3ea68c76	0.32529038
142	0xbf001fbf	-0.5004844
143	0x3eed6dab	0.46372733
144	0x3f759797	0.9593443
145	0x3f162d41	0.586628
146	0xbf02fe21	-0.5116902
147	0x3db2ce97	0.0873081
148	0x3e5363a4	0.20643479
149	0x3ed645f2	0.4185024
150	0xbea55cfb	-0.322975
151	0xbe823a79	-0.25435236
152	0xbce495f9	-0.027903544
153	0xbec84578	-0.391155
154	0xbe9924e3	-0.29910955
155	0xbf560f96	-0.8361753
156	0x3efb3932	0.49067074
157	0x3fa00b35	1.250342
158	0x3f3203f2	0.6953727
159	0xc0185f57	-2.380819
160	0x3eadb335	0.33925787
161	0x3fe4eea6	1.788533
162	0xbe1c9139	-0.15289773
163	0x3f93ea3c	1.1555858
164	0xbd224467	-0.039616015
165	0xbf098cd2	-0.537305
166	0x3fbfd43f	1.4986647
167	0xbf9e07f6	-1.234618
168	0x3d261a5b	0.04055248
169	0x3e8426a9	0.25810745
170	0xbea6367c	-0.32463443
171	0x3e47e061	0.19519188
172	0x3f00bf4b	0.5029189
173	0x3e2bd510	0.16780496
174	0x3e9409dc	0.28913772
175	0xbe894ab9	-0.2681482
176	0x3f8a25fc	1.0792842
177	0xbc5d4374	-0.013504852
178	0x3e2c407f	0.16821478
179	0xbeded6d4	-0.43523276
180	0x3dc165ab	0.0944322
181	0xbf35fdaf	-0.71090215
182	0xbf02cd77	-0.51094764
183	0x3e49032d	0.19630118
184	0xbefecbfe	-0.4976501
185	0xbf583140	-0.8445015
186	0x3ec7f6c0	0.39055443
187	0x3f6a0191	0.9140864
188	0xbe138006	-0.14404306
189	0xbd7e9ce1	-0.06216133
190	0x3e9ef936	0.31049508
191	0xbf0f0bb0	-0.5587721
192	0x3e1344eb	0.14381759
193	0xbf0ea221	-0.5571614
194	0x3e0b5369	0.13606037
195	0x3e29c1ad	0.16577788
196	0x3eb9e7be	0.36309618
197	0x3e2787be	0.16360375
198	0xbf0c0282	-0.54691327
199	0x3ebd72d7	0.37001678
200	0xbe52e144	-0.20593745
201	0x3dff57d6	0.12467925
202	0xbdebd58b	-0.115153395
203	0xbee88dc9	-0.45420673
204	0x3f788a7c	0.9708631
205	0x3eb2af9a	0.34899598
206	0x3e2ab388	0.16670048
207	0xbf01c491	-0.5069056
208	0xbdb6cf61	-0.08926273
209	0xbf716f64	-0.94310594
210	0x3ebf7a9f	0.3739824
211	0x3e82dc0a	0.255585
212	0x3c9c8f5e	0.019111332
213	0xbf343f84	-0.7040942
214	0x3ee6e2fe	0.45095056
215	0x3f3fa4fa	0.7486111
216	0x3f395009	0.7238775
217	0x3e8ac199	0.27100828
218	0xbeca9262	-0.39564806
219	0x3e7eacf9	0.24870671
220	0x3e7a0b91	0.24418475
221	0xbf089f52	-0.53368104
222	0x3e82bdad	0.25535336
223	0x3f072cf0	0.52802944
224	0xbf11ef9b	-0.57006234
225	0xbeda9bad	-0.42696896
226	0x3d0de619	0.034643266
227	0xbe33c391	-0.17555071
228	0x3f5e441d	0.8682268
229	0x3eea460f	0.45756575
230	0xbf44c860	-0.7686825
231	0x3f88fa39	1.0701362
232	0xbe04bb85	-0.12962158
233	0xbecd2a11	-0.40071157
234	0x3f427b57	0.7596945
235	0x3c60afb8	0.01371377
236	0xbd375923	-0.04476274
237	0x3d4d5c84	0.050137058
238	0x3f675892	0.9036952
239	0x3e2e3ecb	0.17016141
240	0xbf2204de	-0.63288677
241	0x3f39475a	0.723745
242	0xbe51f50a	-0.20503631
243	0xbe242c3d	-0.160325
244	0x3e600156	0.2187551
245	0x3dac4f0d	0.08413515
246	0x3dabd8d2	0.083909646
247	0xbbedba34	-0.007254863
248	0x3e3dd188	0.18536961
249	0xbe1b5841	-0.15170385
250	0x3f0da271	0.5532599
251	0xbf1c1185	-0.6096423
252	0x3ec5827c	0.38576114
253	0x3f0864ec	0.53278995
254	0xbf91458b	-1.1349348
255	0xbe6d83b7	-0.23194776

lstm.weight_hh_l0 f4 [512, 128]
0	0x3f6a59e5	0.9154342
1	0x3f82c952	1.0217688
2	0x3f337a2f	0.7010831
3	0xbde2f902	-0.11082651
4	0x3e9b9fcb	0.3039535
5	0x3dd09db3	0.10186329
6	0xbed69d90	-0.41917086
7	0xbf489202	-0.7834779
8	0xbf64d536	-0.89387834
9	0x3f074ba1	0.52849776
10	0x3f9a0a73	1.2034439
11	0x3ebc8a0c	0.3682407
12	0xbf4ef361	-0.80840117
13	0x3fed0584	1.8517308
14	0x3e84448b	0.25833544
15	0xbf94360a	-1.1578991
16	0xbeb2d85b	-0.3493069
17	0xbe61a27e	-0.22034642
18	0xbf6e8b87	-0.9318165
19	0xbf4820cd	-0.7817505
20	0xbe36d963	-0.17856364
21	0x3f282f84	0.65697503
22	0xbff5ac81	-1.9193269
23	0xbf2b547e	-0.669258
24	0x3f9b2c36	1.2122867
25	0xbfeabd9d	-1.8339115
26	0xbf3832d2	-0.71952546
27	0x3f03d7a2	0.51500905
28	0xbea5aced	-0.32358494
29	0xbdf1ad51	-0.118006356
30	0xbf865a4e	-1.0496309
31	0x3d85fee8	0.0654276
32	0xbed988a8	-0.42487073
33	0x3f5272eb	0.822066
34	0x3f38148e	0.71906364
35	0xbf86bcec	-1.0526404
36	0x3f45a9f1	0.77212435
37	0xbf1a30da	-0.6023079
38	0xbdf772ef	-0.12082469
39	0x3f82ca1a	1.0217927
40	0xbf8251f8	-1.0181265
41	0xbf9764a9	-1.1827594
42	0x3f95b752	1.169657
43	0x3efda175	0.49537244
44	0xbec1274a	-0.37725288
45	0xbccd64cf	-0.025072483
46	0x3eec6698	0.46172023
47	0xbd85bfe8	-0.06530744
48	0xbf43247f	-0.76227564
49	0x3eaca797	0.3372161
50	0x3b57abf5	0.003290889
51	0xbea7bc3c	-0.327608
52	0x3cb7dc01	0.022443773
53	0xbf9686d0	-1.1759892
54	0x401cc35a	2.4494233
55	0xbf53e7c5	-0.8277553
56	0xbe9a5696	-0.30144185
57	0xbf5b5282	-0.8567277
58	0x3f14ce9d	0.58127767
59	0xbe21d117	-0.15802418
60	0x3e2e10a9	0.16998543
61	0xbf34b053	-0.7058155
62	0x3d7394c8	0.05946806
63	0xbcec5667	-0.028849794
64	0xbf79a7bd	-0.97521573
65	0xbedf3bce	-0.43600315
66	0x3e77b439	0.24189843
67	0x3d8a6f6d	0.06759534
68	0xbf0f50cd	-0.5598267
69	0x3f1426f7	0.57871956
70	0x3fae0fd0	1.3598576
71	0x3f5c869a	0.86142886
72	0xbe169956	-0.1470693
73	0xbedbbdfd	-0.42918387
74	0x3d88fb79	0.066885896
75	0xbfe4cf57	-1.7875775
76	0xbf91b309	-1.1382762
77	0xbe64674d	-0.22305031
78	0x3f5f7cc4	0.8729975
79	0x3f2fbfb8	0.68651915
80	0xbfa61224	-1.2974286
81	0x3f199cea	0.60005057
82	0x3e871c9f	0.26389024
83	0x3efe3f07	0.4965746
84	0xbe63b3ff	-0.22236632
85	0x3e55b886	0.20871171
86	0x3ef1abc0	0.47201347
87	0x3ff33771	1.9001294
88	0x3f6f89ea	0.93569815
89	0x3fcfab17	1.6224087
90	0x3f872056	1.0556743
91	0x3f220de4	0.63302445
92	0x3fadf39d	1.358997
93	0xbe7d037b	-0.24708359
94	0x3f3e4d81	0.7433701
95	0x3ebdce34	0.37071383
96	0xbf637929	-0.8885675
97	0xbf40476a	-0.7510897
98	0x3e6e6f82	0.23284724
99	0x3e8f6184	0.28004086
100	0xbfe78679	-1.8087913
101	0x3ebffc88	0.37497354
102	0x3f543807	0.8289799
103	0x3f6756c5	0.90366775
104	0xbfa96faf	-1.3237208
105	0x3fcb000a	1.5859387
106	0x3e87ec36	0.26547402
107	0x3f422444	0.75836587
108	0x3f713035	0.94214183
109	0xbec1ec16	-0.37875432
110	0xc002d4fb	-2.0442493
111	0xbdf79e11	-0.12090696
112	0xbe6cfd12	-0.23143414
113	0xbf5df297	-0.8669829
114	0x3e917f31	0.28417352
115	0xbfb92519	-1.4464446
116	0x3e7e082c	0.24807805
117	0xbf0b3ed2	-0.5439273
118	0x3df89d4f	0.12139379
119	0xbf2c4126	-0.6728691
120	0xbf62bba5	-0.8856757
121	0x3edf9306	0.43666857
122	0xbf53414d	-0.82521516
123	0x3eadde90	0.33958864
124	0x3f1d524f	0.6145372
125	0xbfab7db4	-1.3397737
126	0xbe899229	-0.26869324
127	0xbfcadd81	-1.5848848
128	0x3d1fcb03	0.039011966
129	0x3f0bf8f1	0.5467673
130	0x3e2402f6	0.16016755
131	0x3f8d6a7c	1.1048121
132	0xbecb112a	-0.39661533
133	0x3f4ea124	0.8071463
134	0x3c3a2734	0.011361886
135	0xbfbc8725	-1.4728743
136	0x3e275db6	0.16344342
137	0x3f29da89	0.66349083
138	0x3dda33a6	0.106543824
139	0xbe80723b	-0.2508715
140	0xbf44bf59	-0.76854473
141	0xbf687855	-0.9080861
142	0x3f3642ec	0.71195865
143	0x3f4e439a	0.805719
144	0xbfa91dcd	-1.321222
145	0xbe0b166d	-0.13582774
146	0x3e0190c9	0.12652887
147	0xbf137dbf	-0.5761375
148	0x3be0f4ab	0.006865104
149	0x3f411b9a	0.7543274
150	0xbf579a68	-0.8421998
151	0xbe9c58f0	-0.30536604
152	0x3f84058b	1.0314192
153	0x3e6935e4	0.22774464
154	0xbf059381	-0.521782
155	0x3f30a99d	0.6900881
156	0xbeba5932	-0.36396176
157	0xbe835608	-0.25651574
158	0x3fc244aa	1.5177205
159	0x3c3ba13d	0.011452016
160	0x3f87dd48	1.0614405
161	0x3efd7eea	0.4951089
162	0xbe10681b	-0.14102213
163	0xbf36a3a5	-0.7134345
164	0x3eba686b	0.3640779
165	0x3e7e9aa2	0.24863675
166	0xbf1589f0	-0.584136
167	0x3f2dfa15	0.6795972
168	0x3f82cf4f	1.0219516
169	0xbece4cc1	-0.40292934
170	0x3fff13c8	1.9927912
171	0x3ef6386c	0.4808992
172	0x3fc7caf7	1.5608815
173	0xbe328df3	-0.17436962
174	0x3f0de883	0.5543291
175	0x3e1d502f	0.15362619
176	0xbc50aa7f	-0.012735962
177	0xbf8a509d	-1.0805851
178	0x3edf3531	0.4359527
179	0x3f6a676b	0.91564053
180	0x401941a9	2.3946326
181	0x3e8fbe60	0.28074932
182	0x3f95b57e	1.1696012
183	0x3e297a44	0.16550547
184	0xc07baa1d	-3.932258
185	0x3fa0a444	1.255013
186	0xbed24176	-0.41065568
187	0x3f035bc2	0.51311886
188	0x3e5a5e7a	0.21325102
189	0xbe79b97c	-0.24387163
190	0x3e9ff814	0.31243956
191	0xbf0208b6	-0.5079454
192	0x3f7a270c	0.9771583
193	0xbe255eb9	-0.16149415
194	0x3f176173	0.5913307
195	0x3f01ed74	0.5075295
196	0x3f41c799	0.75695187
197	0xbd0d943a	-0.034565188
198	0xbfb43db0	-1.4081326
199	0xbf1e1032	-0.6174346
200	0xbd58902a	-0.05287186
201	0xbe333873	-0.17502002
202	0xc00fd2d9	-2.2472441
203	0x3f0c6c0a	0.54852355
204	0x3dab6fe6	0.08370952
205	0xbd3abdf2	-0.045591302
206	0xbe88efe8	-0.26745534
207	0xbe9a1e23	-0.30101117
208	0xbe92a17a	-0.28638822
209	0x3f745f48	0.9545789
210	0xbfa41289	-1.2818156
211	0xbe4c646e	-0.19960186
212	0xbdd97572	-0.10618104
213	0x3e80642a	0.2507642
214	0x3e55b6f7	0.20870577
215	0xbe9ef059	-0.31042746
216	0xbf3677e2	-0.71276677
217	0xbd992b83	-0.07479002
218	0x3f50d718	0.81578207
219	0x3e692a57	0.22770058
220	0xbd72d561	-0.059285525
221	0x3fa993fe	1.3248289
222	0x3f1f3d4e	0.6220292
223	0xbecf8eb6	-0.40538567
224	0xbfa00f06	-1.2504585
225	0x3ea7a311	0.32741597
226	0xbf1c057e	-0.6094588
227	0xbe5307a1	-0.20608379
228	0x3f1b750a	0.6072546
229	0xbf98892b	-1.191686
230	0xbf1a9180	-0.60378265
231	0x3e2df367	0.16987382
232	0xbfa6b935	-1.3025271
233	0xbfcaab18	-1.5833464
234	0x3f138576	0.5762552
235	0x3f915369	1.135358
236	0xbf25059b	-0.6446168
237	0x3f3be018	0.73388815
238	0xbf1a9ecb	-0.6039855
239	0xbf391b31	-0.72307116
240	0xbf1ad713	-0.6048443
241	0xbfdefb2d	-1.7420403
242	0x3e007ebf	0.1254835
243	0x3f8a4e2c	1.0805106
244	0xbf5a58e1	-0.8529187
245	0x3f600851	0.8751269
246	0xbee19c77	-0.44064686
247	0xbf566681	-0.8375016
248	0x3f111251	0.56668574
249	0x3ea5f4f0	0.32413435
250	0xbf891720	-1.0710182
251	0x3d824c47	0.06362205
252	0xbf236853	-0.6383106
253	0xbf81f696	-1.0153377
254	0xbfc4033d	-1.5313488
255	0xbeb50bd0	-0.35360575

lstm.bias_ih_l0 f4 [512]
0	0xbd346258	-0.0440391
1	0x3d837242	0.06418277
2	0x3f0efc90	0.5585413
3	0xbe909e08	-0.28245568
4	0x3f4889e5	0.7833541
5	0x3f15db30	0.5853758
6	0x3ead75b6	0.3387887
7	0x3e6b10d7	0.22955643
8	0xbe781254	-0.24225742
9	0xbef60c1e	-0.4805612
10	0x3ec0795e	0.37592596
11	0x3e2d7780	0.16940117
12	0x3b8abe87	0.0042341384
13	0x3f1b94dd	0.6077402
14	0x3eb8aac4	0.36067784
15	0x3ea0d116	0.3140952
16	0x3e7b651a	0.24550286
17	0xbe9beed3	-0.30455646
18	0xbebfcb7e	-0.3745994
19	0xbc2e271e	-0.010629443
20	0x3f344739	0.7042118
21	0xbeb37f3e	-0.35058016
22	0x3ec6a8d5	0.38800684
23	0x3edd6336	0.43239754
24	0x3f70f25f	0.9411983
25	0xbd96c88b	-0.07362469
26	0x3f9a115b	1.2036546
27	0x3eab3fc0	0.33447075
28	0x3f42ea3d	0.7613867
29	0x3eada6eb	0.3391641
30	0xbf147886	-0.57996404
31	0x3efcd92c	0.4938444
32	0x3fb69fdb	1.4267534
33	0xbe4cb9f2	-0.19992808
34	0x3f881d3f	1.0633925
35	0x3dc6bce7	0.09703999
36	0xbf0339d1	-0.51260096
37	0xbc67ba1e	-0.014143495
38	0x3f942123	1.1572613
39	0x3f0defe4	0.5544417
40	0xbf718330	-0.943408
41	0x3f6a2f06	0.91478
42	0x3e04071a	0.12893334
43	0xbec6b84c	-0.38812482
44	0x3f4edfe3	0.80810374
45	0x3e8e75bb	0.27824196
46	0x3f4a4fcb	0.79028004
47	0x3f046101	0.51710516
48	0x3f06b5f1	0.5262137
49	0x3da565d5	0.080760635
50	0x3e322cb0	0.1739986
51	0x3f524b84	0.8214648
52	0xbef2423c	-0.47316158
53	0x3e95a4b4	0.2922722
54	0x3ef36dbb	0.47544655
55	0x3f43de44	0.76511025
56	0xbeba50b0	-0.36389685
57	0x3e1ee472	0.15516832
58	0xbe31dc53	-0.17369203
59	0x3f112bfb	0.56707734
60	0x3e8ab4e0	0.27091122
61	0x3e58f614	0.21187621
62	0xbd9caa6a	-0.076496914
63	0xbcfe08ff	-0.031010149
64	0xbf365966	-0.7123016
65	0x3f8768c1	1.0578843
66	0x3ee3714a	0.4442237
67	0x3f293d50	0.6610918
68	0xbe4854a8	-0.19563544
69	0x3f446205	0.76712066
70	0x3d1ff077	0.039047685
71	0x3d8f4bb2	0.069968596
72	0x3efcf625	0.49406543
73	0xbe2b1738	-0.16708076
74	0x3e93e1d7	0.2888324
75	0x3e2c0f8a	0.16802803
76	0x3eb63fd7	0.3559558
77	0x3edf4bc7	0.436125
78	0x3f520b6d	0.82048684
79	0x3e92201c	0.28540123
80	0xbe2972cf	-0.16547702
81	0x3e769eaf	0.2408397
82	0x3e7bc184	0.24585539
83	0x3e746790	0.23867631
84	0x3f54d1b6	0.83132493
85	0x3f480d7a	0.78145564
86	0x3e632e7c	0.22185701
87	0x3ed5e8b7	0.4177911
88	0x3f8d968b	1.1061567
89	0x3e3fd500	0.18733597
90	0xbef27989	-0.4735835
91	0x3e7fd0b7	0.24981962
92	0x3b24af4e	0.0025128904
93	0x3f68f78f	0.91002744
94	0x3d9dfa60	0.07713771
95	0xbcca6d72	-0.02471039
96	0x3db68ea9	0.08913929
97	0x3e6f30ba	0.23358431
98	0x3edb626e	0.42848533
99	0x3e2a67b1	0.16641118
100	0x3f4de847	0.8043255
101	0x3e97ce3d	0.29649535
102	0x3e4aa050	0.19787717
103	0xbf1e969f	-0.6194858
104	0x3c868633	0.016421413
105	0x3f33ab99	0.7018371
106	0xbee934bc	-0.45548046
107	0x3e9c1a4f	0.30488822
108	0xbd0fdc37	-0.035122123
109	0xbebd8f58	-0.37023425
110	0x3e12b686	0.1432744
111	0x3e037f4e	0.12841532
112	0x3f12cfde	0.5734843
113	0x3eac66f0	0.33672285
114	0xbd34f59b	-0.04417954
115	0x3f858ab9	1.043296
116	0x3f344c24	0.7042868
117	0xbe2a6b2d	-0.16642447
118	0x3ec46501	0.3835831
119	0x3e33c856	0.17556891
120	0x3a292250	0.00064519513
121	0x3eaacd92	0.33359963
122	0x3d87d993	0.06633296
123	0x3f58e2fb	0.84721345
124	0x3e6db28a	0.23212638
125	0xbf09022b	-0.53518933
126	0x3fc76aff	1.5579528
127	0x3ec27d27	0.3798611
128	0xbcf48a02	-0.029850964
129	0x3ebdbc11	0.37057546
130	0x3e6daea9	0.23211159
131	0x3c5274ba	0.012845213
132	0x3e3e4450	0.18580747
133	0x3daaa72c	0.08332667
134	0xbe53da2b	-0.20688693
135	0x3e81bdcd	0.2534012
136	0xbe83154a	-0.2560218
137	0x3eacb347	0.33730528
138	0x3ee0b268	0.43886113
139	0x3e538b0e	0.20658514
140	0x3e144160	0.14478064
141	0x3e4d6898	0.2005943
142	0xbc3ebe06	-0.011641985
143	0x3de62368	0.11237222
144	0x3d2e3f31	0.042540733
145	0x3d90beef	0.07067668
146	0x3e5df9ee	0.21677372
147	0x3e362c4f	0.1779034
148	0x3d1f9d78	0.038968533
149	0x3de01ca2	0.10942961
150	0x3eb59ed2	0.35472733
151	0x3e053863	0.13009791
152	0x3ea23635	0.31681982
153	0x3ef11682	0.47087485
154	0x3f1aeded	0.60519296
155	0x3e6fde8d	0.2342474
156	0x3e1a2d92	0.15056446
157	0x3dfd7919	0.12376613
158	0x3f3927ce	0.7232636
159	0xbcf66099	-0.030075358
160	0x3b485337	0.0030567178
161	0x3eba293e	0.3635959
162	0xbc756631	-0.014977978
163	0x3e6a87ad	0.22903319
164	0x3e1fac8d	0.15593167
165	0x3e94ee98	0.29088283
166	0x3b1a49ad	0.002354245
167	0x3e312f5a	0.1730322
168	0x3e6f7651	0.23384978
169	0x3d26a4c5	0.04068448
170	0x3ea6c174	0.32569468
171	0x3ebeb33e	0.37246126
172	0xbe886932	-0.26642758
173	0x3dbf3528	0.093363106
174	0x3eedfd0d	0.46482125
175	0x3eca04f0	0.39456892
176	0x3e9e4cff	0.30918118
177	0xbecc18b6	-0.39862603
178	0xbe8220b7	-0.25415584
179	0x3ed19f69	0.40941933
180	0x3e95f464	0.29288018
181	0x3ec04776	0.3755452
182	0x3e868756	0.26275128
183	0xbeb853a5	-0.36001316
184	0x3f05d5f1	0.52279574
185	0xbba4b856	-0.0050268574
186	0xbbc6cd23	-0.0060669347
187	0xbeacfb55	-0.337855
188	0x3e853b7d	0.26021948
189	0x3f3002e5	0.68754417
190	0x3ea888a2	0.32916743
191	0xbdafbd8b	-0.08581074
192	0x3ee6b5bc	0.45060527
193	0x3f4431fb	0.76638764
194	0x3ebe595b	0.37177548
195	0x3ebfb8c5	0.37445655
196	0x3e665a5c	0.22495407
197	0x3ea6ab9a	0.32552797
198	0x3f58940a	0.8460089
199	0x3f497790	0.7869806
200	0x3deb4702	0.11488153
201	0x3e036309	0.12830748
202	0xbda57434	-0.080788046
203	0x3e863580	0.26212692
204	0x3f306a96	0.6891264
205	0xbe9f7a34	-0.3114792
206	0x3de190b0	0.11013925
207	0x3e4e23ba	0.20130816
208	0xbd79410a	-0.06085304
209	0x3e5608c8	0.20901787
210	0xbe17f76e	-0.1484048
211	0xbd1a5791	-0.037681166
212	0x3f4cf958	0.8006797
213	0xbea48cfc	-0.32138813
214	0xbecdd454	-0.40201056
215	0xbddecdbf	-0.10879087
216	0x3f004f2e	0.5012082
217	0x3e8d6df7	0.2762296
218	0x3ec14da2	0.37754542
219	0x3eead0e3	0.45862493
220	0x3e57143a	0.2100381
221	0x3f146322	0.57963765
222	0x3ede639a	0.43435365
223	0x3e2ede7e	0.17077062
224	0xbdf5270b	-0.119703375
225	0xbe2e28fe	-0.17007825
226	0x3f2a5e6e	0.6655034
227	0xbda8486f	-0.082169406
228	0x3dba78fd	0.09105108
229	0x3f0548b4	0.5206406
230	0x3eb2c505	0.3491594
231	0x3e12bc6a	0.14329687
232	0x3eadfe83	0.3398324
233	0x3e57696f	0.21036313
234	0xbc5f6a44	-0.013636176
235	0xbeeffbe7	-0.46871874
236	0xbef73d51	-0.48288968
237	0xbf469e0e	-0.7758492
238	0x3edadeb7	0.42748043
239	0x3f2e0e0c	0.67990184
240	0x3ea912cf	0.33022162
241	0xbe4a53a5	-0.1975847
242	0x3e098562	0.13429788
243	0x3e64f418	0.2235874
244	0x3e056464	0.13026577
245	0x3e054f81	0.1301861
246	0x3eb60a72	0.35554844
247	0x3e290b2f	0.16508172
248	0xbe84e239	-0.25953844
249	0x3c9dc50f	0.019259004
250	0x3e6c3774	0.23068029
251	0x3cbf05f0	0.02331826
252	0xbdbddf68	-0.09271127
253	0x3f364f55	0.712148
254	0xbe9cdfeb	-0.30639586
255	0x3dc01883	0.09379675

lstm.bias_hh_l0 f4 [512]
0	0xbd517ead	-0.051146198
1	0x3d5f0980	0.05445242
2	0x3f168f58	0.58812475
3	0xbe951ef1	-0.2912517
4	0x3f3ec120	0.74513435
5	0x3f161692	0.5862819
6	0x3eb14e23	0.34629926
7	0x3e900302	0.28127295
8	0xbe39b147	-0.18134032
9	0xbf06c29c	-0.526407
10	0x3eb14718	0.34624553
11	0x3d9cd2ff	0.07657432
12	0x3d3b3567	0.045705225
13	0x3f05645b	0.52106255
14	0x3eac51fa	0.33656293
15	0x3e8aacb9	0.27084902
16	0x3e95b5fb	0.29240403
17	0xbe83cd7a	-0.25742704
18	0xbea7eefe	-0.32799524
19	0xbb810f14	-0.003938565
20	0x3f356b9b	0.7086732
21	0xbe930bc4	-0.28719914
22	0x3ecba5e4	0.39775002
23	0x3eaf1ce0	0.34201717
24	0x3f810c8b	1.0081953
25	0xbcd17219	-0.025567101
26	0x3f988ecf	1.1918582
27	0x3eb5b88e	0.35492367
28	0x3f3312f7	0.69950813
29	0x3ea8afe6	0.329467
30	0xbf211f01	-0.62937933
31	0x3f107711	0.5643168
32	0x3fbaa8a8	1.458272
33	0xbe225a92	-0.15854862
34	0x3f8857ad	1.0651757
35	0x3df4270d	0.11921511
36	0xbf0adde9	-0.5424486
37	0xbd2dd53e	-0.04243969
38	0x3f900a57	1.1253155
39	0x3f0951e0	0.53640556
40	0xbf6aad0b	-0.9167029
41	0x3f76c70d	0.9639748
42	0x3dc72e41	0.09725619
43	0xbebd6468	-0.36990666
44	0x3f52a100	0.82276917
45	0x3e63a16e	0.2222955
46	0x3f5a5be9	0.85296494
47	0x3eec41f9	0.46144083
48	0x3ee625ec	0.44950807
49	0x3dee62c3	0.11639931
50	0x3e75de8e	0.24010679
51	0x3f51dcb5	0.819774
52	0xbee8268f	-0.45341918
53	0x3e9f727a	0.31142026
54	0x3ed19479	0.40933588
55	0x3f57da75	0.84317714
56	0xbe901a88	-0.28145242
57	0x3df93ac9	0.121694155
58	0xbe4b9b13	-0.19883375
59	0x3f1240ce	0.57130134
60	0x3e930c4c	0.2872032
61	0x3e4e2f55	0.20135243
62	0xbe1480fd	-0.1450233
63	0xbd848523	-0.06470706
64	0xbf43f192	-0.7654048
65	0x3f86f3ae	1.0543115
66	0x3eef8dfd	0.46788016
67	0x3f210dae	0.629115
68	0xbe478148	-0.1948291
69	0x3f423bdf	0.75872606
70	0x3d48c861	0.04901922
71	0x3d98c133	0.07458725
72	0x3ef8a3f1	0.48562577
73	0xbe3c2f9f	-0.18377541
74	0x3e9448e4	0.2896186
75	0x3e23fb3b	0.16013806
76	0x3ec93f5a	0.39306146
77	0x3ed94652	0.42436463
78	0x3f567ae5	0.8378127
79	0x3e5ddfda	0.21667424
80	0xbdc6cb19	-0.097067066
81	0x3e3f85c4	0.18703371
82	0x3e5b820d	0.21436329
83	0x3e5ac45d	0.21363969
84	0x3f541a22	0.82852376
85	0x3f59b8f7	0.8504786
86	0x3e5fac25	0.21843012
87	0x3ed9262b	0.42411932
88	0x3f90e81e	1.1320837
89	0x3e5e32b4	0.21699029
90	0xbed89bb4	-0.42306292
91	0x3ea34785	0.31890503
92	0xbbbbc2c4	-0.005730005
93	0x3f6f5059	0.93481976
94	0x3df43386	0.1192389
95	0x3c579f91	0.013160602
96	0x3dd7f0ab	0.10543951
97	0x3e9f40bd	0.3110408
98	0x3ece9a56	0.40352124
99	0x3df9fb91	0.122061856
100	0x3f5dd993	0.86660117
101	0x3e9ac0d0	0.3022523
102	0x3e776f44	0.24163538
103	0xbf2358c4	-0.6380732
104	0xbd14061f	-0.03613865
105	0x3f37eeaa	0.7184855
106	0xbef877c8	-0.48528886
107	0x3ebacafb	0.36482987
108	0xbcb5d4e0	-0.022196233
109	0xbe9ce2e5	-0.30641857
110	0x3e179ddf	0.14806317
111	0x3db3f1ca	0.08786352
112	0x3ef4679a	0.47735292
113	0x3e9e4565	0.3091232
114	0xbd91e2b8	-0.07123321
115	0x3f7e5640	0.9935036
116	0x3f37294a	0.7154738
117	0xbe828afa	-0.25496656
118	0x3ec4e9f7	0.3845975
119	0x3e38cbae	0.18046448
120	0xbd748fd3	-0.059707474
121	0x3ea93481	0.3304787
122	0x3e037311	0.12836863
123	0x3f5ee3fa	0.87066615
124	0x3e658cf9	0.22417058
125	0xbf02ab32	-0.51042473
126	0x3fbcd622	1.4752848
127	0x3eca5912	0.3952108
128	0xbd10fc32	-0.035396762
129	0x3e99617b	0.29957184
130	0x3e6dbce1	0.23216583
131	0x3d94ea22	0.0727122
132	0x3e7f30d3	0.24920969
133	0x3d1a9763	0.03774203
134	0xbe65a361	-0.22425605
135	0x3e7e3980	0.24826622
136	0xbe775948	-0.24155152
137	0x3e9e8b15	0.30965486
138	0x3ef5076e	0.4785723
139	0x3e54a9a7	0.20767842
140	0x3e0929dc	0.13394874
141	0x3e557d99	0.20848693
142	0x3ca20ca0	0.01978141
143	0x3cd56bac	0.026052319
144	0x3d90ecef	0.070764415
145	0x3d22bedd	0.039732803
146	0x3e8fdb04	0.28096783
147	0x3e3e1bd0	0.18565297
148	0x3d3fc82b	0.046821754
149	0x3d431fde	0.047637813
150	0x3e974cf1	0.2955089
151	0x3e0eea47	0.13956557
152	0x3e94d92c	0.2907194
153	0x3ed608a0	0.41803455
154	0x3f1cd9d7	0.612699
155	0x3e8bb651	0.27287534
156	0x3e1945b4	0.14967996
157	0x3e0e5de9	0.13903011
158	0x3f38a373	0.72124404
159	0x3d24596d	0.040124346
160	0x3cd89572	0.026438449
161	0x3e9ea4cc	0.30985105
162	0x3d1d6656	0.038427673
163	0x3e72c64a	0.23708454
164	0x3e1cf283	0.15326886
165	0x3e588d70	0.21147704
166	0xbceffd97	-0.029295726
167	0x3e54e4a1	0.2079034
168	0x3e8de3e4	0.2771293
169	0x3c06dc68	0.00823126
170	0x3ed200e1	0.41016296
171	0x3ec8b641	0.3920155
172	0xbe91d075	-0.28479353
173	0x3e0222d1	0.12708594
174	0x3f05bf51	0.5224505
175	0x3ee20a2a	0.4414838
176	0x3e9317fa	0.2872923
177	0xbed281f7	-0.4111478
178	0xbe6fd7fe	-0.23422238
179	0x3ecf12ce	0.40444034
180	0x3ea6c1c0	0.32569695
181	0x3ed408a7	0.4141285
182	0x3e62d054	0.22149783
183	0xbec1ceb6	-0.3785302
184	0x3f0b4e06	0.5441593
185	0x3cbad5e5	0.022807071
186	0xbd137874	-0.036003545
187	0xbeb63232	-0.3558517
188	0x3e6f0325	0.23341043
189	0x3f3bef78	0.73412275
190	0x3e8ff835	0.28119054
191	0xbcac40bd	-0.021026963
192	0x3ef2dd9b	0.47434697
193	0x3f433b67	0.76262516
194	0x3eb7a9d3	0.35871753
195	0x3edf9b34	0.43673098
196	0x3e7b3c6c	0.24534768
197	0x3e8b42a4	0.2719928
198	0x3f4a70cc	0.79078364
199	0x3f4c3391	0.79766184
200	0x3d9e1410	0.0771867
201	0x3df15d17	0.117853336
202	0xbd71fcdf	-0.059079047
203	0x3e88902e	0.266725
204	0x3f37e8e5	0.71839744
205	0xbe92023a	-0.28517324
206	0x3d8f8657	0.07008045
207	0x3dddcaca	0.108296946
208	0xbdf7b367	-0.12094765
209	0x3e418717	0.18899189
210	0xbd9c829e	-0.07642101
211	0xbc1d9713	-0.009618538
212	0x3f610788	0.87902117
213	0xbe9d38cf	-0.30707404
214	0xbeb942b4	-0.36183703
215	0xbe16ce14	-0.1472705
216	0x3f03f2aa	0.5154215
217	0x3e9cafa7	0.30602762
218	0x3eb08473	0.3447605
219	0x3ede6890	0.4343915
220	0x3e3de584	0.18544585
221	0x3f0f93f0	0.5608511
222	0x3ef11276	0.47084397
223	0x3e1fc5f4	0.15602857
224	0xbe14e906	-0.14542016
225	0xbe3ea72c	-0.18618459
226	0x3f34ec25	0.7067283
227	0xbdeb49f4	-0.11488715
228	0x3dc036e8	0.093854725
229	0x3f0397a6	0.5140327
230	0x3eb5a788	0.3547938
231	0x3e2e24f0	0.17006278
232	0x3eab9447	0.33511564
233	0x3e51d570	0.20491576
234	0xbd897567	-0.06711846
235	0xbef67384	-0.48135006
236	0xbf0a849d	-0.541086
237	0xbf484e05	-0.7824405
238	0x3eee11aa	0.46497852
239	0x3f2dbc76	0.67865694
240	0x3e787477	0.24263178
241	0xbde333ee	-0.11093889
242	0x3e102ed0	0.14080358
243	0x3e95eabd	0.29280654
244	0x3e4962f1	0.1966665
245	0x3d3da822	0.046302922
246	0x3ee2ff7a	0.44335538
247	0x3e20395c	0.15646881
248	0xbe6a53e0	-0.22883558
249	0x3d35409d	0.044251073
250	0x3e63ad92	0.2223418
251	0xb9973128	-0.0002883759
252	0xbbc815ef	-0.0061061303
253	0x3f2d9ede	0.6782054
254	0xbe9ee1b1	-0.31031564
255	0x3cc6d04f	0.024269251

fc.weight f4 [89, 128]
0	0xc00ba06c	-2.1816664
1	0xbd30a3ac	-0.04312484
2	0xbf543d1d	-0.8290575
3	0xbd8d70e5	-0.069062985
4	0x3ef6db12	0.48214012
5	0xbf701569	-0.9378267
6	0x3f477290	0.77909184
7	0xbed93227	-0.42421076
8	0xbf19234c	-0.59819484
9	0x3ec5115f	0.38489816
10	0x3fb483c7	1.4102715
11	0x3fc9b26b	1.5757574
12	0x3db20b14	0.08693519
13	0xbfa9da3f	-1.3269728
14	0x3f53d6f5	0.82749873
15	0x3fd2ba6d	1.6463143
16	0x3f003b24	0.5009024
17	0x3e010cf1	0.12602593
18	0xbf909ea6	-1.1298416
19	0x3fd48b82	1.6605074
20	0x3f78b9a7	0.97158283
21	0x4001c03f	2.0273588
22	0xbf43ce95	-0.76487094
23	0xbc83a79b	-0.016071131
24	0x3b9854f1	0.0046487977
25	0xbfbeead2	-1.4915411
26	0x3cb2e8a5	0.02183945
27	0x400efc45	2.2341473
28	0x3edc858f	0.43070647
29	0x3e2cce6d	0.1687562
30	0x3ef23650	0.47307062
31	0xbf5e6f1d	-0.86888295
32	0x3f5cf990	0.863183
33	0xc01a45da	-2.4105134
34	0x400a4fb8	2.1611156
35	0x3f8928a7	1.0715531
36	0x3e087c86	0.13328752
37	0x3f9c95cf	1.2233218
38	0xbed51502	-0.4161759
39	0x3e8d5c07	0.27609274
40	0xbf2c4013	-0.6728527
41	0x3eadf426	0.33975333
42	0x3f1125ae	0.5669812
43	0x3f657837	0.8963656
44	0x3f80c399	1.0059692
45	0xbf9b4b95	-1.2132441
46	0x3e4c8cc3	0.19975571
47	0xbe436aba	-0.19083682
48	0x3ea2dfbb	0.31811318
49	0x3e147ff1	0.14501931
50	0xbfa56472	-1.2921278
51	0x3ef791f8	0.48353553
52	0x3ef0e2ce	0.47048038
53	0x3f2c5d72	0.67330086
54	0xbf4a318b	-0.78981847
55	0x3ec4ad47	0.3841345
56	0xbe94139d	-0.28921214
57	0xbff03658	-1.8766584
58	0x3f8915d7	1.070979
59	0x3f2fed61	0.68721586
60	0x3eadfbec	0.33981264
61	0x3eec2cdb	0.46127972
62	0xbec091a9	-0.3761113
63	0x3d971af0	0.07378185
64	0xbe724412	-0.2365878
65	0xbf96a14e	-1.1767976
66	0xbec1264e	-0.37724537
67	0x3bf509aa	0.0074779587
68	0xbfabb3b3	-1.3414215
69	0xbf870291	-1.0547658
70	0xbf8c0d49	-1.0941554
71	0x3fd5b8b2	1.669699
72	0xbe42d66a	-0.19027105
73	0x3ca4c953	0.02011553
74	0xbfb8fba4	-1.4451795
75	0x3f1cba13	0.61221427
76	0xbf5e5db0	-0.86861706
77	0xbec6e899	-0.38849333
78	0xbfa4aea5	-1.2865797
79	0xbeb531f6	-0.3538968
80	0xbf367796	-0.71276224
81	0xbf1e1b6b	-0.61760587
82	0xbed2f27c	-0.41200626
83	0x3fd4fb71	1.6639234
84	0x3e0262b9	0.12732972
85	0x3f156de2	0.5837079
86	0x3fcb8c16	1.5902126
87	0xbf18e6e0	-0.5972729
88	0xbdf36f24	-0.11886433
89	0xbeace98b	-0.3377193
90	0xbfdb7f0c	-1.7148147
91	0xc00c4fb4	-2.1923647
92	0xbfbc720e	-1.4722307
93	0x3f0356a5	0.51304084
94	0x3f76009c	0.9609468
95	0xbeb8ad61	-0.36069778
96	0x3f1c1a4a	0.60977614
97	0x3f7e96f0	0.9944906
98	0x3f2bec72	0.6715766
99	0x3e82c971	0.25544313
100	0xbf109e7a	-0.56491816
101	0xbf937e6c	-1.1522956
102	0x3ea01b64	0.31270897
103	0x3eb3aed2	0.35094315
104	0xbf1edcda	-0.6205574
105	0x3b9c80ab	0.0047760806
106	0xbe4a636e	-0.19764492
107	0xbf7d7009	-0.9899908
108	0xbe3e74b7	-0.1859921
109	0xbf7e15b2	-0.99251854
110	0x400c9fe7	2.1972597
111	0x4027810e	2.6172519
112	0xc019a557	-2.4007165
113	0x3fe557b3	1.7917389
114	0x3f744cd0	0.95429707
115	0x3fbe0028	1.4843798
116	0xbf153772	-0.5828773
117	0xbf87c43e	-1.0606763
118	0xbe6ae105	-0.229374
119	0xbfee1d98	-1.8602781
120	0x3f4a1c46	0.7894939
121	0x3f72186f	0.9456853
122	0xc00e9c9f	-2.2283094
123	0xbe93dcdb	-0.28879437
124	0xbf059b6a	-0.5219027
125	0x3ee483a4	0.44631684
126	0xbfa00153	-1.2500404
127	0x3eae8e11	0.34092763
128	0xbf3e9dfb	-0.7445981
129	0xbe19b788	-0.15011418
130	0xbfc3c36f	-1.5294017
131	0xbf776564	-0.96639085
132	0x3f9e1cca	1.2352536
133	0x3f04aa35	0.51822215
134	0x3de419ea	0.11137755
135	0x3e94f2c4	0.29091465
136	0xbd75d10f	-0.060013827
137	0xbf3add09	-0.7299352
138	0x3d9d7338	0.07687992
139	0xbeae116d	-0.3399767
140	0x3f056677	0.52109474
141	0xbd6ec14e	-0.05828982
142	0xbf4853ae	-0.78252685
143	0xbe95e00d	-0.292725
144	0x3f1e1ff6	0.6176752
145	0x3f0b9f39	0.5453983
146	0xbf86f297	-1.0542783
147	0x3f8ce6c4	1.1007924
148	0xbefa38f9	-0.48871592
149	0xbf568854	-0.8380177
150	0x402e0d01	2.7195437
151	0xbea4a85c	-0.32159698
152	0x3d4c19c5	0.049829263
153	0x3f4b14cc	0.7932861
154	0x3ee54a98	0.44783473
155	0xbfb719c1	-1.4304734
156	0xbde2bb2a	-0.11070855
157	0xbe065823	-0.13119559
158	0x3eaeb5f7	0.34123203
159	0xbf80bb67	-1.0057191
160	0x4036fa24	2.8590174
161	0xbf1c7c2d	-0.6112698
162	0xbfa9b8b9	-1.3259498
163	0xbea8bdad	-0.3295721
164	0xbef81b7f	-0.48458478
165	0xbf5f9563	-0.8733732
166	0x3f1bd399	0.6086975
167	0x3d2c5785	0.042075653
168	0x3f1de6fc	0.6168058
169	0x4002c401	2.0432131
170	0xbfa8ec0a	-1.3197033
171	0x3d690324	0.05688776
172	0xbe39201b	-0.18078654
173	0xbf0554be	-0.5208243
174	0x3f2d51f0	0.6770315
175	0xbf17d109	-0.5930334
176	0xbf566c48	-0.83758974
177	0xbe848f16	-0.25890416
178	0xbee92c65	-0.45541683
179	0x3f829c60	1.0203972
180	0x3f20e132	0.6284362
181	0x3f6020cd	0.8755005
182	0xbf88d68f	-1.0690478
183	0x3d5577d3	0.052116226
184	0x3f0ae296	0.5425199
185	0x3ebfb8e1	0.3744574
186	0x3f582c3c	0.84442496
187	0xbfc81521	-1.5631448
188	0x3ed55038	0.41662765
189	0x3de34ee5	0.11099032
190	0x3f826da7	1.0189713
191	0x3f2a2f79	0.6647869
192	0xbe57d405	-0.21076973
193	0x3e91c856	0.28473157
194	0xbdcc19cb	-0.09965857
195	0x3f01a359	0.50639874
196	0xbfcebb45	-1.61509
197	0xbf12f93c	-0.5741155
198	0x3f1b1330	0.6057615
199	0x3f192760	0.59825706
200	0xbf6939ec	-0.91104007
201	0x3dcdd81e	0.10050987
202	0x3f0ef3b4	0.5584061
203	0x3f48fb0a	0.78508055
204	0xbfddf6bc	-1.7340922
205	0xbee4691d	-0.44611445
206	0x3e58426a	0.21119085
207	0xbf810875	-1.0080706
208	0xbf2d317f	-0.6765365
209	0xbf207e60	-0.6269283
210	0x3f4e99b1	0.80703264
211	0x3f571c7a	0.84027827
212	0xbe59cc2f	-0.21269296
213	0xbf3f7821	-0.7479268
214	0x3f1d8ff7	0.615478
215	0xbde23da6	-0.11046915
216	0xbebb361d	-0.36564723
217	0xbe65ecbf	-0.22453593
218	0x3f5c7554	0.8611653
219	0xbf563d53	-0.83687323
220	0x3f491374	0.7854531
221	0x3fa64d48	1.2992334
222	0x3f952c01	1.1654054
223	0xbe62788e	-0.221163
224	0xbedbd3d2	-0.42935044
225	0xbfa90c62	-1.3206904
226	0xbeeb4993	-0.4595457
227	0xbf0b871d	-0.5450304
228	0xbfbee0e0	-1.4912376
229	0xbf44720c	-0.7673652
230	0xbf06dd64	-0.52681565
231	0xbe92654c	-0.28592908
232	0x3e968e6e	0.2940554
233	0x3f634101	0.88771063
234	0xbf6e3b3f	-0.9305915
235	0x3e8901de	0.26759237
236	0x3fa814a4	1.3131299
237	0x3f9241a9	1.1426288
238	0xbf8e9037	-1.1137761
239	0xbe5ca23a	-0.2154626
240	0xc00b59bc	-2.177352
241	0x3f3ca5f2	0.7369071
242	0x3e48d85a	0.19613782
243	0xbf84f31d	-1.0386692
244	0xbfe06d66	-1.7533386
245	0xbe9c1328	-0.30483365
246	0xbfa0d547	-1.2565087
247	0x3e3b8d5b	0.18315642
248	0x3ebe69b6	0.37190026
249	0xbf540cd0	-0.8283205
250	0x3e4fde1b	0.2029957
251	0x3f4b4fb1	0.79418474
252	0x3df049b6	0.11732809
253	0x3ebaa31c	0.36452568
254	0xbfbafc3d	-1.4608227
255	0xbeb91ab3	-0.36153182

fc.bias f4 [89]
0	0xbe6f2107	-0.23352443
1	0xbfc964b0	-1.5733852
2	0xbfc6317f	-1.5483855
3	0xbfcb0dc4	-1.5863576
4	0xbfc27b5f	-1.51939
5	0xbfc921d9	-1.5713454
6	0xbfc9f7d7	-1.577876
7	0xbfc20333	-1.5157226
8	0xbfc109e1	-1.508114
9	0xbfcb7e46	-1.589791
10	0xbfbe0120	-1.4844093
11	0xbfc0996c	-1.5046821
12	0xbfc2fe90	-1.5233936
13	0xbfc999e7	-1.5750092
14	0xbfc722a6	-1.5557449
15	0xbfc8cc85	-1.5687414
16	0xbfc934c9	-1.5719234
17	0xbfc1fd74	-1.5155473
18	0xbfc56ec2	-1.5424426
19	0xbfbcd447	-1.4752282
20	0xbfc62f56	-1.5483196
21	0xbfbbe1b0	-1.4678249
22	0xbfc389fd	-1.5276486
23	0xbfc7cc63	-1.5609249
24	0xbfb73f7a	-1.4316247
25	0xbfc42616	-1.5324123
26	0xbfbdc9de	-1.482723
27	0xbfc4c20c	-1.5371718
28	0xbfbf0b2f	-1.4925288
29	0xbfc71cff	-1.5555724
30	0xbfc2a8f1	-1.5207807
31	0xbfc4e78d	-1.5383164
32	0xbfca676f	-1.5812815
33	0xbfc3f26c	-1.5308356
34	0xbfc7aee8	-1.5600252
35	0xbe961213	-0.29310665
36	0x3e159775	0.14608558
37	0xbea82ac7	-0.32845137
38	0x3d3993dd	0.04530703
39	0xbf13df34	-0.57762456
40	0x3f4d3ecc	0.80173945
41	0x3e818dfc	0.25303638
42	0xbf4a68a2	-0.79065907
43	0xbfab02a7	-1.3360184
44	0xbece3165	-0.4027206
45	0xbfee59f4	-1.8621202
46	0xbf9533b2	-1.1656401
47	0x3fc3b36c	1.528913
48	0xbe18d3a2	-0.14924482
49	0xbd74aa3e	-0.059732668
50	0xbf26e796	-0.6519712
51	0x3f020ef7	0.50804085
52	0x3e894888	0.2681315
53	0x3f6fb4f8	0.9363551
54	0xbd303695	-0.043020803
55	0xbf82cdd6	-1.0219066
56	0x3f595a25	0.84903175
57	0xbd83d6d0	-0.064374566
58	0x3da63938	0.08116382
59	0xbd69f360	-0.057116866
60	0xc05847ad	-3.3793747
61	0xbf03d396	-0.5149473
62	0x3e3fe96d	0.18741389
63	0xbe4e122a	-0.20124117
64	0x3ecaa1e4	0.39576638
65	0xbed44929	-0.41462067
66	0xbe85141c	-0.25991905
67	0xbfbbbccf	-1.4666995
68	0xbca015de	-0.019541677
69	0xbfbc2b58	-1.4700727
70	0xbfc14fee	-1.5102518
71	0xbfccba07	-1.5994271
72	0xbfc4a088	-1.536149
73	0xbfc2b39c	-1.5211062
74	0xbfca8cfe	-1.5824277
75	0xbfc51e0c	-1.5399795
76	0xbfbb2485	-1.462052
77	0xbfb8fd70	-1.4452343
78	0xbfc54716	-1.5412319
79	0xbfc2383c	-1.5173411
80	0xbfb9f743	-1.4528583
81	0xbfc074e5	-1.5035673
82	0xbfcc96f1	-1.5983564
83	0xbfc3c79a	-1.5295289
84	0xbfcd5ced	-1.6043984
85	0xbfc41420	-1.5318642
86	0xbfc58651	-1.5431615
87	0xbfbe5709	-1.4870311
88	0xbfbd1d89	-1.4774638
