src/models/nottingham/runs/Nov27-18_14:16:33/generator_state.pt (torch_old, 467187 bytes, 7 tensors)

embedder.weight f4 [89, 64]
0	0x3f233193	0.6374752
1	0xbf3fce35	-0.7492402
2	0x3bdfeae0	0.006833419
3	0x3f88be1f	1.068302
4	0x3e030433	0.1279457
5	0x3eefdca8	0.46848035
6	0x3f13aa4d	0.57681733
7	0xbf9cdfd4	-1.2255807
8	0x3cbbbc23	0.022916859
9	0xbec001ae	-0.37501281
10	0x3fe0b13f	1.7554091
11	0xbc55955f	-0.013036101
12	0x3e483c22	0.19554189
13	0x3e769c0c	0.24082965
14	0xbf8b922a	-1.0903981
15	0xbf02bacc	-0.5106628
16	0x3f47ef59	0.7809959
17	0xbf07c1bc	-0.5302999
18	0x3ed7ae35	0.42125097
19	0xbed78cdf	-0.42099664
20	0x3c89e270	0.016831607
21	0xbf0a4817	-0.5401625
22	0x3f0d3a35	0.5516694
23	0x3e5e9762	0.21737435
24	0xbee659e7	-0.44990465
25	0x3f401963	0.7503874
26	0xbedda50b	-0.4328998
27	0x3f28e5d0	0.65975666
28	0xbecb9497	-0.39761803
29	0xbefeb48f	-0.4974713
30	0x3e84d745	0.25945488
31	0xbfbbfb42	-1.4686053
32	0x3dd80970	0.10548675
33	0x3f9aadbc	1.208427
34	0xbe631e5c	-0.2217955
35	0x3eb54061	0.3540068
36	0xbf1da59b	-0.6158082
37	0x3df992d5	0.12186209
38	0xbebe55c9	-0.37174824
39	0x3e30ed04	0.17277914
40	0x3e10bf2e	0.1413543
41	0xbf19e8bb	-0.60120744
42	0x3db37f7c	0.0876455
43	0xbe089031	-0.13336255
44	0x3f64076e	0.89073837
45	0xbf4a2cd9	-0.7897468
46	0xbe5cdf86	-0.21569642
47	0x3dae2791	0.085036404
48	0xbf3c5373	-0.73564833
49	0xbfa1a36d	-1.2627999
50	0xbe90875e	-0.28228277
51	0x3f8caadb	1.0989641
52	0xbf58d103	-0.84693927
53	0x3d453615	0.04814728
54	0x3f2bcae3	0.67106456
55	0x3f3d7431	0.7400542
56	0x3ed161e6	0.40895003
57	0xbe12e487	-0.14344989
58	0xbeadc9d4	-0.33943045
59	0xbf8f982c	-1.1218314
60	0xbe503d6a	-0.20335928
61	0xbf09d5ca	-0.5384184
62	0x3e989793	0.29803142
63	0xbe571420	-0.21003771
64	0x3cd6ded2	0.026229296
65	0xbc831dac	-0.01600536
66	0xbd360d4d	-0.04444628
67	0xbcfbdda3	-0.030745333
68	0xbc456ee8	-0.012050368
69	0x3cc86566	0.024462413
70	0xbd13ce36	-0.03608533
71	0xbba07ac0	-0.0048974454
72	0xbc35a478	-0.011086576
73	0xbc8490aa	-0.016182262
74	0x3d20f151	0.039292637
75	0xbc0db3f4	-0.008648861
76	0xbcb9e097	-0.0226901
77	0xbca33523	-0.019922798
78	0x3d19301b	0.037399393
79	0xba731a80	-0.0009273663
80	0xbcab8e3d	-0.020941848
81	0xbce0b49a	-0.027429868
82	0x3cc3c5a6	0.023897957
83	0xbd4b0ada	-0.049570896
84	0x3bf02990	0.0073291734
85	0x3cd91922	0.026501242
86	0xbc9db047	-0.019249095
87	0xba686ac0	-0.00088660046
88	0x3cd47dce	0.025938895
89	0xbd04316d	-0.0322737
90	0xbce81970	-0.028332442
91	0x3be0d3e8	0.0068611987
92	0xbc9df357	-0.019281073
93	0xbbd5c440	-0.006523639
94	0x3c95cf22	0.018287245
95	0xbd18bd6d	-0.037290026
96	0x3d04e461	0.03244436
97	0xbd391303	-0.045184147
98	0x3d44cff7	0.048049893
99	0xbd1f4833	-0.038887214
100	0x3c85a4d2	0.016313944
101	0x3cc88a12	0.0244799
102	0x3d0a7f35	0.03381272
103	0x3bdc6ee8	0.0067270882
104	0x3c971506	0.018442642
105	0x3b026c20	0.0019900873
106	0xbd2e6765	-0.042579073
107	0xbcf4b8f0	-0.029873341
108	0x39fae680	0.00047855452
109	0xbba9e9d8	-0.005185347
110	0xbd08ae98	-0.03336963
111	0xbc1f940c	-0.009739887
112	0xbcd4d1fa	-0.02597903
113	0xbcea9017	-0.02863316
114	0xbc236774	-0.009973396
115	0xbcbc6fd0	-0.023002535
116	0xbd1e7806	-0.038688682
117	0xbc8b1320	-0.016976893
118	0xbd296192	-0.041352816
119	0x3c50c2cc	0.012741756
120	0x3a9963a0	0.0011702664
121	0x3d3b7897	0.0457693
122	0x3d085749	0.033286367
123	0x3d3f6e15	0.04673584
124	0x3c5c1ddc	0.013434853
125	0x3d165681	0.03670359
126	0xbd12182d	-0.035667587
127	0xbd317f6d	-0.043334413
128	0x3cd1e352	0.02562109
129	0xbc3c7db4	-0.011504579
130	0x3d187fe9	0.03723136
131	0x3d4690c7	0.048477914
132	0x3c60a09c	0.013710167
133	0xbc3af0e8	-0.011409976
134	0xbcef42fd	-0.029206747
135	0x3d3520cb	0.044220727
136	0x3a013cc0	0.0004930012
137	0x3d0a5899	0.0337759
138	0x39ea1280	0.00044645742
139	0xbd0f3968	-0.034966856
140	0x3d453639	0.048147414
141	0xbc608bf8	-0.013705246
142	0x3c75ca0c	0.015001785
143	0x3c9a6c0a	0.018850345
144	0x3cf1a72a	0.029498655
145	0x3cd4106a	0.025886733
146	0x3b801458	0.003908675
147	0x3c7fc88c	0.015611779
148	0xbcd8ceed	-0.026465857
149	0xbd3f121a	-0.046648122
150	0xbb973518	-0.0046144836
151	0x3c688544	0.014191929
152	0xbd0d32c2	-0.034472235
153	0x3d47f727	0.048819687
154	0x3d37a2df	0.04483306
155	0xbd38e932	-0.045144267
156	0xba809860	-0.0009811036
157	0x3d318267	0.043337252
158	0xbd1fd4ae	-0.039021187
159	0x3b342020	0.0027484968
160	0xbc8d1b0c	-0.017224811
161	0xbba50e68	-0.0050371177
162	0xbd24317b	-0.04008625
163	0x3d425029	0.047439728
164	0xbcf83b3a	-0.030301679
165	0x3d2c61d5	0.042085487
166	0x3d24042d	0.040043045
167	0x3d33c4e3	0.043888938
168	0xbca4ab3d	-0.020101184
169	0xbbd7cbe8	-0.006585587
170	0x3cf6fcf2	0.03014991
171	0xbd201d8b	-0.039090674
172	0x3d39f847	0.04540279
173	0x3d48b4c9	0.049000535
174	0xbc7b3740	-0.015332997
175	0x3cb2852a	0.021792013
176	0xbd186f3e	-0.037215464
177	0x3d03698f	0.03208309
178	0xbd46321d	-0.048387635
179	0xbd38f0fb	-0.045151692
180	0x3cc5275e	0.024066623
181	0x3c527754	0.012845833
182	0xbd026b7a	-0.03184078
183	0x3d0a02ff	0.033694264
184	0x3d3f19b9	0.04665539
185	0x3d249c31	0.04018802
186	0xbd296880	-0.041359425
187	0x3d29ac1d	0.041423906
188	0xbd149d45	-0.036282796
189	0xbc8d8a1c	-0.01727777
190	0x3d3d56eb	0.04622547
191	0xbd2575b8	-0.04039547
192	0x3cb97702	0.022639755
193	0xbd124c1d	-0.03571712
194	0xbcde2870	-0.027118891
195	0x3cc93dee	0.024565663
196	0x3a9f3d40	0.0012148991
197	0xbc402760	-0.011728138
198	0xbbe4edd0	-0.0069863573
199	0x3c723d94	0.014785189
200	0x3c1fb5d4	0.009747941
201	0x3b58c1b0	0.003307443
202	0xbd0150b4	-0.031571105
203	0xbc3d8060	-0.0115662515
204	0xbd34c38d	-0.044131804
205	0x3aef5440	0.0018259361
206	0xbc680398	-0.014161013
207	0xbbd33328	-0.0064453073
208	0xbc68b398	-0.014202975
209	0x3cd2e1c2	0.025742415
210	0x3d1821e9	0.037141714
211	0x3c1fd68c	0.009755742
212	0x3c85f25e	0.016350921
213	0xbc138838	-0.009004645
214	0x3cb9db0a	0.022687454
215	0xbc5cc138	-0.013473801
216	0x3d092121	0.03347886
217	0xbb6612a0	-0.0035106316
218	0xbcc4f8fd	-0.024044508
219	0xbcf65d20	-0.030073702
220	0xbd2318d0	-0.039818585
221	0xbd0bd64d	-0.03413992
222	0xba165a80	-0.00057355314
223	0xbc050088	-0.008117802
224	0x3ca06c52	0.019582901
225	0x3cd3e5e2	0.025866453
226	0x3c34aa40	0.011026919
227	0x3cff20c2	0.03114355
228	0x3c4a28b8	0.01233881
229	0xbb57e760	-0.0032944307
230	0x3d116361	0.035495166
231	0xbd4c3823	-0.049858224
232	0x3d4cb599	0.049977873
233	0x3c3b6640	0.0114379525
234	0xbbfc0900	-0.0076915026
235	0x3d058fc1	0.032607798
236	0x3d18beef	0.037291463
237	0xbc7575f8	-0.014981739
238	0x3d167dd1	0.03674108
239	0xbd3bc3ab	-0.0458409
240	0x3b349cb0	0.0027559213
241	0x3d0f1627	0.034933235
242	0x3d0f2eb3	0.034956645
243	0x3d428829	0.047493134
244	0x3d453609	0.048147235
245	0xbd1d80c5	-0.038452882
246	0xbc154678	-0.009111039
247	0xbc7b1718	-0.01532533
248	0xbca69230	-0.02033338
249	0xbbee9e30	-0.007282041
250	0x3d351e7f	0.044218536
251	0xbd406430	-0.046970546
252	0x3d2297a9	0.039695416
253	0xbd0964d2	-0.033543415
254	0x3cbf8efe	0.023383614
255	0x3c5b6134	0.013389874

lstm.weight_ih_l0 f4 [512, 64]
0	0x3f22c6cd	0.63584596
1	0xbee232af	-0.44179294
2	0xbf2a56c4	-0.66538644
3	0x3ea8e8fd	0.32990256
4	0xbee1263e	-0.4397449
5	0x3e8d01a2	0.27540308
6	0xbf8978e0	-1.0740013
7	0x3f7f26c3	0.9966852
8	0x3c85abda	0.016317297
9	0xbe918bec	-0.28427064
10	0xbea386dd	-0.3193883
11	0xbf09cabc	-0.53824973
12	0x3e944571	0.2895923
13	0xbe2883aa	-0.16456476
14	0xbf849bab	-1.0360006
15	0x3d232bad	0.039836574
16	0x3eb698a2	0.35663325
17	0x3e898f33	0.26867065
18	0x3ccd1771	0.025035592
19	0x3f6449ca	0.89175093
20	0x3c9c07cd	0.019046688
21	0x3df6bdf4	0.120479494
22	0x3feb1028	1.8364305
23	0x3ee00069	0.43750313
24	0x3fba8bd1	1.4573919
25	0xbd3a46f0	-0.045477808
26	0x3e32aea9	0.1744944
27	0xbf1058b5	-0.56385356
28	0x3f0baf08	0.5456395
29	0xbe70da95	-0.23520882
30	0xbe7a4916	-0.24441943
31	0x3e8f263b	0.27958855
32	0x3f3f05e2	0.7461835
33	0xbe422d47	-0.18962584
34	0xbe105eba	-0.14098635
35	0x3f182d38	0.59444
36	0x3f0bd5b0	0.54622936
37	0x3f8bfef3	1.0937179
38	0xbeb97c51	-0.36227658
39	0x3ea39ab9	0.31953982
40	0xbe8e00b1	-0.27734903
41	0xbf266d5a	-0.6501061
42	0x3f028df9	0.50997883
43	0x3f1415d0	0.57845783
44	0xbf5e5b62	-0.8685819
45	0xbed897ed	-0.4230341
46	0x3ebd851a	0.3701561
47	0x3f00b943	0.50282687
48	0x3e81b5f1	0.25334123
49	0x3fc18402	1.511841
50	0x3e005d8d	0.12535687
51	0x3f539885	0.826546
52	0x3eb36571	0.3503833
53	0xbf336163	-0.70070475
54	0x3deeafd0	0.11654627
55	0x3ed687a6	0.41900367
56	0xbf24be86	-0.64353216
57	0x3f878764	1.0588193
58	0x3fafcad2	1.3733771
59	0x3e353c67	0.17698823
60	0x3e49880a	0.19680801
61	0x3f3c2285	0.7349017
62	0xbfdcf0c8	-1.7260981
63	0xbe98d2b9	-0.2984827
64	0xbdbceeed	-0.09225259
65	0x3bd8bb6c	0.0066141393
66	0xbcd6a4e7	-0.026201678
67	0xbe644b25	-0.2229429
68	0xbe8b0162	-0.27149493
69	0x3e96fcde	0.29489797
70	0xbef223e6	-0.47293013
71	0x3d592d88	0.053021938
72	0xbed57f8c	-0.41698873
73	0x3e089cb9	0.13341035
74	0x3e4953fc	0.19660944
75	0x3eb9c791	0.3628507
76	0x3ed80860	0.4219389
77	0xbf12542a	-0.57159674
78	0x3d2ec6f8	0.04267022
79	0xbe84b618	-0.25920177
80	0x3e1a6fa2	0.15081647
81	0xbf331b3b	-0.69963425
82	0x3e2f0007	0.17089854
83	0x3e695c47	0.22789107
84	0xbb0ab524	-0.0021165097
85	0xbf5800be	-0.8437613
86	0x3f85cc1f	1.0452918
87	0x3e567344	0.20942408
88	0xbe251369	-0.16120686
89	0xbe828d9d	-0.25498667
90	0xbe23b98d	-0.15988751
91	0x3dd60275	0.104496874
92	0xbe4c3fb8	-0.19946182
93	0xbed2a8dd	-0.41144457
94	0xbf1bfba6	-0.6093086
95	0x3f035972	0.5130836
96	0xbeb852d6	-0.360007
97	0xbf200322	-0.6250478
98	0xbe8d12d3	-0.27553424
99	0xbe80deb8	-0.2516992
100	0x3f48bdaf	0.78414434
101	0xbe7eb752	-0.24874619
102	0xbec56361	-0.38552383
103	0x3eb365de	0.35038656
104	0x3e1abb8f	0.1511061
105	0xbe1e11d1	-0.15436484
106	0x3e9f6a86	0.31135958
107	0x3f16ff28	0.5898309
108	0xbede8a37	-0.43464825
109	0x3dd4f6c4	0.10398629
110	0xbf241b34	-0.6410401
111	0x3f24ccbc	0.643749
112	0xbef830fc	-0.48474872
113	0xbeaa8f31	-0.3331237
114	0xbd221ce7	-0.039578345
115	0xbf26f227	-0.65213245
116	0x3f288634	0.6582978
117	0xbea82168	-0.32837987
118	0xbdb1cc0e	-0.086814985
119	0x3f5d6f08	0.86497545
120	0x3e0ff03f	0.1405649
121	0x3f5ecc9c	0.8703096
122	0x3ec0df88	0.3767054
123	0xbf218688	-0.63095903
124	0x3f0357de	0.5130595
125	0xbea9250d	-0.3303608
126	0xbee22304	-0.4416734
127	0x3ea17ceb	0.31540617
128	0x3e911137	0.28333446
129	0xbf0d1d3e	-0.55122745
130	0xbf5bb5cd	-0.8582428
131	0x3db3d19f	0.087802164
132	0x3f0c31b3	0.54763335
133	0xbde2bd65	-0.110712804
134	0x3eae9488	0.34097695
135	0xbe83dd94	-0.25754988
136	0x3f5d54d2	0.8645755
137	0xbe280ac5	-0.16410358
138	0xbf35c916	-0.7100996
139	0x3ef51c7f	0.47873303
140	0xbe3b3de0	-0.18285322
141	0x3ea0d53c	0.31412685
142	0xbf062275	-0.5239633
143	0x3ee124ed	0.43973485
144	0x3f6f9ff6	0.93603456
145	0x3f11170c	0.5667579
146	0xbef894b9	-0.48550966
147	0x3dcfac36	0.101402685
148	0x3e6f02e5	0.23340948
149	0x3ecabb6e	0.39596123
150	0xbe9bd5d8	-0.30436587
151	0xbe79e698	-0.24404371
152	0xbc2c07d0	-0.0104999095
153	0xbed25a8d	-0.4108471
154	0xbea679e3	-0.32514867
155	0xbf5cb8ef	-0.86219686
156	0x3f066073	0.5249092
157	0x3f9e9389	1.2388774
158	0x3f33bb4f	0.70207685
159	0xc01760a3	-2.3652732
160	0x3eb02f8c	0.34411275
161	0x3fe65028	1.7993212
162	0xbde90bed	-0.11379228
163	0x3f91d7ae	1.1393945
164	0x3b82a80b	0.0039873174
165	0xbf060b7d	-0.5236128
166	0x3fba500d	1.455568
167	0xbf9c1c73	-1.2196182
168	0x3d85488c	0.06507978
169	0x3e7b32b3	0.24531059
170	0xbeb96d38	-0.3621614
171	0x3e4f1c1c	0.20225567
172	0x3efa56a8	0.48894238
173	0x3dffa0b3	0.12481823
174	0x3e8ae037	0.27124187
175	0xbe8485ba	-0.25883275
176	0x3f83a67e	1.0285184
177	0xbd4825eb	-0.048864286
178	0x3e0d19d1	0.1377938
179	0xbee16a0a	-0.44026214
180	0x3db276d6	0.087140724
181	0xbf35c575	-0.7100442
182	0xbeec7615	-0.4618384
183	0x3e632da2	0.22185376
184	0xbf0108e4	-0.5040419
185	0xbf557694	-0.8338406
186	0x3ec4e86f	0.38458583
187	0x3f5f4294	0.87210965
188	0xbe166ecd	-0.14690705
189	0xbc6b2878	-0.01435291
190	0x3e8b3fe2	0.27197176
191	0xbf01bef7	-0.50682014
192	0x3e15d776	0.14632973
193	0xbf17bbc6	-0.59270895
194	0x3e0fa920	0.1402936
195	0x3e26e7ce	0.16299364
196	0x3ebfe3c8	0.3747847
197	0x3e198397	0.14991604
198	0xbf1069a3	-0.5641119
199	0x3ecb3b0f	0.39693496
200	0xbe51436e	-0.20435879
201	0x3e0775cf	0.13228534
202	0xbdd24e1d	-0.10268805
203	0xbeee2c45	-0.4651815
204	0x3f774cfd	0.9660185
205	0x3eb3602e	0.35034317
206	0x3e282622	0.16420797
207	0xbf016ad1	-0.50553614
208	0xbdda3309	-0.106542654
209	0xbf76d1e4	-0.9641402
210	0x3eca6916	0.395333
211	0x3e95248f	0.29129454
212	0x3cc2acc3	0.02376402
213	0xbf2e0589	-0.67977196
214	0x3ef7fe78	0.48436332
215	0x3f49cd35	0.78828746
216	0x3f4077c2	0.75182736
217	0x3e8c9957	0.2746074
218	0xbec58f59	-0.38585928
219	0x3e70607e	0.23474309
220	0x3e6e8a26	0.23294887
221	0xbf0c229b	-0.54740304
222	0x3e892c1a	0.2679146
223	0x3f09de14	0.5385449
224	0xbf10989d	-0.5648287
225	0xbeda1a3d	-0.42598143
226	0x3d4ef143	0.050523054
227	0xbe1ea214	-0.15491515
228	0x3f5a58eb	0.8529193
229	0x3eed4e39	0.46348742
230	0xbf4e895c	-0.80678344
231	0x3f87c070	1.0605602
232	0xbdcf8a9e	-0.10133861
233	0xbec803d0	-0.3906541
234	0x3f4815aa	0.78158057
235	0x3c02f07e	0.007991908
236	0xbd5ee770	-0.054419935
237	0x3d69c7cf	0.057075318
238	0x3f68924f	0.9084825
239	0x3e2108c2	0.15725997
240	0xbf2645e1	-0.64950377
241	0x3f3b9921	0.7328053
242	0xbe674aef	-0.22587179
243	0xbe1d2b01	-0.15348436
244	0x3e6e0849	0.23245348
245	0x3dac6dd6	0.08419387
246	0x3df492e4	0.1194208
247	0x3c86bace	0.016446497
248	0x3e3836cf	0.17989658
249	0xbe264b37	-0.1623963
250	0x3f14f73c	0.5818975
251	0xbf16a659	-0.58847576
252	0x3ec443e8	0.38333058
253	0x3f112f2f	0.5671262
254	0xbf93cf22	-1.1547587
255	0xbe6ae893	-0.22940283

lstm.weight_hh_l0 f4 [512, 128]
0	0x3f6cb73a	0.9246708
1	0x3f818774	1.0119462
2	0x3f372b3e	0.7155036
3	0xbddc0f7a	-0.107451394
4	0x3e97908f	0.29602477
5	0x3d7dd32c	0.061968967
6	0xbeda5d25	-0.4264919
7	0xbf471727	-0.777697
8	0xbf622bc1	-0.88348013
9	0x3f058c96	0.5216764
10	0x3f9c12e4	1.2193265
11	0x3ec4cbf4	0.38436854
12	0xbf4c75c8	-0.7986722
13	0x3febbd0e	1.841707
14	0x3e942007	0.28930685
15	0xbf920da5	-1.1410414
16	0xbeaa5609	-0.33268765
17	0xbe74c446	-0.23902997
18	0xbf6b53aa	-0.91924536
19	0xbf4c1335	-0.7971681
20	0xbe18dd7f	-0.14928244
21	0x3f2e9630	0.6819792
22	0xbff32ec9	-1.8998653
23	0xbf2d123b	-0.6760594
24	0x3f970e6b	1.1801275
25	0xbfec9bad	-1.8485008
26	0xbf3d5f1a	-0.7397324
27	0x3f0a01f1	0.5390921
28	0xbe99e615	-0.3005835
29	0xbe0444a7	-0.12916814
30	0xbf85781c	-1.042728
31	0x3d8846bb	0.06654116
32	0xbed66fc1	-0.41882136
33	0x3f57e543	0.843342
34	0x3f382f0d	0.71946794
35	0xbf851616	-1.0397365
36	0x3f4734bc	0.7781484
37	0xbf1bc7bf	-0.60851663
38	0xbe0ec6aa	-0.13942972
39	0x3f83d4c5	1.0299307
40	0xbf83bc7c	-1.0291896
41	0xbf96def4	-1.178679
42	0x3f955343	1.1666034
43	0x3ef728dd	0.48273364
44	0xbebcb0e2	-0.368537
45	0xbab4ae36	-0.0013784829
46	0x3ee4e2b7	0.4470422
47	0xbd95a9db	-0.07307788
48	0xbf3dd203	-0.7414858
49	0x3eb43cdb	0.3520268
50	0xbb975230	-0.004617952
51	0xbeb2375e	-0.34807867
52	0x3d4b39b7	0.049615588
53	0xbf97e11e	-1.1865575
54	0x401c441f	2.4416578
55	0xbf59e337	-0.8511233
56	0xbea8e53c	-0.32987392
57	0xbf5570c1	-0.83375174
58	0x3f1511de	0.5823039
59	0xbe248a10	-0.16068292
60	0x3e0cdfe5	0.13757284
61	0xbf32f50a	-0.6990515
62	0x3d98baf5	0.07457534
63	0x3bfb92d6	0.0076774163
64	0xbf7528ce	-0.9576539
65	0xbeeba1cd	-0.46021882
66	0x3e859278	0.2608831
67	0x3da27f53	0.079344414
68	0xbf0e62f4	-0.5561974
69	0x3f1cb82f	0.6121854
70	0x3faaf978	1.3357382
71	0x3f54e887	0.8316731
72	0xbddff85b	-0.10936042
73	0xbed0197d	-0.40644446
74	0x3d65a0ca	0.056061544
75	0xbfe4089c	-1.7815127
76	0xbf9099e8	-1.1296968
77	0xbe39a978	-0.18131053
78	0x3f5efb05	0.87101775
79	0x3f327f8f	0.6972589
80	0xbfa7cba4	-1.3109021
81	0x3f1b038d	0.60552293
82	0x3e903b85	0.2817041
83	0x3f04964e	0.51791847
84	0xbe2fc924	-0.17166573
85	0x3e55412c	0.20825642
86	0x3ee83c37	0.4535844
87	0x3ff753b6	1.9322422
88	0x3f72d8f1	0.94862276
89	0x3fd0292d	1.6262566
90	0x3f85729b	1.04256
91	0x3f2869e5	0.6578658
92	0x3fafd60e	1.3737199
93	0xbe91a7dc	-0.2844838
94	0x3f3f3705	0.7469333
95	0x3ec51ad3	0.38497028
96	0xbf5c276d	-0.8599766
97	0xbf4757ee	-0.77868545
98	0x3e771c27	0.24131833
99	0x3e9366c7	0.2878935
100	0xbfe96cdb	-1.8236345
101	0x3ec3e8e6	0.38263625
102	0x3f5e5950	0.8685503
103	0x3f5db08b	0.8659751
104	0xbfab1ad7	-1.3367566
105	0x3fc927e5	1.57153
106	0x3e96e376	0.29470414
107	0x3f4badae	0.7956189
108	0x3f74f4e6	0.95686185
109	0xbebef4b0	-0.37296057
110	0xc001cfeb	-2.0283153
111	0xbdcf92cc	-0.10135421
112	0xbe4b66d9	-0.19863452
113	0xbf647d55	-0.8925374
114	0x3e903dff	0.281723
115	0xbfbb1493	-1.4615654
116	0x3e812020	0.25219822
117	0xbf0d9130	-0.55299664
118	0x3e1bbaf5	0.15208037
119	0xbf2bba4a	-0.6708113
120	0xbf5e1e42	-0.8676492
121	0x3edeeda3	0.43540677
122	0xbf5316cc	-0.8245666
123	0x3ea638ff	0.3246536
124	0x3f1f9ac8	0.6234555
125	0xbfac4446	-1.3458335
126	0xbe869b14	-0.2629019
127	0xbfc8ca6d	-1.5686775
128	0x3c9dd65e	0.019267257
129	0x3f1c896a	0.6114718
130	0x3e35927c	0.1773166
131	0x3f95452a	1.1661732
132	0xbee3fa0c	-0.44526708
133	0x3f4f54b1	0.80988604
134	0x3d2c57be	0.042075865
135	0xbfbf6f4f	-1.4955844
136	0x3e483fdc	0.1955561
137	0x3f336aa0	0.7008457
138	0x3de25859	0.11052007
139	0xbe4b6546	-0.19862852
140	0xbf3f6d3a	-0.7477604
141	0xbf6aba77	-0.9169077
142	0x3f41d00d	0.75708085
143	0x3f53a40c	0.8267219
144	0xbfafeeb9	-1.3744727
145	0xbe2483ff	-0.16065978
146	0x3e03f28b	0.12885492
147	0xbf1ec291	-0.62015635
148	0x3d501e49	0.050810132
149	0x3f3f250c	0.74665904
150	0xbf63a776	-0.889274
151	0xbe8d615d	-0.27613345
152	0x3f7e757b	0.9939801
153	0x3e42dd42	0.19029716
154	0xbf102799	-0.5631042
155	0x3f3b3e3b	0.7314183
156	0xbeb1120b	-0.34584078
157	0xbe50d064	-0.20391995
158	0x3fbf29b5	1.4934603
159	0x3d80ee1a	0.06295414
160	0x3f820646	1.0158165
161	0x3f0adcc1	0.54243094
162	0xbdbeaf60	-0.09310794
163	0xbf318f00	-0.69358826
164	0x3ed156f4	0.40886652
165	0x3e8a198f	0.26972625
166	0xbf2014ee	-0.62531936
167	0x3f3a6875	0.7281564
168	0x3f7daa4d	0.99087983
169	0xbee738b3	-0.45160446
170	0x40023051	2.034199
171	0x3f0a491f	0.54017824
172	0x3fcc4add	1.5960346
173	0xbe009124	-0.12555367
174	0x3f0bdccb	0.5463378
175	0x3e0c0a33	0.13675766
176	0x3c153131	0.009105966
177	0xbf84826f	-1.0352305
178	0x3edb3aad	0.42818204
179	0x3f6953b0	0.9114332
180	0x40189578	2.3841228
181	0x3e789530	0.2427566
182	0x3f9b029b	1.211017
183	0x3e28d255	0.16486485
184	0xc07b75e0	-3.9290695
185	0x3fa531a9	1.290578
186	0xbed77fdc	-0.42089736
187	0x3ef07bd7	0.46969482
188	0x3e4bf46b	0.19917457
189	0xbe58cfaf	-0.21172975
190	0x3e949abb	0.290243
191	0xbf03676e	-0.51329696
192	0x3f82534a	1.0181668
193	0xbe29e26a	-0.16590276
194	0x3f23b991	0.63955027
195	0x3ee9e4f1	0.4568248
196	0x3f49ea8c	0.78873515
197	0xbc7d4372	-0.015457975
198	0xbfb5df63	-1.4208797
199	0xbf27b95a	-0.655172
200	0xbc7bf3c6	-0.015377944
201	0xbde42297	-0.1113941
202	0xc0154d61	-2.3328478
203	0x3ef8ae2e	0.4857039
204	0x3de296ad	0.110638954
205	0x39247258	0.00015682855
206	0xbe9b45b1	-0.30326608
207	0xbea75f34	-0.32689822
208	0xbe90e28d	-0.28297845
209	0x3f826891	1.0188161
210	0xbfa40a26	-1.2815597
211	0xbe6d0c46	-0.23149213
212	0xbda4cabb	-0.0804648
213	0x3e7b61d2	0.24549034
214	0x3e325b60	0.1741767
215	0xbe87cd37	-0.26523754
216	0xbf2c49f4	-0.67300344
217	0xbd518b01	-0.051157955
218	0x3f453a85	0.7704242
219	0x3e817e26	0.25291556
220	0xbd570b2d	-0.052500892
221	0x3fa42d9b	1.2826418
222	0x3f16c562	0.5889493
223	0xbec042b2	-0.37550884
224	0xbf9cbbbb	-1.2244791
225	0x3e9af421	0.3026438
226	0xbf17aec2	-0.59251034
227	0xbe3c4a4a	-0.18387714
228	0x3f195b92	0.5990535
229	0xbf93f0eb	-1.1557897
230	0xbf11688e	-0.5680016
231	0x3e2b2c1e	0.16716048
232	0xbfab4f39	-1.3383552
233	0xbfcd569a	-1.6042054
234	0x3f160368	0.5859895
235	0x3f9236f3	1.1423019
236	0xbf20e2e6	-0.6284622
237	0x3f35b0bb	0.70972794
238	0xbf13bc3c	-0.577091
239	0xbf32d367	-0.69853824
240	0xbf11d52d	-0.56965905
241	0xbfdf7013	-1.7456077
242	0x3ded1897	0.11576956
243	0x3f8609ae	1.0471704
244	0xbf5574af	-0.8338117
245	0x3f5cd2cb	0.86259145
246	0xbede8ba9	-0.43465927
247	0xbf5245d5	-0.82137805
248	0x3f058839	0.52160984
249	0x3eb7af1c	0.35875785
250	0xbf89c9ea	-1.0764744
251	0x3d25743f	0.040394064
252	0xbf2509cf	-0.6446809
253	0xbf80e71b	-1.0070528
254	0xbfbe8c12	-1.4886496
255	0xbea1eb4d	-0.31624833

lstm.bias_ih_l0 f4 [512]
0	0xbd233d2f	-0.03985327
1	0x3dc89262	0.09793545
2	0x3f166e98	0.587625
3	0xbe8baf07	-0.27281973
4	0x3f479837	0.77966636
5	0x3f244c47	0.6417889
6	0x3e9e0a4d	0.30867234
7	0x3e86d87d	0.26337042
8	0xbe6c56f1	-0.2308004
9	0xbefd6aec	-0.49495637
10	0x3ecd13e5	0.4005424
11	0x3e3fc8d9	0.18728961
12	0xbc2d4358	-0.010575138
13	0x3f1ec241	0.6201516
14	0x3eb55978	0.35419822
15	0x3e9fe50f	0.31229445
16	0x3e753a67	0.2394806
17	0xbe93d887	-0.28876135
18	0xbec5835a	-0.38576776
19	0xbc520179	-0.012817734
20	0x3f40e177	0.7534403
21	0xbeacacb4	-0.33725512
22	0x3eb14967	0.34626314
23	0x3ed32182	0.41236502
24	0x3f755acd	0.95841676
25	0xbd07d2f0	-0.03316015
26	0x3f972a73	1.180983
27	0x3ec3828e	0.38185543
28	0x3f3ac9ca	0.72964156
29	0x3eaa8cb3	0.3331047
30	0xbf1935d7	-0.5984778
31	0x3f014121	0.50490004
32	0x3fba29a4	1.4543958
33	0xbe553e92	-0.2082465
34	0x3f876d71	1.0580274
35	0x3d4ad15a	0.04951606
36	0xbf063a46	-0.5243267
37	0xbc7053c8	-0.0146684125
38	0x3f982894	1.1887383
39	0x3f0897d5	0.5335668
40	0xbf6b9d34	-0.9203675
41	0x3f6b2fcb	0.918698
42	0x3e1c1aaa	0.15244547
43	0xbeb4c20a	-0.3530429
44	0x3f4bf061	0.79663664
45	0x3e683466	0.22676238
46	0x3f53156b	0.82454556
47	0x3efe3f18	0.49657512
48	0x3f014667	0.5049805
49	0x3dc109ea	0.09425719
50	0x3e2971e3	0.1654735
51	0x3f500ecf	0.81272596
52	0xbef9160b	-0.4864963
53	0x3e82b8dc	0.25531662
54	0x3f018037	0.50586265
55	0x3f3a1f4c	0.72704005
56	0xbebad7a5	-0.3649265
57	0x3e3f17b7	0.1866139
58	0xbe1a63fb	-0.15077202
59	0x3f10c0b3	0.56544036
60	0x3e8e723b	0.27821526
61	0x3e4fff88	0.20312321
62	0xbd0d94d6	-0.03456577
63	0xbc63aec1	-0.013896645
64	0xbf398304	-0.7246554
65	0x3f84d52d	1.0377556
66	0x3ed64b4b	0.4185432
67	0x3f24092d	0.640765
68	0xbe51f14f	-0.20502208
69	0x3f382dd4	0.7194493
70	0x3d0976a9	0.03356043
71	0x3d903bab	0.07042631
72	0x3efcfde3	0.4941245
73	0xbe475d96	-0.19469294
74	0x3e91f9b5	0.28510824
75	0x3e2dde6c	0.16979378
76	0x3ebd0610	0.36918688
77	0x3eccddb9	0.4001291
78	0x3f501ae8	0.81291056
79	0x3e6ed81f	0.23324631
80	0xbe25bd93	-0.16185598
81	0x3e7646ef	0.24050497
82	0x3e81a674	0.25322306
83	0x3e88d60a	0.267258
84	0x3f4f4187	0.8095936
85	0x3f41a929	0.7564874
86	0x3e658df4	0.22417432
87	0x3edefa6b	0.4355043
88	0x3f8f1534	1.1178346
89	0x3e544e43	0.2073298
90	0xbf006ddc	-0.5016763
91	0x3e5fb17a	0.21845046
92	0xbd0dd810	-0.03462988
93	0x3f6143ac	0.87993884
94	0x3db90272	0.090336695
95	0x3c002ce4	0.007823203
96	0x3d934dcc	0.07192573
97	0x3e572cfe	0.21013257
98	0x3ecdf671	0.40227082
99	0x3e51c9a3	0.20487075
100	0x3f50fab3	0.81632537
101	0x3e97e85b	0.2966946
102	0x3e3c30b9	0.18377961
103	0xbf247c1f	-0.64251894
104	0x3d2c0ced	0.042004514
105	0x3f3779c6	0.71670187
106	0xbef6fe67	-0.4824097
107	0x3e8fd45f	0.28091714
108	0xbcff7642	-0.03118432
109	0xbecb5ee7	-0.39720842
110	0x3e13ff2a	0.14452806
111	0x3e1b2adc	0.15153068
112	0x3f0c04fb	0.546951
113	0x3e9abe1d	0.3022317
114	0xbd917c9e	-0.07103847
115	0x3f8747ca	1.0568783
116	0x3f3e62a6	0.74369276
117	0xbe2e2126	-0.17004833
118	0x3edc9a6c	0.43086565
119	0x3e23a424	0.15980583
120	0x3b298899	0.0025868772
121	0x3ea10092	0.31445748
122	0x3d864587	0.0655623
123	0x3f5be597	0.858972
124	0x3e639a6b	0.22226875
125	0xbf07c5dd	-0.5303629
126	0x3fc429f7	1.5325307
127	0x3eb045d7	0.34428284
128	0xbc1e5b71	-0.009665356
129	0x3eb5ad35	0.3548371
130	0x3e806bb6	0.25082177
131	0x3c100a4b	0.008791517
132	0x3e47e77e	0.19521901
133	0x3ddc3637	0.10752528
134	0xbe676ad8	-0.22599351
135	0x3e88a71c	0.26689994
136	0xbe8bf5b9	-0.2733591
137	0x3ebd47a4	0.3696872
138	0x3ef17dc3	0.4716626
139	0x3e654826	0.22390804
140	0x3dfccd87	0.12343889
141	0x3e12774e	0.14303324
142	0xbcb2c588	-0.021822706
143	0x3df5ce4c	0.12002239
144	0x3d166d4b	0.036725324
145	0x3dd81c32	0.10552253
146	0x3e2b2a79	0.16715421
147	0x3e48805e	0.19580218
148	0x3d94453e	0.072397694
149	0x3dfca3b3	0.12335911
150	0x3e9d0a26	0.30671805
151	0x3e022e23	0.12712912
152	0x3ea3c6fb	0.31987748
153	0x3efc564c	0.4928459
154	0x3f0eed21	0.5583058
155	0x3e47a188	0.19495213
156	0x3de59fe5	0.11212138
157	0x3e2e689a	0.1703209
158	0x3f35ca17	0.7101149
159	0xbc902efc	-0.017600529
160	0xbcba68d5	-0.022755066
161	0x3ec58b76	0.38582963
162	0xbd40a28d	-0.04703002
163	0x3e5bcdf8	0.2146529
164	0x3e0604d2	0.13087776
165	0x3e8071f2	0.25086933
166	0x3c3d0c6c	0.011538606
167	0x3e270423	0.16310172
168	0x3e60fad0	0.21970677
169	0x3d2893f6	0.04115673
170	0x3eb4e423	0.35330305
171	0x3ecb544e	0.39712757
172	0xbe8cc1ae	-0.27491516
173	0x3d916b8f	0.07100593
174	0x3f003fac	0.50097156
175	0x3ecc60bc	0.39917552
176	0x3e9bfdc7	0.30467054
177	0xbecae421	-0.39627174
178	0xbe8dfd10	-0.27732134
179	0x3eda7783	0.42669305
180	0x3e955643	0.29167375
181	0x3ec6aa0c	0.3880161
182	0x3e946172	0.28980595
183	0xbeb02c40	-0.3440876
184	0x3f0e0c14	0.5548718
185	0xb9889eb3	-0.00026058182
186	0x3c3d5555	0.011555989
187	0xbeb60bc5	-0.35555854
188	0x3e8ab5b0	0.27091742
189	0x3f30fe8e	0.6913842
190	0x3eabdd44	0.3356725
191	0xbdb378ce	-0.08763276
192	0x3ed5b7fd	0.41741934
193	0x3f4be542	0.79646695
194	0x3ebca87f	0.36847302
195	0x3ea571a7	0.32313272
196	0x3e5cae1b	0.21550791
197	0x3e9b0abf	0.30281636
198	0x3f664d5e	0.899618
199	0x3f5715d1	0.84017664
200	0x3deb6b0f	0.11495029
201	0x3dd069bc	0.10176417
202	0xbd759a7d	-0.059961785
203	0x3e78866a	0.24270025
204	0x3f2f29e1	0.6842328
205	0xbe929edc	-0.28636825
206	0x3dd8b27d	0.10580919
207	0x3e4054d8	0.18782365
208	0xbd73034e	-0.059329323
209	0x3e6de80e	0.23233053
210	0xbe18a91b	-0.14908259
211	0xbd0c0f49	-0.034194265
212	0x3f4bf45d	0.79669744
213	0xbebd9f80	-0.3703575
214	0xbed07687	-0.4071543
215	0xbdac0f9b	-0.08401414
216	0x3f0321cc	0.51223445
217	0x3e92498c	0.28571737
218	0x3ec00b08	0.37508416
219	0x3ef17eee	0.47167152
220	0x3e5f73cb	0.21821515
221	0x3f156dae	0.5837048
222	0x3ed66f31	0.41881707
223	0x3e4ebe93	0.20189886
224	0xbdff8f10	-0.12478459
225	0xbde99754	-0.11405817
226	0x3f1d6721	0.6148549
227	0xbd68c6f4	-0.05683036
228	0x3d9d667e	0.076855645
229	0x3ef23303	0.47304544
230	0x3eb4bb66	0.35299224
231	0x3e2ae7cf	0.1668999
232	0x3eaecdff	0.34141538
233	0x3e5b0753	0.21389513
234	0xbcccec6c	-0.025015078
235	0xbef6d41e	-0.48208708
236	0xbeef49ea	-0.4673608
237	0xbf519316	-0.8186506
238	0x3ee1ae54	0.44078314
239	0x3f2f2217	0.6841139
240	0x3e9da5d0	0.30790567
241	0xbe495bf5	-0.19663985
242	0x3e229edb	0.15880911
243	0x3e7b4931	0.24539639
244	0x3e0c1ce9	0.13682903
245	0x3e0ceb1d	0.13761564
246	0x3ed859ee	0.4225611
247	0x3e18453c	0.14870161
248	0xbe875ac8	-0.26436448
249	0x3d685fd6	0.05673202
250	0x3e888bb7	0.26669094
251	0x3b9cf96c	0.0047904756
252	0xbdd356ce	-0.10319291
253	0x3f3571d9	0.7087684
254	0xbe9a3478	-0.30118155
255	0x3d9e8ce4	0.077417165

lstm.bias_hh_l0 f4 [512]
0	0xbd40597f	-0.04696035
1	0x3db4a4e6	0.088205144
2	0x3f1e0160	0.6172085
3	0xbe902ff0	-0.28161573
4	0x3f3dcf72	0.7414466
5	0x3f2487a9	0.642695
6	0x3ea1e2ba	0.3161829
7	0x3ea15319	0.3150871
8	0xbe2df5e4	-0.16988331
9	0xbf0a71fe	-0.5408019
10	0x3ebde19f	0.37086198
11	0x3dc175b7	0.094462804
12	0x3cfd198c	0.03089597
13	0x3f0891bf	0.5334739
14	0x3ea900ae	0.3300833
15	0x3e89c0b5	0.26904836
16	0x3e92a0a9	0.286382
17	0xbe776e62	-0.24163201
18	0xbeada6da	-0.3391636
19	0xbbc8c3cc	-0.0061268564
20	0x3f4205d9	0.7579017
21	0xbe8c393a	-0.2738741
22	0x3eb64676	0.35600632
23	0x3ea4db2c	0.32198465
24	0x3f8340c7	1.0254143
25	0x3c74145c	0.014897432
26	0x3f95a7e7	1.1691865
27	0x3ecdfb5c	0.40230834
28	0x3f2af284	0.667763
29	0x3ea595ae	0.3234076
30	0xbf25dc52	-0.6478931
31	0x3f134baa	0.5753733
32	0x3fbe3271	1.4859143
33	0xbe2adf32	-0.16686705
34	0x3f87a7df	1.0598105
35	0x3d92d2d3	0.07169118
36	0xbf0dde5e	-0.5541743
37	0xbd2ffbbc	-0.042964682
38	0x3f9411c8	1.1567926
39	0x3f03f9d1	0.51553065
40	0xbf64c70f	-0.8936624
41	0x3f77c7d2	0.96789277
42	0x3df75547	0.12076812
43	0xbeab6e26	-0.33482474
44	0x3f4fb17e	0.81130207
45	0x3e2eea62	0.17081597
46	0x3f632189	0.88723046
47	0x3ee1bf1b	0.44091114
48	0x3edb46d7	0.42827484
49	0x3e05036c	0.12989587
50	0x3e6d23ba	0.2315816
51	0x3f4fa000	0.81103516
52	0xbeeefa5e	-0.4667539
53	0x3e8c86a2	0.27446467
54	0x3ee1272f	0.43975207
55	0x3f4e1b7d	0.80510694
56	0xbe90a17d	-0.28248206
57	0x3e1cd0b0	0.15313983
58	0xbe3422bb	-0.17591374
59	0x3f11d586	0.56966436
60	0x3e96c9a7	0.29450724
61	0x3e4538c9	0.19259943
62	0xbdd321f9	-0.10309214
63	0xbd42f176	-0.047593556
64	0xbf471b30	-0.7777586
65	0x3f84601a	1.0341828
66	0x3ee267fe	0.44219965
67	0x3f1bd98b	0.6087882
68	0xbe511def	-0.20421575
69	0x3f3607ae	0.7110547
70	0x3d324e8d	0.043531943
71	0x3d99b12b	0.07504495
72	0x3ef8abb3	0.48568496
73	0xbe5875fd	-0.21138759
74	0x3e9260c2	0.28589445
75	0x3e25ca1d	0.16190381
76	0x3ed00593	0.40629253
77	0x3ec6d844	0.38836873
78	0x3f548a60	0.83023643
79	0x3e2877bb	0.16451924
80	0xbdbf609b	-0.09344598
81	0x3e3f2e04	0.18669897
82	0x3e630d73	0.22173099
83	0x3e7808d4	0.24222118
84	0x3f4e89f3	0.80679244
85	0x3f5354a6	0.8255104
86	0x3e620b9d	0.22074743
87	0x3ee237df	0.4418325
88	0x3f9266c7	1.1437615
89	0x3e72abf9	0.23698415
90	0xbee6fde7	-0.45115587
91	0x3e9337dd	0.28753558
92	0xbd2f9b5b	-0.042872768
93	0x3f679c76	0.90473115
94	0x3e079dc8	0.13243783
95	0x3d3b29d9	0.045694206
96	0x3db4afcd	0.08822594
97	0x3e933edf	0.28758904
98	0x3ec12e59	0.37730673
99	0x3e245fb5	0.16052134
100	0x3f60ebff	0.878601
101	0x3e9adaee	0.30245155
102	0x3e68ffad	0.22753783
103	0xbf293e44	-0.66110635
104	0xbc2cf133	-0.010555553
105	0x3f3bbcd7	0.7333502
106	0xbf0320b3	-0.5122177
107	0x3eae850b	0.3408588
108	0xbc9592ac	-0.018258415
109	0xbeaab274	-0.33339274
110	0x3e18e683	0.14931683
111	0x3de348d1	0.11097873
112	0x3ee6d1d5	0.45081964
113	0x3e8c9c92	0.27463204
114	0xbdc8e484	-0.09809211
115	0x3f80e82a	1.0070851
116	0x3f413fcc	0.7548797
117	0xbe8465f9	-0.2585905
118	0x3edd1f62	0.43188006
119	0x3e28a77c	0.1647014
120	0xbd6c9bd0	-0.057765782
121	0x3e9f6781	0.31133655
122	0x3e02a907	0.12759791
123	0x3f61e696	0.8824247
124	0x3e5b74da	0.21431294
125	0xbf016ee3	-0.50559825
126	0x3fb9951a	1.4498627
127	0x3eb821c2	0.35963255
128	0xbc793831	-0.015211151
129	0x3e91529f	0.28383347
130	0x3e8072d2	0.250876
131	0x3d8c9cd7	0.06865852
132	0x3e8469fe	0.25862116
133	0x3d7db57c	0.061940655
134	0xbe79340e	-0.24336264
135	0x3e860612	0.26176506
136	0xbe848d10	-0.25888872
137	0x3eaf1f72	0.34203678
138	0x3f02e966	0.5113739
139	0x3e6666bf	0.22500132
140	0x3de69e7d	0.11260698
141	0x3e1a8c4f	0.15092586
142	0x3c1d4c25	0.009600674
143	0x3d0a0b9a	0.03370247
144	0x3d8503fc	0.064949006
145	0x3d98bcab	0.074578606
146	0x3e6ce6a0	0.23134851
147	0x3e506fdf	0.20355175
148	0x3da45a97	0.08025091
149	0x3d7c2deb	0.06156723
150	0x3e7d7082	0.2474995
151	0x3e0be007	0.13659678
152	0x3e9669f2	0.29377705
153	0x3ee1486a	0.4400056
154	0x3f10d90b	0.5658118
155	0x3e6f2fa5	0.23358019
156	0x3de3d029	0.11123688
157	0x3e3e09f8	0.1855849
158	0x3f3545bc	0.7080953
159	0x3d57723e	0.052599184
160	0x3a244625	0.0006266556
161	0x3eaa0704	0.33208477
162	0x3bd0ea59	0.0063755927
163	0x3e640c95	0.22270425
164	0x3e034ac8	0.12821496
165	0x3e2f9427	0.1714636
166	0xbca4c094	-0.02011136
167	0x3e4ab96a	0.19797292
168	0x3e86a626	0.26298636
169	0x3c0e9908	0.008703478
170	0x3ee02390	0.43777132
171	0x3ed55751	0.4166818
172	0xbe9628f1	-0.2932811
173	0x3dd67bfd	0.10472868
174	0x3f0f007d	0.5586012
175	0x3ee465f6	0.4460904
176	0x3e90c8c2	0.28278166
177	0xbed14d62	-0.4087935
178	0xbe83c856	-0.25738782
179	0x3ed7eae8	0.42171407
180	0x3ea6239f	0.32449052
181	0x3eda6b3d	0.4265994
182	0x3e7e8499	0.2485527
183	0xbeb9a751	-0.36260465
184	0x3f138429	0.57623535
185	0x3ce1e174	0.027573325
186	0xbc9692ee	-0.018380608
187	0xbebf42a2	-0.37355524
188	0x3e79f791	0.24410845
189	0x3f3ceb21	0.7379628
190	0x3e934cd7	0.28769562
191	0xbcbb2ddc	-0.022849016
192	0x3ee1dfdc	0.44116104
193	0x3f4aeeae	0.79270446
194	0x3eb5f8f7	0.35541508
195	0x3ec55416	0.38540715
196	0x3e71902b	0.23590152
197	0x3e7f4395	0.24928124
198	0x3f582a20	0.8443928
199	0x3f59d1d2	0.85085785
200	0x3d9e381d	0.077255465
201	0x3dbb00cb	0.091310106
202	0xbd1caedf	-0.038252708
203	0x3e7d3bc6	0.24729833
204	0x3f36a830	0.71350384
205	0xbe8526e2	-0.26006228
206	0x3d86a824	0.06575039
207	0x3dc22d1d	0.09481261
208	0xbdf49485	-0.1194239
209	0x3e59665d	0.21230455
210	0xbd9de5df	-0.0770986
211	0xbbc8eba9	-0.0061316085
212	0x3f60028d	0.8750389
213	0xbeb64b53	-0.35604343
214	0xbebbe4e7	-0.36698076
215	0xbdfade04	-0.12249377
216	0x3f06c54a	0.5264479
217	0x3ea18b3c	0.3155154
218	0x3eaf41d9	0.34229925
219	0x3ee5169b	0.4474381
220	0x3e464515	0.1936229
221	0x3f109e7c	0.5649183
222	0x3ee91e0d	0.4553074
223	0x3e3fa609	0.18715681
224	0xbe1a1d0a	-0.1505014
225	0xbe0549d8	-0.1301645
226	0x3f27f4d8	0.65607977
227	0xbdb76500	-0.08954811
228	0x3da32469	0.07965929
229	0x3eeed0e6	0.46643752
230	0x3eb79de9	0.35862663
231	0x3e465055	0.19366582
232	0x3eac63c3	0.33669862
233	0x3e557354	0.20844775
234	0xbda0c343	-0.07849743
235	0xbefd4bbb	-0.4947184
236	0xbf068aeb	-0.5255572
237	0xbf53430d	-0.82524186
238	0x3ef4e147	0.47828123
239	0x3f2ed081	0.682869
240	0x3e619a6b	0.22031562
241	0xbde144a8	-0.10999423
242	0x3e294849	0.16531481
243	0x3ea1153c	0.31461513
244	0x3e501b76	0.20322976
245	0x3d5c167f	0.05373239
246	0x3f02a77d	0.51036817
247	0x3e0f7369	0.14008869
248	0xbe6f44f2	-0.23366144
249	0x3da75efb	0.08172413
250	0x3e8446c8	0.25835252
251	0xbc9a245f	-0.018816171
252	0xbc87e310	-0.016587764
253	0x3f2cc162	0.6748258
254	0xbe9c363e	-0.30510134
255	0x3c014394	0.007889647

fc.weight f4 [89, 128]
0	0xc00eee26	-2.2332854
1	0x3c3e4b3f	0.01161462
2	0xbf646a31	-0.89224535
3	0xbc79ca66	-0.015246009
4	0x3f0ccbfa	0.54998744
5	0xbf68eb08	-0.9098363
6	0x3f4fb38d	0.8113335
7	0xbecc9f8f	-0.39965484
8	0xbf2804aa	-0.65632117
9	0x3ea58084	0.32324612
10	0x3fb3266c	1.39961
11	0x3fcaf174	1.5854936
12	0x3dbb7b4c	0.091543764
13	0xbfa20c1b	-1.2659944
14	0x3f4c6419	0.79840237
15	0x3fd0a914	1.6301599
16	0x3f11b7b7	0.5692095
17	0x3e450bb9	0.19242753
18	0xbf8f6b31	-1.1204587
19	0x3fd4e996	1.6633785
20	0x3f83d1f2	1.0298445
21	0x400276fd	2.0385125
22	0xbf3267fe	-0.6968993
23	0xbda1a797	-0.07893293
24	0x3bc9052d	0.00613465
25	0xbfb73ca4	-1.4315381
26	0x3d9d035b	0.07666656
27	0x400ac532	2.1682858
28	0x3ee22ab2	0.441732
29	0x3dcd293d	0.10017631
30	0x3f0a29b2	0.5396987
31	0xbf6db93e	-0.9286078
32	0x3f6d2d57	0.9264731
33	0xc01807bf	-2.3754728
34	0x4005f3a8	2.0929966
35	0x3f87af83	1.0600437
36	0x3d972156	0.07379405
37	0x3f943062	1.1577265
38	0xbeb2ae88	-0.34898782
39	0x3e5acf8a	0.21368232
40	0xbf2aa4d8	-0.6665778
41	0x3ed21776	0.41033524
42	0x3f00374c	0.50084376
43	0x3f4f9cab	0.8109843
44	0x3f70078b	0.9376151
45	0xbf9d01fc	-1.226623
46	0x3e87ddb3	0.2653633
47	0xbe4d572f	-0.20052789
48	0x3e8beb02	0.27327734
49	0x3e1c7a83	0.1528111
50	0xbfa9efe7	-1.3276337
51	0x3efdd3b8	0.4957559
52	0x3f048ebe	0.5178031
53	0x3f33f615	0.70297366
54	0xbf416b53	-0.7555439
55	0x3ee6650f	0.44998977
56	0xbea95d75	-0.33079115
57	0xbff0d007	-1.8813485
58	0x3f90d97e	1.1316373
59	0x3f1ef08d	0.620858
60	0x3eb1b780	0.34710312
61	0x3ec468c3	0.38361177
62	0xbe9f2810	-0.31085253
63	0x3e079586	0.13240632
64	0xbe6e436a	-0.23267904
65	0xbf8aac95	-1.0833918
66	0xbedaf40c	-0.42764318
67	0x3d8a5063	0.06753614
68	0xbfb4647b	-1.4093164
69	0xbf895351	-1.0728551
70	0xbf8b8056	-1.089854
71	0x3fd97e28	1.6991625
72	0xbe6a6d3f	-0.22893237
73	0xbcb0893b	-0.021549812
74	0xbfb67ed4	-1.4257455
75	0x3f2daf93	0.6784603
76	0xbf5aa5c8	-0.8540921
77	0xbea759b8	-0.32685637
78	0xbfac714e	-1.3472078
79	0xbe945df6	-0.28977937
80	0xbf43b50d	-0.76448137
81	0xbf2c1115	-0.67213565
82	0xbeba9c31	-0.3644729
83	0x3fdc8203	1.7227176
84	0x3e242f9a	0.16033784
85	0x3f25973a	0.6468388
86	0x3fcabadc	1.5838275
87	0xbf180116	-0.59376657
88	0xbe137088	-0.14398396
89	0xbea07115	-0.31336275
90	0xbfd3e193	-1.6553215
91	0xc00ca7a8	-2.197733
92	0xbfb38876	-1.402602
93	0x3f0bd564	0.54622483
94	0x3f711126	0.9416679
95	0xbec3a236	-0.38209695
96	0x3f1ac976	0.60463655
97	0x3f6ed770	0.9329748
98	0x3f1a9196	0.60378397
99	0x3e7837ec	0.24240083
100	0xbf230fba	-0.6369587
101	0xbf91ac6a	-1.1380742
102	0x3ec095fc	0.3761443
103	0x3e90af97	0.28258964
104	0xbf0e2bfe	-0.55535877
105	0xbcbd1807	-0.023082746
106	0xbe2b294c	-0.16714972
107	0xbf803296	-1.0015438
108	0xbdf10206	-0.11767964
109	0xbf6cb700	-0.92466736
110	0x400b3411	2.175053
111	0x4028e9e5	2.6392758
112	0xc015aeb9	-2.3387892
113	0x3fe09db4	1.7548127
114	0x3f826294	1.0186334
115	0x3fb59f29	1.4189197
116	0xbf1bc54f	-0.60847944
117	0xbf8f290f	-1.1184405
118	0xbe8187bd	-0.25298873
119	0xbfe8d2f8	-1.8189383
120	0x3f558578	0.8340678
121	0x3f5e4f72	0.86839974
122	0xc012f43b	-2.2961566
123	0xbea83772	-0.328548
124	0xbeec857b	-0.46195588
125	0x3ee5b2c3	0.44862947
126	0xbf98525d	-1.1900135
127	0x3e8eec5b	0.279147
128	0xbebf01f1	-0.3730617
129	0xbf0ec041	-0.55762106
130	0xbf8ed556	-1.1158855
131	0xbfa22dfd	-1.2670285
132	0x3f525ce5	0.82172996
133	0x3f5c924a	0.8616072
134	0xbe73fb6a	-0.23826376
135	0xbd3aceee	-0.0456075
136	0x3ea867dd	0.3289174
137	0xbea203e9	-0.31643608
138	0xbe424713	-0.18972425
139	0xbc5de87a	-0.013544196
140	0x3f135248	0.57547426
141	0xbef1a5c9	-0.47196797
142	0xbed86cf8	-0.42270637
143	0x3c691932	0.014227198
144	0x3e52c6fd	0.2058372
145	0x3e07202d	0.13195868
146	0xbfaa7e4d	-1.3319794
147	0x3fb90dae	1.44573
148	0xbf66af27	-0.9011101
149	0xbf13ed33	-0.5778381
150	0x401395ec	2.3060255
151	0x3db8ffa9	0.09033138
152	0xbead13e3	-0.33804235
153	0x3ec56c8e	0.38559383
154	0x3d9e9098	0.07742423
155	0xbf8214d6	-1.0162609
156	0x3e169707	0.1470605
157	0x3e9095ab	0.28239188
158	0xbd931da6	-0.07183389
159	0xbf18063b	-0.59384507
160	0x401c7fe1	2.445305
161	0xbeef783f	-0.46771428
162	0xbf69ab21	-0.91276747
163	0xbe1c0595	-0.15236504
164	0xbd9af239	-0.075657316
165	0xbeeb680f	-0.45977828
166	0x3e48441e	0.19557235
167	0x3ee95730	0.4557433
168	0x3e8f3ec6	0.2797758
169	0x3fd0a895	1.6301447
170	0xbf68062f	-0.90634435
171	0x3ec451a5	0.3834354
172	0x3e6e12c2	0.23249343
173	0xbe94cfb7	-0.29064724
174	0x3e86e862	0.2634917
175	0xbe99bb89	-0.3002589
176	0xbefadc01	-0.48995975
177	0x3d7c2196	0.061555468
178	0xbd85fa32	-0.065418616
179	0x3f2cc080	0.6748123
180	0x3e79893d	0.24368758
181	0x3ef50e69	0.47862557
182	0xbf464ac2	-0.7745782
183	0xbeb8caaf	-0.36092135
184	0x3e4e57ee	0.2015073
185	0xbc067321	-0.00820616
186	0x3edce706	0.43145007
187	0xbf934c96	-1.1507747
188	0x3d950a3c	0.07277343
189	0x3f02ea97	0.51139206
190	0x3f1b0826	0.6055931
191	0x3e8172c1	0.25282863
192	0xbe7822bd	-0.24232002
193	0xbddc3c05	-0.10753635
194	0x3e81bca5	0.25339237
195	0x3dbded73	0.092738055
196	0xbf99cddd	-1.201595
197	0xbe3d5028	-0.18487608
198	0x3e856964	0.2605697
199	0x3e83f89f	0.2577562
200	0xbf5183ca	-0.8184172
201	0x3eb9543a	0.36197072
202	0x3e2b977c	0.16757005
203	0x3ebe52c4	0.3717252
204	0xc0016a64	-2.0221186
205	0xbf5ba9c2	-0.85805905
206	0x3f1f318d	0.62184983
207	0xbfb5b426	-1.4195602
208	0xbe88dd51	-0.2673135
209	0xbe6c59c0	-0.23081112
210	0x3f4f66ba	0.81016123
211	0x3eda877f	0.426815
212	0x3dd43932	0.10362472
213	0xbf94a77e	-1.1613615
214	0x3e70530a	0.23469177
215	0x3c86f8ea	0.016476113
216	0xbc48822e	-0.0122380685
217	0x3dff4ef8	0.12466234
218	0x3ee5f241	0.44911388
219	0xbef2ebda	-0.47445565
220	0x3ebfad7c	0.37437046
221	0x3f78e6bf	0.9722709
222	0x3f5e2425	0.867739
223	0x3d32b336	0.04362794
224	0xbddbb92e	-0.107286796
225	0xbf684e44	-0.90744424
226	0xbd3d19c3	-0.046167146
227	0xbec27440	-0.37979317
228	0xbf89f93c	-1.0779185
229	0xbecc670f	-0.39922377
230	0xbf706066	-0.9389709
231	0x3e029a73	0.1275423
232	0xbdf4474a	-0.1192766
233	0x3f7744d0	0.96589375
234	0xbf589f1b	-0.84617776
235	0xbd8851ff	-0.066562645
236	0x3f6683f2	0.9004508
237	0x3f3ac942	0.72963345
238	0xbf4955b7	-0.78646415
239	0xbf154d49	-0.5832105
240	0xc025958b	-2.5872524
241	0x3f8af076	1.0854633
242	0xbe5e4c97	-0.21708904
243	0xbf201021	-0.6252461
244	0xbfb5431d	-1.4161106
245	0x3dde35ba	0.10850091
246	0xbfa26d1f	-1.2689551
247	0x3e3c47ed	0.18386813
248	0xbd056895	-0.03257044
249	0xbed5df3d	-0.4177188
250	0x3f159104	0.584244
251	0x3ef72c90	0.48276186
252	0xbe97abe7	-0.2962334
253	0x3c77e4b6	0.0151302125
254	0xbfefcbee	-1.8734109
255	0x3d54c67d	0.051947106

fc.bias f4 [89]
0	0xbe9a1ef6	-0.30101746
1	0xbf945a83	-1.1590122
2	0xbf911be9	-1.1336643
3	0xbf95f6c0	-1.1715927
4	0xbf8d7891	-1.1052419
5	0xbf941c0e	-1.1571062
6	0xbf94f05b	-1.1635851
7	0xbf8cfcc0	-1.1014633
8	0xbf8c065a	-1.0939438
9	0xbf967882	-1.1755526
10	0xbf88f839	-1.0700752
11	0xbf8b8629	-1.0900317
12	0xbf8dfb50	-1.109232
13	0xbf947f01	-1.1601259
14	0xbf921724	-1.1413312
15	0xbf93c258	-1.1543684
16	0xbf9439b6	-1.1580112
17	0xbf8cf65a	-1.101268
18	0xbf907259	-1.1284896
19	0xbf87d26f	-1.0611094
20	0xbf91231b	-1.1338838
21	0xbf86d2ef	-1.0533122
22	0xbf8e6fb5	-1.112784
23	0xbf92bf21	-1.1464578
24	0xbf823400	-1.0172119
25	0xbf8f0faf	-1.1176661
26	0xbf88c1b8	-1.0684118
27	0xbf8fb5b4	-1.1227326
28	0xbf89fb53	-1.0779823
29	0xbf9212b8	-1.1411963
30	0xbf8d9bcf	-1.1063174
31	0xbf8fdd78	-1.1239462
32	0xbf955772	-1.1667311
33	0xbf8edece	-1.1161745
34	0xbf92b0b7	-1.1460179
35	0xbe87b84f	-0.26507804
36	0x3e53fcc4	0.20701891
37	0xbeb13f88	-0.34618783
38	0x3cd0d565	0.02549238
39	0xbf0aabe7	-0.5416855
40	0x3f4ffb85	0.81243163
41	0x3e898332	0.26857907
42	0xbf3f42de	-0.74711406
43	0xbfa768a7	-1.3078812
44	0xbedd5937	-0.43232128
45	0xbfeebdac	-1.8651633
46	0xbf93649a	-1.1515076
47	0x3fc8ec2d	1.5697075
48	0xbded8919	-0.11598415
49	0xbcb79655	-0.022410551
50	0xbf280afd	-0.65641767
51	0x3ef4846d	0.47757283
52	0x3e84bd7f	0.25925824
53	0x3f742940	0.9537544
54	0xbcfec09b	-0.0310977
55	0xbf82c54c	-1.021646
56	0x3f5c0913	0.85951346
57	0xbcca1ce8	-0.024671987
58	0x3dc23c52	0.094841614
59	0xbd8cf52c	-0.068827
60	0xc0530d7c	-3.297698
61	0xbefaba8e	-0.48970455
62	0x3e58044d	0.2109539
63	0xbe2fd21d	-0.17169996
64	0x3ec60d1c	0.38681877
65	0xbec24b70	-0.3794818
66	0xbe786497	-0.24257122
67	0xbf86b304	-1.0523381
68	0x3d74f3ed	0.05980294
69	0xbf87209f	-1.055683
70	0xbf8c3b11	-1.0955526
71	0xbf97b064	-1.1850705
72	0xbf8f8b93	-1.121447
73	0xbf8dac70	-1.1068249
74	0xbf9582bd	-1.1680523
75	0xbf900cd2	-1.1253912
76	0xbf861efc	-1.0478206
77	0xbf83e8c4	-1.030541
78	0xbf9044e9	-1.127103
79	0xbf8d3514	-1.1031823
80	0xbf84e820	-1.0383339
81	0xbf8b6948	-1.0891504
82	0xbf9795cb	-1.1842588
83	0xbf8ec019	-1.1152374
84	0xbf9845e0	-1.1896324
85	0xbf8eff93	-1.1171745
86	0xbf9080d9	-1.1289321
87	0xbf89554b	-1.0729154
88	0xbf881a1e	-1.063297
