src/models/nottingham/runs/Nov27-18_19:15:13/generator_state.pt (torch_old, 467261 bytes, 7 tensors)

embedder.weight f4 [89, 64]
0	0x3f1cfc59	0.6132255
1	0xbf3e4b8b	-0.7433402
2	0xbd3dbdb7	-0.046323504
3	0x3f911587	1.1334695
4	0x3e429d6f	0.19005369
5	0x3eeb16d1	0.45915845
6	0x3f162362	0.5864774
7	0xbfa2550b	-1.2682203
8	0x3d99cd52	0.07509865
9	0xbea9c410	-0.33157396
10	0x3fdf2445	1.7432944
11	0x3c984c07	0.01859094
12	0x3e0e550e	0.13899633
13	0x3e806091	0.25073674
14	0xbf82e8b0	-1.022726
15	0xbf0e6def	-0.55636495
16	0x3f3ddb73	0.7416298
17	0xbf0957c4	-0.53649545
18	0x3ef44f11	0.47716573
19	0xbecedc22	-0.40402323
20	0x3db1947e	0.08670901
21	0xbf152f75	-0.5827554
22	0x3ef4f53c	0.4784335
23	0x3e822afd	0.25423422
24	0xbf03a039	-0.51416355
25	0x3f4f3f89	0.8095632
26	0xbef5dfb6	-0.4802224
27	0x3f374dff	0.7160339
28	0xbed38235	-0.41310278
29	0xbef611a5	-0.48060337
30	0x3e80a63e	0.25126833
31	0xbfbd7647	-1.480172
32	0x3da1024c	0.07861766
33	0x3f9a9ffb	1.2080072
34	0xbe43b35d	-0.1911139
35	0x3eb5d40e	0.35513347
36	0xbf1c896a	-0.6114718
37	0x3e0ec151	0.13940932
38	0xbec93df7	-0.39305088
39	0x3e468e86	0.19390306
40	0x3e39d9bd	0.18149467
41	0xbf0be768	-0.5464997
42	0x3dbbb688	0.091656744
43	0xbe2bd37e	-0.16779897
44	0x3f63de5f	0.89011186
45	0xbf53b0d9	-0.82691723
46	0xbe54cd31	-0.207814
47	0x3d250c85	0.040295143
48	0xbf3f5293	-0.74735373
49	0xbfa4e215	-1.2881495
50	0xbe9d509c	-0.30725563
51	0x3f82f7a5	1.0231825
52	0xbf675208	-0.90359545
53	0x3d4e6b2f	0.050395187
54	0x3f319019	0.693605
55	0x3f37f905	0.7186435
56	0x3ec76a0c	0.38948095
57	0xbe491690	-0.19637513
58	0xbeb814f3	-0.35953483
59	0xbf899b08	-1.0750437
60	0xbe904705	-0.28179184
61	0xbf03946c	-0.5139835
62	0x3e867dac	0.26267755
63	0xbe572e9d	-0.21013875
64	0x3cd6ded2	0.026229296
65	0xbc831dac	-0.01600536
66	0xbd360d4d	-0.04444628
67	0xbcfbdda3	-0.030745333
68	0xbc456ee8	-0.012050368
69	0x3cc86566	0.024462413
70	0xbd13ce36	-0.03608533
71	0xbba07ac0	-0.0048974454
72	0xbc35a478	-0.011086576
73	0xbc8490aa	-0.016182262
74	0x3d20f151	0.039292637
75	0xbc0db3f4	-0.008648861
76	0xbcb9e097	-0.0226901
77	0xbca33523	-0.019922798
78	0x3d19301b	0.037399393
79	0xba731a80	-0.0009273663
80	0xbcab8e3d	-0.020941848
81	0xbce0b49a	-0.027429868
82	0x3cc3c5a6	0.023897957
83	0xbd4b0ada	-0.049570896
84	0x3bf02990	0.0073291734
85	0x3cd91922	0.026501242
86	0xbc9db047	-0.019249095
87	0xba686ac0	-0.00088660046
88	0x3cd47dce	0.025938895
89	0xbd04316d	-0.0322737
90	0xbce81970	-0.028332442
91	0x3be0d3e8	0.0068611987
92	0xbc9df357	-0.019281073
93	0xbbd5c440	-0.006523639
94	0x3c95cf22	0.018287245
95	0xbd18bd6d	-0.037290026
96	0x3d04e461	0.03244436
97	0xbd391303	-0.045184147
98	0x3d44cff7	0.048049893
99	0xbd1f4833	-0.038887214
100	0x3c85a4d2	0.016313944
101	0x3cc88a12	0.0244799
102	0x3d0a7f35	0.03381272
103	0x3bdc6ee8	0.0067270882
104	0x3c971506	0.018442642
105	0x3b026c20	0.0019900873
106	0xbd2e6765	-0.042579073
107	0xbcf4b8f0	-0.029873341
108	0x39fae680	0.00047855452
109	0xbba9e9d8	-0.005185347
110	0xbd08ae98	-0.03336963
111	0xbc1f940c	-0.009739887
112	0xbcd4d1fa	-0.02597903
113	0xbcea9017	-0.02863316
114	0xbc236774	-0.009973396
115	0xbcbc6fd0	-0.023002535
116	0xbd1e7806	-0.038688682
117	0xbc8b1320	-0.016976893
118	0xbd296192	-0.041352816
119	0x3c50c2cc	0.012741756
120	0x3a9963a0	0.0011702664
121	0x3d3b7897	0.0457693
122	0x3d085749	0.033286367
123	0x3d3f6e15	0.04673584
124	0x3c5c1ddc	0.013434853
125	0x3d165681	0.03670359
126	0xbd12182d	-0.035667587
127	0xbd317f6d	-0.043334413
128	0x3cd1e352	0.02562109
129	0xbc3c7db4	-0.011504579
130	0x3d187fe9	0.03723136
131	0x3d4690c7	0.048477914
132	0x3c60a09c	0.013710167
133	0xbc3af0e8	-0.011409976
134	0xbcef42fd	-0.029206747
135	0x3d3520cb	0.044220727
136	0x3a013cc0	0.0004930012
137	0x3d0a5899	0.0337759
138	0x39ea1280	0.00044645742
139	0xbd0f3968	-0.034966856
140	0x3d453639	0.048147414
141	0xbc608bf8	-0.013705246
142	0x3c75ca0c	0.015001785
143	0x3c9a6c0a	0.018850345
144	0x3cf1a72a	0.029498655
145	0x3cd4106a	0.025886733
146	0x3b801458	0.003908675
147	0x3c7fc88c	0.015611779
148	0xbcd8ceed	-0.026465857
149	0xbd3f121a	-0.046648122
150	0xbb973518	-0.0046144836
151	0x3c688544	0.014191929
152	0xbd0d32c2	-0.034472235
153	0x3d47f727	0.048819687
154	0x3d37a2df	0.04483306
155	0xbd38e932	-0.045144267
156	0xba809860	-0.0009811036
157	0x3d318267	0.043337252
158	0xbd1fd4ae	-0.039021187
159	0x3b342020	0.0027484968
160	0xbc8d1b0c	-0.017224811
161	0xbba50e68	-0.0050371177
162	0xbd24317b	-0.04008625
163	0x3d425029	0.047439728
164	0xbcf83b3a	-0.030301679
165	0x3d2c61d5	0.042085487
166	0x3d24042d	0.040043045
167	0x3d33c4e3	0.043888938
168	0xbca4ab3d	-0.020101184
169	0xbbd7cbe8	-0.006585587
170	0x3cf6fcf2	0.03014991
171	0xbd201d8b	-0.039090674
172	0x3d39f847	0.04540279
173	0x3d48b4c9	0.049000535
174	0xbc7b3740	-0.015332997
175	0x3cb2852a	0.021792013
176	0xbd186f3e	-0.037215464
177	0x3d03698f	0.03208309
178	0xbd46321d	-0.048387635
179	0xbd38f0fb	-0.045151692
180	0x3cc5275e	0.024066623
181	0x3c527754	0.012845833
182	0xbd026b7a	-0.03184078
183	0x3d0a02ff	0.033694264
184	0x3d3f19b9	0.04665539
185	0x3d249c31	0.04018802
186	0xbd296880	-0.041359425
187	0x3d29ac1d	0.041423906
188	0xbd149d45	-0.036282796
189	0xbc8d8a1c	-0.01727777
190	0x3d3d56eb	0.04622547
191	0xbd2575b8	-0.04039547
192	0x3cb97702	0.022639755
193	0xbd124c1d	-0.03571712
194	0xbcde2870	-0.027118891
195	0x3cc93dee	0.024565663
196	0x3a9f3d40	0.0012148991
197	0xbc402760	-0.011728138
198	0xbbe4edd0	-0.0069863573
199	0x3c723d94	0.014785189
200	0x3c1fb5d4	0.009747941
201	0x3b58c1b0	0.003307443
202	0xbd0150b4	-0.031571105
203	0xbc3d8060	-0.0115662515
204	0xbd34c38d	-0.044131804
205	0x3aef5440	0.0018259361
206	0xbc680398	-0.014161013
207	0xbbd33328	-0.0064453073
208	0xbc68b398	-0.014202975
209	0x3cd2e1c2	0.025742415
210	0x3d1821e9	0.037141714
211	0x3c1fd68c	0.009755742
212	0x3c85f25e	0.016350921
213	0xbc138838	-0.009004645
214	0x3cb9db0a	0.022687454
215	0xbc5cc138	-0.013473801
216	0x3d092121	0.03347886
217	0xbb6612a0	-0.0035106316
218	0xbcc4f8fd	-0.024044508
219	0xbcf65d20	-0.030073702
220	0xbd2318d0	-0.039818585
221	0xbd0bd64d	-0.03413992
222	0xba165a80	-0.00057355314
223	0xbc050088	-0.008117802
224	0x3ca06c52	0.019582901
225	0x3cd3e5e2	0.025866453
226	0x3c34aa40	0.011026919
227	0x3cff20c2	0.03114355
228	0x3c4a28b8	0.01233881
229	0xbb57e760	-0.0032944307
230	0x3d116361	0.035495166
231	0xbd4c3823	-0.049858224
232	0x3d4cb599	0.049977873
233	0x3c3b6640	0.0114379525
234	0xbbfc0900	-0.0076915026
235	0x3d058fc1	0.032607798
236	0x3d18beef	0.037291463
237	0xbc7575f8	-0.014981739
238	0x3d167dd1	0.03674108
239	0xbd3bc3ab	-0.0458409
240	0x3b349cb0	0.0027559213
241	0x3d0f1627	0.034933235
242	0x3d0f2eb3	0.034956645
243	0x3d428829	0.047493134
244	0x3d453609	0.048147235
245	0xbd1d80c5	-0.038452882
246	0xbc154678	-0.009111039
247	0xbc7b1718	-0.01532533
248	0xbca69230	-0.02033338
249	0xbbee9e30	-0.007282041
250	0x3d351e7f	0.044218536
251	0xbd406430	-0.046970546
252	0x3d2297a9	0.039695416
253	0xbd0964d2	-0.033543415
254	0x3cbf8efe	0.023383614
255	0x3c5b6134	0.013389874

lstm.weight_ih_l0 f4 [512, 64]
0	0x3f2fb9ca	0.68642867
1	0xbed3904a	-0.4132102
2	0xbf29232d	-0.660693
3	0x3ea0cfcc	0.31408536
4	0xbef531f0	-0.47889662
5	0x3e8fb190	0.28065157
6	0xbf8c0c22	-1.0941203
7	0x3f84ea12	1.0383933
8	0x3b91456d	0.004433325
9	0xbe93c961	-0.28864577
10	0xbe90aa13	-0.28254756
11	0xbf137833	-0.57605284
12	0x3e9d2f57	0.3070018
13	0xbe4fd533	-0.20296173
14	0xbf865e81	-1.049759
15	0x3d641310	0.055682242
16	0x3ec3a132	0.3820892
17	0x3e7ca954	0.24673969
18	0x3c3826f2	0.011239754
19	0x3f61ebc7	0.8825039
20	0xbb1f131b	-0.0024272862
21	0x3e1b77e9	0.15182461
22	0x3ff0ac8a	1.8802655
23	0x3edc8961	0.43073562
24	0x3fb4e8b7	1.4133519
25	0xba7e2b75	-0.00096958067
26	0x3e111fc1	0.1417227
27	0xbf17cc18	-0.592958
28	0x3f072cff	0.52803034
29	0xbe8ab6d3	-0.2709261
30	0xbe74674f	-0.23867534
31	0x3e9c55b5	0.3053414
32	0x3f448ebb	0.7678029
33	0xbe4c890f	-0.19974159
34	0xbe37c39c	-0.17945713
35	0x3f1ed807	0.6204838
36	0x3f0c911e	0.5490893
37	0x3f920c7d	1.1410061
38	0xbebd2650	-0.36943293
39	0x3e9f62df	0.3113012
40	0xbe84e992	-0.2595945
41	0xbf2cc80a	-0.67492735
42	0x3f05fe9d	0.52341634
43	0x3f0cba22	0.54971516
44	0xbf614938	-0.8800235
45	0xbed1c823	-0.40973005
46	0x3eb0345e	0.34414953
47	0x3f090228	0.53518915
48	0x3e85393b	0.26020226
49	0x3fc11f54	1.5087686
50	0x3dffe240	0.12494326
51	0x3f535e4c	0.8256576
52	0x3eb4464f	0.3520989
53	0xbf283af9	-0.65714985
54	0x3debac0d	0.115074255
55	0x3ebeb290	0.37245607
56	0xbf1be077	-0.6088938
57	0x3f8a0ae1	1.078457
58	0x3fadfed0	1.3593388
59	0x3e22385d	0.15841813
60	0x3e2b2768	0.16714251
61	0x3f30b1c5	0.69021255
62	0xbfd8b7e7	-1.6931123
63	0xbe9c502e	-0.30529922
64	0xbd97b244	-0.07407048
65	0x3bddd11a	0.0067693116
66	0xbda9391e	-0.08262847
67	0xbe393f29	-0.180905
68	0xbe84db2b	-0.25948462
69	0x3ec945a5	0.39310947
70	0xbf03f720	-0.5154896
71	0x3c78d672	0.0151878465
72	0xbeb90a13	-0.361405
73	0x3e153911	0.1457255
74	0x3e4a2510	0.197407
75	0x3ea2b70b	0.31780276
76	0x3ebbc539	0.36673906
77	0xbf0ebe28	-0.55758905
78	0x3d6d758c	0.05797343
79	0xbe99385e	-0.29925817
80	0x3da91edd	0.0825784
81	0xbf3cfebd	-0.738262
82	0x3e67fa62	0.22654107
83	0x3e93ad71	0.28843263
84	0x3d3b79c6	0.04577043
85	0xbf655ac8	-0.89591646
86	0x3f874385	1.056748
87	0x3e8a6ac6	0.27034587
88	0xbe35f339	-0.17768563
89	0xbe818b1a	-0.2530144
90	0xbe38c8b0	-0.18045306
91	0x3e099c56	0.13438544
92	0xbe79df39	-0.24401559
93	0xbef5e672	-0.48027378
94	0xbf21eca6	-0.6325172
95	0x3f03a481	0.5142289
96	0xbee50096	-0.4472701
97	0xbf26bc74	-0.65131307
98	0xbe92afd3	-0.28649768
99	0xbe96794d	-0.2938942
100	0x3f451b8d	0.76995164
101	0xbe5e013e	-0.21680161
102	0xbec07e38	-0.37596297
103	0x3eb6dfd0	0.3571763
104	0x3e86dc0c	0.26339757
105	0xbdf6b895	-0.12046925
106	0x3eb712eb	0.3575662
107	0x3f0e6724	0.5562613
108	0xbef46fb3	-0.4774147
109	0x3dd0be6a	0.101925686
110	0xbf1ddd24	-0.6166556
111	0x3f207ad9	0.6268745
112	0xbf0b6050	-0.54443836
113	0xbea5706d	-0.32312337
114	0xbdc50318	-0.09619731
115	0xbf1d5c95	-0.61469394
116	0x3f24eef2	0.644271
117	0xbeacd020	-0.33752537
118	0xbcdef705	-0.027217397
119	0x3f6e49a4	0.93081117
120	0x3e207dc9	0.15672983
121	0x3f5a0696	0.851663
122	0x3ea9d9f8	0.3317411
123	0xbf1ded05	-0.6168979
124	0x3ef9acf5	0.48764768
125	0xbeb2827b	-0.34865174
126	0xbed83246	-0.42225856
127	0x3eae2ebc	0.3402003
128	0x3e907ea7	0.28221628
129	0xbf098a21	-0.53726393
130	0xbf66a868	-0.9010072
131	0x3d8fe124	0.07025364
132	0x3f068172	0.5254127
133	0xbda9e30f	-0.08295261
134	0x3ea29cb0	0.31760168
135	0xbe9927cd	-0.29913178
136	0x3f68569c	0.90757155
137	0xbe562ded	-0.20915957
138	0xbf2c0020	-0.6718769
139	0x3efdad6e	0.4954638
140	0xbe5a5961	-0.21323158
141	0x3e9578e5	0.29193798
142	0xbf052fbb	-0.52025956
143	0x3eef4f3d	0.46740142
144	0x3f7a07d5	0.976682
145	0x3f1d934c	0.6155288
146	0xbf01ee4d	-0.50754243
147	0x3df07101	0.11740304
148	0x3e7a9624	0.24471337
149	0x3ed4cfb6	0.4156472
150	0xbea14100	-0.31494904
151	0xbe7e592e	-0.24838707
152	0xbcb8221f	-0.022477208
153	0xbed8f08a	-0.42371017
154	0xbe8661e4	-0.2624656
155	0xbf5c5861	-0.86072356
156	0x3f081727	0.5316033
157	0x3fa02d36	1.2513797
158	0x3f2dc2c1	0.67875296
159	0xc0185287	-2.380037
160	0x3ea2fd18	0.3183372
161	0x3fe3f3ae	1.780874
162	0xbe29e06f	-0.16589521
163	0x3f91ae24	1.1381269
164	0xbd062590	-0.032750666
165	0xbf121edd	-0.57078344
166	0x3fbef817	1.4919461
167	0xbfa0fe0a	-1.2577527
168	0x3d662c00	0.056194305
169	0x3e8af764	0.2714187
170	0xbeaa7df2	-0.33299214
171	0x3e6d86cb	0.2319595
172	0x3f01d49b	0.50715035
173	0x3e03049c	0.12794727
174	0x3e833538	0.2562654
175	0xbe88ad10	-0.26694536
176	0x3f8c05e0	1.0939293
177	0xbcc6b992	-0.024258409
178	0x3e447520	0.19185305
179	0xbed0306e	-0.4066195
180	0x3da3c482	0.07996465
181	0xbf488c40	-0.78339005
182	0xbeeaeaee	-0.45882362
183	0x3e619d48	0.22032654
184	0xbefe3543	-0.4965001
185	0xbf552812	-0.8326427
186	0x3ec6fcee	0.38864845
187	0x3f6a7da1	0.91597944
188	0xbe0c2de8	-0.13689387
189	0xbcd0e516	-0.025499862
190	0x3e92f4bb	0.2870234
191	0xbf04c4e7	-0.5186295
192	0x3e0e09f8	0.1387099
193	0xbf121083	-0.57056445
194	0x3df0d12c	0.11758646
195	0x3e3a0eac	0.1816966
196	0x3eb72990	0.35773897
197	0x3e26516c	0.16241997
198	0xbf107169	-0.5642305
199	0x3eb9fd66	0.3632614
200	0xbe453232	-0.19257429
201	0x3dfe7532	0.12424697
202	0xbdeb7330	-0.1149658
203	0xbefdf72c	-0.4960264
204	0x3f6fdfd2	0.937009
205	0x3ea040a7	0.31299326
206	0x3e22fd97	0.1591705
207	0xbef5752c	-0.47940958
208	0xbdb9dc09	-0.090751715
209	0xbf6fb934	-0.9364197
210	0x3ebcc171	0.36866334
211	0x3e850475	0.25979963
212	0x3d257bde	0.040401332
213	0xbf2b16b1	-0.668315
214	0x3ee65ae0	0.44991207
215	0x3f3aded0	0.72996235
216	0x3f329edc	0.6977365
217	0x3e9560f2	0.29175526
218	0xbecd3b58	-0.40084338
219	0x3e6e48af	0.23269914
220	0x3e551494	0.20808631
221	0xbf084814	-0.5323498
222	0x3e805272	0.250629
223	0x3f029801	0.5101319
224	0xbf1017da	-0.56286395
225	0xbed7c4d5	-0.42142358
226	0x3cb5aa99	0.022176074
227	0xbe2a9ef2	-0.16662195
228	0x3f550443	0.8320963
229	0x3ef3048c	0.47464406
230	0xbf49b6b8	-0.7879443
231	0x3f8b1f0a	1.0868847
232	0xbdd50623	-0.10401561
233	0xbed0da08	-0.40791345
234	0x3f43b0af	0.7644147
235	0x3b8d18df	0.0043059434
236	0xbd8b75b5	-0.0680956
237	0x3d6710d9	0.05641255
238	0x3f6aba64	0.9169066
239	0x3e28b3b1	0.16474797
240	0xbf18a793	-0.596307
241	0x3f37f054	0.71851087
242	0xbe53e6a8	-0.20693457
243	0xbe144772	-0.14480379
244	0x3e5ad724	0.21371132
245	0x3dd0035d	0.101568915
246	0x3d986cbb	0.07442614
247	0xbceeb795	-0.029140273
248	0x3e3489c4	0.17630678
249	0xbe2d0192	-0.1689513
250	0x3f0bada9	0.5456186
251	0xbf135203	-0.57547015
252	0x3ebacb9c	0.36483467
253	0x3f0607d1	0.52355677
254	0xbf8fe98e	-1.124315
255	0xbe851c8f	-0.2599835

lstm.weight_hh_l0 f4 [512, 128]
0	0x3f6aa2f3	0.9165489
1	0x3f846fc3	1.0346607
2	0x3f2dfc7e	0.679634
3	0xbe064c97	-0.13115154
4	0x3e9e8b95	0.30965868
5	0x3db446d8	0.08802575
6	0xbed1b725	-0.4096004
7	0xbf469769	-0.77574784
8	0xbf5dd060	-0.8664608
9	0x3f01be6f	0.50681204
10	0x3f93d75e	1.15501
11	0x3ec078ec	0.37592256
12	0xbf56e2b6	-0.83939683
13	0x3fed0692	1.851763
14	0x3e729b6d	0.23692103
15	0xbf9195f4	-1.1373887
16	0xbeb9c06c	-0.3627962
17	0xbe80e3c8	-0.25173783
18	0xbf6540ed	-0.89552194
19	0xbf50efa7	-0.8161568
20	0xbe458710	-0.19289804
21	0x3f2bd1ea	0.6711718
22	0xbff25b15	-1.8934046
23	0xbf2a8974	-0.66615987
24	0x3f9c551a	1.2213471
25	0xbfedc14b	-1.8574613
26	0xbf3dac28	-0.74090815
27	0x3f0d36e6	0.55161893
28	0xbe9fb05d	-0.31189242
29	0xbe01a2a0	-0.12659693
30	0xbf855ef3	-1.0419601
31	0x3db47b75	0.0881261
32	0xbecf446e	-0.40481895
33	0x3f5ca1e0	0.861845
34	0x3f3f1890	0.74646854
35	0xbf88bcbd	-1.0682598
36	0x3f39099e	0.722803
37	0xbf150031	-0.5820342
38	0xbda4f29b	-0.08054086
39	0x3f83dd90	1.030199
40	0xbf7f3cc6	-0.9970211
41	0xbf959c6e	-1.1688364
42	0x3f916372	1.1358473
43	0x3f0ad2f0	0.54228115
44	0xbebd72da	-0.37001687
45	0xbc565055	-0.013080676
46	0x3ed94ee7	0.4244301
47	0xbd8a28fb	-0.06746098
48	0xbf41963e	-0.75619876
49	0x3e9b1224	0.30287278
50	0xbc0c3d2e	-0.008559508
51	0xbeb35267	-0.35023805
52	0x3d011c3d	0.03152107
53	0xbf9805c2	-1.1876757
54	0x401b9fa1	2.431618
55	0xbf64a7da	-0.8931862
56	0xbe8cdede	-0.27513784
57	0xbf647554	-0.8924153
58	0x3f18243d	0.59430295
59	0xbe046cb4	-0.12932092
60	0x3e2ef4dd	0.17085595
61	0xbf2cd36f	-0.6751012
62	0x3d399dbb	0.04531644
63	0xbc73bf4b	-0.014877151
64	0xbf86e401	-1.0538331
65	0xbee063e0	-0.438262
66	0x3e550308	0.20801938
67	0x3dbebd84	0.09313491
68	0xbf1682a2	-0.5879308
69	0x3f1472df	0.5798778
70	0x3faa9bf9	1.3328849
71	0x3f69242d	0.91070825
72	0xbe28414c	-0.16431159
73	0xbeefadad	-0.46812192
74	0x3dc6b570	0.09702575
75	0xbfe2798a	-1.7693341
76	0xbf8fc641	-1.1232377
77	0xbe68b26a	-0.2272431
78	0x3f633ee1	0.8876782
79	0x3f256634	0.64609075
80	0xbfac237f	-1.3448333
81	0x3f15505a	0.5832573
82	0x3e9a3a1b	0.30122456
83	0x3f075436	0.5286287
84	0xbe531de0	-0.20616865
85	0x3e35026a	0.17676702
86	0x3eefbef5	0.46825376
87	0x3ff7a327	1.9346665
88	0x3f7cdb7a	0.98772395
89	0x3fcec2a9	1.6153156
90	0x3f859016	1.0434597
91	0x3f27f854	0.65613294
92	0x3fb0e18b	1.381883
93	0xbe81d791	-0.25359777
94	0x3f30ed96	0.6911253
95	0x3ec1c515	0.37845674
96	0xbf689866	-0.9085754
97	0xbf49e1ba	-0.78860056
98	0x3e5890b4	0.2114895
99	0x3e95a634	0.29228365
100	0xbfe94bee	-1.8226297
101	0x3ec423fe	0.3830871
102	0x3f566838	0.83752775
103	0x3f620305	0.8828586
104	0xbfa5e592	-1.2960684
105	0x3fc57838	1.5427313
106	0x3ea20e8f	0.31651732
107	0x3f4f2d95	0.8092893
108	0x3f795e24	0.9740927
109	0xbeb7602a	-0.35815555
110	0xc001dbea	-2.0290475
111	0xbdc430e4	-0.09579638
112	0xbe728b8a	-0.23686042
113	0xbf5a79c2	-0.8534204
114	0x3e97aeba	0.29625493
115	0xbfb961bb	-1.448295
116	0x3e7a7848	0.24459946
117	0xbf0beac1	-0.5465508
118	0x3e05a554	0.13051349
119	0xbf311c8d	-0.6918419
120	0xbf5d12cc	-0.86356807
121	0x3ede6674	0.4343754
122	0xbf476470	-0.7788763
123	0x3eae5b4f	0.34054038
124	0x3f19f94d	0.6014603
125	0xbfac1e68	-1.3446779
126	0xbe8e21e1	-0.27760223
127	0xbfc83608	-1.5641489
128	0x3d29e475	0.04147764
129	0x3f121ecf	0.5707826
130	0x3e031ebb	0.12804691
131	0x3f8d4323	1.1036114
132	0xbebee736	-0.37285775
133	0x3f555c6c	0.8334415
134	0x3d278614	0.04089935
135	0xbfb7843c	-1.433723
136	0x3e067040	0.13128757
137	0x3f25513b	0.6457707
138	0x3dfbb13f	0.122896664
139	0xbe86eef2	-0.26354176
140	0xbf3b7a4c	-0.73233485
141	0xbf6452c6	-0.891888
142	0x3f36eeb9	0.7145801
143	0x3f48f59e	0.7849978
144	0xbfa6fc50	-1.304575
145	0xbe10cfa3	-0.14141707
146	0x3e3176c9	0.17330469
147	0xbf13a2ef	-0.5767049
148	0xbb954b5c	-0.0045561027
149	0x3f3ee56b	0.74568814
150	0xbf4cf6ef	-0.8006429
151	0xbe99e78d	-0.30059472
152	0x3f85aec6	1.0443962
153	0x3e7c0dce	0.24614641
154	0xbeff98bb	-0.49921212
155	0x3f34fdfc	0.7070005
156	0xbec32d68	-0.3812058
157	0xbe93f79f	-0.28899857
158	0x3fc0302c	1.5014701
159	0xbb3b8a4c	-0.0028616367
160	0x3f8bbd9a	1.0917237
161	0x3ef47369	0.477443
162	0xbe2740dc	-0.16333336
163	0xbf3b907a	-0.7326733
164	0x3ea9283d	0.33038512
165	0x3e65403d	0.22387786
166	0xbf10a827	-0.5650658
167	0x3f28c6b7	0.65928215
168	0x3f813723	1.0094951
169	0xbec1f155	-0.37879434
170	0x4002ff5d	2.0468361
171	0x3eeb4f0a	0.4595874
172	0x3fc28fdf	1.5200156
173	0xbe400039	-0.18750085
174	0x3f0ed36d	0.5579136
175	0x3df029ba	0.11726709
176	0xbd2a7dd1	-0.041623894
177	0xbf8a9aa0	-1.0828438
178	0x3ed62104	0.41822064
179	0x3f6e0154	0.92970777
180	0x401b022b	2.4220073
181	0x3e9a0d73	0.30088386
182	0x3f976f97	1.183093
183	0x3e1f8fd6	0.15582213
184	0xc07ba078	-3.9316692
185	0x3f9ee0e2	1.2412379
186	0xbecc586d	-0.39911214
187	0x3f0a51e8	0.5403123
188	0x3e62b291	0.2213843
189	0xbe88cb93	-0.26717815
190	0x3ea4ebba	0.32211095
191	0xbf009330	-0.5022459
192	0x3f76efaa	0.9645945
193	0xbe0e6d73	-0.13908939
194	0x3f14b91b	0.5809495
195	0x3f06bbe5	0.52630454
196	0x3f40ab76	0.7526163
197	0xbd622330	-0.05520934
198	0xbfb369ff	-1.4016722
199	0xbf1f8bb7	-0.6232256
200	0xbd435dd5	-0.047696907
201	0xbe36fa44	-0.17868906
202	0xc01084ea	-2.2581124
203	0x3f16605f	0.587408
204	0x3d741e51	0.059599224
205	0xbd81a4d2	-0.06330265
206	0xbe839640	-0.2570057
207	0xbe9c9299	-0.30580595
208	0xbe89c969	-0.26911476
209	0x3f712544	0.9419749
210	0xbfa43acc	-1.2830443
211	0xbe39cda1	-0.18144847
212	0xbdf73a9f	-0.12071728
213	0x3e8abdc6	0.2709791
214	0x3e657229	0.2240683
215	0xbea97f8a	-0.33105117
216	0xbf3a3d8c	-0.72750163
217	0xbdcf43eb	-0.10120376
218	0x3f55f175	0.8357156
219	0x3e548b0d	0.20756169
220	0xbc8b4e39	-0.017005073
221	0x3faaa924	1.3332868
222	0x3f1b6bc3	0.60711306
223	0xbec033f7	-0.37539646
224	0xbfa0d463	-1.2564815
225	0x3e8e7b77	0.2782857
226	0xbf19312b	-0.5984065
227	0xbe554a17	-0.20829044
228	0x3f14a1e0	0.580595
229	0xbf9987ff	-1.1994628
230	0xbf1211c3	-0.5705835
231	0x3e42d572	0.19026735
232	0xbfa613c6	-1.2974784
233	0xbfcca58c	-1.5988021
234	0x3f12b925	0.5731376
235	0x3f9610f8	1.1723928
236	0xbf1e1931	-0.6175719
237	0x3f410fbf	0.7541465
238	0xbf1c6a64	-0.6109984
239	0xbf3f8c71	-0.7482367
240	0xbf1b6dc0	-0.6071434
241	0xbfe08215	-1.7539698
242	0x3e1eda0a	0.15512863
243	0x3f844813	1.0334495
244	0xbf5ae356	-0.8550314
245	0x3f5ec200	0.8701477
246	0xbef0f2b4	-0.47060168
247	0xbf512037	-0.8168978
248	0x3f19936b	0.59990567
249	0x3ea24c6c	0.3169893
250	0xbf8a3668	-1.0797853
251	0x3db4795d	0.08812211
252	0xbf1ed98b	-0.62050694
253	0xbf80b975	-1.0056597
254	0xbfc6226e	-1.5479257
255	0xbebf2eef	-0.37340495

lstm.bias_ih_l0 f4 [512]
0	0xbd573085	-0.052536506
1	0x3d498826	0.049202107
2	0x3f11db26	0.5697502
3	0xbe8fd4ac	-0.28091943
4	0x3f402c34	0.7506745
5	0x3f182748	0.5943494
6	0x3eb1c712	0.3472219
7	0x3e57bf58	0.21069086
8	0xbe862a19	-0.26203993
9	0xbf038436	-0.5137361
10	0x3eda53b2	0.4264198
11	0x3e49c218	0.19702947
12	0x3c90cafb	0.017674914
13	0x3f1afb6e	0.605399
14	0x3eb1cdcb	0.3472732
15	0x3ea31917	0.3185508
16	0x3e7cba74	0.24680501
17	0xbea238fb	-0.31684098
18	0xbeaa79df	-0.33296105
19	0xbc9740ea	-0.01846357
20	0x3f44a0d0	0.7680788
21	0xbeaf8ccc	-0.34287107
22	0x3ec7819c	0.38966072
23	0x3ed4a3d2	0.41531235
24	0x3f709714	0.93980527
25	0xbd9e490d	-0.07728777
26	0x3f9f1972	1.242964
27	0x3ecb1d0c	0.39670599
28	0x3f4009ba	0.7501484
29	0x3ebfa0b0	0.37427282
30	0xbf15007f	-0.5820388
31	0x3eeb5fb5	0.45971456
32	0x3fba34f3	1.4547409
33	0xbe363f4a	-0.1779758
34	0x3f85825a	1.0430405
35	0x3ddd47fd	0.10804746
36	0xbf037ddb	-0.51363915
37	0xbd3fbc11	-0.046810213
38	0x3f939948	1.1531153
39	0x3f09bfff	0.5380859
40	0xbf71dd34	-0.94478154
41	0x3f670c39	0.90253025
42	0x3e2382b5	0.1596783
43	0xbeb883af	-0.36037967
44	0x3f493e60	0.786108
45	0x3e9df184	0.30848324
46	0x3f4bef9d	0.79662496
47	0x3f032417	0.51226944
48	0x3f0ab451	0.5418139
49	0x3dc90924	0.098161966
50	0x3e1ebc80	0.15501595
51	0x3f54524b	0.8293807
52	0xbef67925	-0.481393
53	0x3e8a1951	0.2697244
54	0x3ef5ff31	0.48046258
55	0x3f34d715	0.7064069
56	0xbecd5c43	-0.40109453
57	0x3e32fd8f	0.17479537
58	0xbe1b9aef	-0.15195821
59	0x3f10fbdf	0.56634325
60	0x3e8176b9	0.2528589
61	0x3e3ae61e	0.18251845
62	0xbdc7ac8a	-0.09749706
63	0xbd861f02	-0.06548883
64	0xbf348876	-0.7052072
65	0x3f80e091	1.0068532
66	0x3ed248ae	0.41071075
67	0x3f28a821	0.65881544
68	0xbe473dd4	-0.1945718
69	0x3f46700b	0.77514714
70	0x3b64f2e5	0.0034934815
71	0x3d3ed2a5	0.046587605
72	0x3f063376	0.52422273
73	0xbe4c4aaa	-0.19950357
74	0x3e92da65	0.28682247
75	0x3e16517d	0.14679523
76	0x3ebecf21	0.37267402
77	0x3edc5595	0.43034044
78	0x3f48afea	0.78393424
79	0x3e9cefc8	0.3065169
80	0xbe0fedcb	-0.14055555
81	0x3e91624c	0.28395307
82	0x3e641a6a	0.22275701
83	0x3e8b5677	0.27214405
84	0x3f5637f5	0.83679134
85	0x3f3e2521	0.74275404
86	0x3e5a06ec	0.21291703
87	0x3ee6a652	0.45048767
88	0x3f89c7a2	1.0764048
89	0x3e4b6c5e	0.19865558
90	0xbefb9563	-0.4913741
91	0x3e5e3390	0.21699357
92	0xbd383c73	-0.044979524
93	0x3f72be98	0.94822073
94	0x3defad14	0.11702934
95	0xbc091e1f	-0.008368998
96	0x3d864701	0.06556512
97	0x3e60f2df	0.21967648
98	0x3ecc516f	0.3990588
99	0x3e2b71cd	0.1674263
100	0x3f42c431	0.76080614
101	0x3e86d38d	0.26333275
102	0x3e65d737	0.22445379
103	0xbf178c4e	-0.5919846
104	0x3c098151	0.008392648
105	0x3f33f22b	0.70291394
106	0xbeeda1b1	-0.46412423
107	0x3e987b79	0.29781702
108	0xbb8ce3ac	-0.0042996015
109	0xbeb9b0f0	-0.36267805
110	0x3e090a41	0.13382818
111	0x3ddcd770	0.10783279
112	0x3f021f5b	0.50829095
113	0x3e981abd	0.297079
114	0xbd7cf171	-0.061753694
115	0x3f845927	1.0339707
116	0x3f2bfde1	0.67184263
117	0xbe00fbb3	-0.12596016
118	0x3ec4eb58	0.38460803
119	0x3e45f20a	0.19330612
120	0xbcad2984	-0.02113796
121	0x3ea18669	0.3154786
122	0x3d1beaff	0.038065907
123	0x3f5ceda7	0.8630013
124	0x3e60a6d4	0.2193864
125	0xbf083baa	-0.5321604
126	0x3fc9711e	1.5737646
127	0x3ebca4c0	0.36844444
128	0xbc41e3e1	-0.011834116
129	0x3ebb24a4	0.36551392
130	0x3e50c38d	0.20387097
131	0xbbb656a7	-0.005564529
132	0x3e028413	0.12745695
133	0x3de6bdc8	0.11266667
134	0xbe5304ce	-0.20607302
135	0x3e84fc57	0.2597377
136	0xbe93157f	-0.28727338
137	0x3ed472f9	0.41493967
138	0x3ef04183	0.4692498
139	0x3e47b8dc	0.19504112
140	0x3e3df820	0.18551683
141	0x3e1420a7	0.14465581
142	0x3bf251aa	0.007394989
143	0x3e034905	0.12820823
144	0x3d550353	0.052005123
145	0x3dc376b5	0.09544126
146	0x3e7e229d	0.24817891
147	0x3e3c0fab	0.18365352
148	0x3d093494	0.033497408
149	0x3d510613	0.051031183
150	0x3ea7b647	0.32756254
151	0x3e0ecb26	0.13944682
152	0x3eb0f4d8	0.345618
153	0x3ef81cea	0.4845956
154	0x3f1c4a87	0.6105122
155	0x3e54c645	0.20778759
156	0x3e128aff	0.14310835
157	0x3e0a056c	0.13478631
158	0x3f41fdf3	0.7577812
159	0xbc3ba040	-0.011451781
160	0x3d69df60	0.057097793
161	0x3eb5b953	0.35492954
162	0xbd2e5a4b	-0.04256658
163	0x3e6e69da	0.23282567
164	0x3e1bd782	0.15218928
165	0x3e997505	0.2997209
166	0x3d202b04	0.039103523
167	0x3e43144f	0.19050716
168	0x3e750b0f	0.2393
169	0x3d2912d9	0.04127774
170	0x3ea84ba6	0.32870215
171	0x3eb784a9	0.358434
172	0xbe8cef2d	-0.27526227
173	0x3dff212c	0.12457499
174	0x3ed869e4	0.42268288
175	0x3eb98741	0.36236003
176	0x3e9b8234	0.30372775
177	0xbec1eee6	-0.37877578
178	0xbe743067	-0.23846589
179	0x3ecba9e5	0.39778057
180	0x3e914243	0.28370866
181	0x3ed85b2b	0.42257056
182	0x3e61305a	0.21991101
183	0xbeb75878	-0.35809684
184	0x3f02615a	0.50929797
185	0x3bf48692	0.007462331
186	0x3c634f03	0.013873818
187	0xbeb6bd55	-0.35691324
188	0x3e8105d8	0.2519977
189	0x3f21a618	0.63144064
190	0x3e952da4	0.29136384
191	0xbda39373	-0.07987108
192	0x3ee1dafb	0.4411238
193	0x3f3f4505	0.7471469
194	0x3ed595f7	0.41715977
195	0x3ec1f202	0.3787995
196	0x3e6df575	0.23238166
197	0x3e99340f	0.2992253
198	0x3f58ea33	0.8473236
199	0x3f48586b	0.78259915
200	0x3ded0644	0.11573461
201	0x3deda908	0.11604506
202	0xbdc19cea	-0.09453757
203	0x3e68d0d3	0.2273591
204	0x3f3ba4f3	0.7329857
205	0xbeaa8be1	-0.33309844
206	0x3e1b4941	0.15164663
207	0x3e246efa	0.16057959
208	0xbd93de61	-0.0722015
209	0x3e5612e3	0.20905642
210	0xbe0013ce	-0.12507555
211	0xbd920e45	-0.07131628
212	0x3f4a62e5	0.7905715
213	0xbead003c	-0.3378924
214	0xbed453cc	-0.41470182
215	0xbdaacd82	-0.08339979
216	0x3f017e41	0.50583273
217	0x3ea180e6	0.31543654
218	0x3ebf96a4	0.37419617
219	0x3eeff231	0.46864465
220	0x3e3a0721	0.18166782
221	0x3f175c96	0.5912565
222	0x3eeeebbf	0.46664235
223	0x3e16902f	0.14703439
224	0xbe0fb479	-0.14033689
225	0xbe1f31fd	-0.15546413
226	0x3f2726ee	0.65293777
227	0xbd4b5d49	-0.04964951
228	0x3dc8a48d	0.097970106
229	0x3ef9e777	0.48809406
230	0x3eb734de	0.35782522
231	0x3e48bfdf	0.19604443
232	0x3ea2fc0a	0.31832916
233	0x3e4698e0	0.19394255
234	0xbbe67624	-0.0070331264
235	0xbeefe14d	-0.46851578
236	0xbef5caea	-0.48006374
237	0xbf3ac2b3	-0.7295334
238	0x3edc71b0	0.43055487
239	0x3f281271	0.6565314
240	0x3ea6ba16	0.32563847
241	0xbe5db342	-0.21650413
242	0x3e27bfa1	0.16381694
243	0x3e82bcf1	0.25534776
244	0x3e2acad9	0.16678943
245	0x3e0ac15d	0.13550325
246	0x3ed28c70	0.4112277
247	0x3e138c3f	0.14408968
248	0xbe7b0ded	-0.24517031
249	0x3d4f07f2	0.050544687
250	0x3e6ca46c	0.23109597
251	0x3bee6c76	0.007276113
252	0xbd89982a	-0.06718476
253	0x3f3707fb	0.7149655
254	0xbe97380b	-0.29534945
255	0x3e0e821e	0.13916823

lstm.bias_hh_l0 f4 [512]
0	0xbd744cd3	-0.059643578
1	0x3d21ad42	0.039471872
2	0x3f196df2	0.5993339
3	0xbe945595	-0.28971544
4	0x3f366370	0.7124548
5	0x3f1862aa	0.5952555
6	0x3eb59f7c	0.3547324
7	0x3e865a26	0.26240653
8	0xbe4df333	-0.20112304
9	0xbf0f40b4	-0.55958104
10	0x3ecb216c	0.39673936
11	0x3dd567e2	0.10420205
12	0x3d72433e	0.05914616
13	0x3f04caec	0.51872134
14	0x3ea57503	0.32315835
15	0x3e8cf47c	0.27530277
16	0x3e966094	0.29370558
17	0xbe8a178f	-0.269711
18	0xbe929d2a	-0.28635532
19	0xbc40e229	-0.011772671
20	0x3f45c532	0.7725402
21	0xbe8f1905	-0.27948776
22	0x3ecc7ea4	0.3994037
23	0x3ea65d7e	0.32493204
24	0x3f80ded0	1.0067997
25	0xbcef73ce	-0.029230025
26	0x3f9d96e6	1.2311676
27	0x3ed595de	0.41715902
28	0x3f303274	0.68826985
29	0x3ebaa9ac	0.36457574
30	0xbf21a70d	-0.63145524
31	0x3f07ba3c	0.53018546
32	0x3fbe3dc3	1.4862598
33	0xbe0bdfa8	-0.13659537
34	0x3f85bcc8	1.0448236
35	0x3e05590f	0.13022254
36	0xbf0b21f3	-0.5434868
37	0xbd99d161	-0.07510639
38	0x3f8f827c	1.1211696
39	0x3f0521fb	0.52004975
40	0xbf6b070c	-0.9180763
41	0x3f73a43f	0.95172495
42	0x3e0312bd	0.12800117
43	0xbeaf2fcb	-0.3421615
44	0x3f4cff78	0.80077314
45	0x3e814c9d	0.25253764
46	0x3f5bfbbd	0.85931
47	0x3ee9c878	0.45660758
48	0x3eee22da	0.46510965
49	0x3e0902fd	0.13380046
50	0x3e626e67	0.22112428
51	0x3f53e379	0.8276897
52	0xbeec5d73	-0.46165046
53	0x3e93e717	0.28887245
54	0x3ed425f5	0.4143521
55	0x3f48d341	0.7844735
56	0xbea325ea	-0.31864864
57	0x3e10b66c	0.14132088
58	0xbe3559af	-0.17709993
59	0x3f1210b2	0.57056725
60	0x3e89ce1a	0.26915056
61	0x3e301f5e	0.17199466
62	0xbe2a0211	-0.16602351
63	0xbdcb21f6	-0.09918587
64	0xbf4220a8	-0.7583108
65	0x3f806b80	1.0032806
66	0x3ede6562	0.43436724
67	0x3f20784f	0.62683576
68	0xbe466a76	-0.19376549
69	0x3f4449e3	0.7667524
70	0x3c5c9c16	0.013464948
71	0x3d51bda2	0.05120624
72	0x3f040a61	0.51578337
73	0xbe5d631c	-0.21619838
74	0x3e934179	0.2876089
75	0x3e0e3d1f	0.13890503
76	0x3ed1ce9b	0.4097794
77	0x3ed65023	0.41858014
78	0x3f4d1f62	0.8012601
79	0x3e737f44	0.23779017
80	0xbd93c119	-0.07214565
81	0x3e6babd0	0.2301476
82	0x3e43dafc	0.19126505
83	0x3e7d09d5	0.24710782
84	0x3f558067	0.8339905
85	0x3f4fd09b	0.8117768
86	0x3e56849a	0.20949021
87	0x3ee9e3c6	0.4568159
88	0x3f8d1935	1.1023318
89	0x3e69ca00	0.22830963
90	0xbee1b7a1	-0.4408541
91	0x3e9278eb	0.28607878
92	0xbd59ffca	-0.053222455
93	0x3f79175c	0.9730127
94	0x3e22f31d	0.15913053
95	0x3cf1ae6a	0.029502112
96	0x3da7a917	0.08186548
97	0x3e9821b4	0.29713213
98	0x3ebf8953	0.37409458
99	0x3dfc0fbb	0.12307688
100	0x3f52b57b	0.8230817
101	0x3e89c620	0.2690897
102	0x3e895311	0.26821187
103	0xbf1c4ea3	-0.6105749
104	0xbd34e916	-0.0441676
105	0x3f383539	0.7195621
106	0xbefce4b9	-0.49393252
107	0x3eb72c57	0.35776016
108	0x3c0d559a	0.008626366
109	0xbe990447	-0.29886076
110	0x3e0df1a7	0.13861714
111	0x3d89caaf	0.06728112
112	0x3ed306d1	0.41216138
113	0x3e89f8fe	0.26947778
114	0xbdb5e0b3	-0.088807486
115	0x3f7bf33c	0.9841802
116	0x3f2edb01	0.68302923
117	0xbe5ba6c2	-0.21450332
118	0x3ec57050	0.3856225
119	0x3e4af55c	0.1982016
120	0xbda6e49d	-0.08149073
121	0x3e9fed4d	0.31235734
122	0x3dcd021c	0.10010168
123	0x3f62eea5	0.8864539
124	0x3e58813e	0.21143052
125	0xbf01e4b1	-0.5073958
126	0x3fbedc40	1.4910965
127	0x3ec480aa	0.38379413
128	0xbc8e6062	-0.017379943
129	0x3e96c9e6	0.2945091
130	0x3e50d1c5	0.2039252
131	0x3d5e6c8d	0.05430274
132	0x3e4370ac	0.1908595
133	0x3d89622c	0.06708178
134	0xbe64ce02	-0.2234421
135	0x3e825b4d	0.25460282
136	0xbe8bace4	-0.27280343
137	0x3ec64acb	0.38728938
138	0x3f024b3d	0.50896055
139	0x3e48d776	0.19613442
140	0x3e32e098	0.17468488
141	0x3e1c35ac	0.15254849
142	0x3d1f002b	0.03881852
143	0x3d2b92f0	0.041888177
144	0x3da44ef2	0.0802287
145	0x3d84171d	0.06449721
146	0x3e9fef47	0.31237242
147	0x3e43ff31	0.19140317
148	0x3d295f4d	0.04135065
149	0xbc304ddd	-0.010760752
150	0x3e896434	0.2683426
151	0x3e187d22	0.14891484
152	0x3ea397a2	0.31951624
153	0x3edd0f04	0.4317552
154	0x3f1e3675	0.61801845
155	0x3e7c5449	0.24641527
156	0x3e11a321	0.14222385
157	0x3e19a6b6	0.15005001
158	0x3f417991	0.7557612
159	0x3d70a1f2	0.058748193
160	0x3da4d265	0.08047942
161	0x3e9a34be	0.30118364
162	0x3c3196a7	0.010839141
163	0x3e76a87a	0.24087706
164	0x3e191d70	0.14952636
165	0x3e619a72	0.22031572
166	0x3bf43c76	0.0074534966
167	0x3e66c999	0.22537841
168	0x3e90ae34	0.28257906
169	0x3c10936d	0.008824212
170	0x3ed38b18	0.41317058
171	0x3ec187ab	0.3779882
172	0xbe965670	-0.29362822
173	0x3e2218ca	0.15829769
174	0x3ef5eb5e	0.48031133
175	0x3ed18c79	0.40927485
176	0x3e904d2f	0.28183886
177	0xbec85826	-0.39129752
178	0xbe5fc70d	-0.21853276
179	0x3ec91d47	0.3928015
180	0x3ea20fbd	0.31652632
181	0x3eec1c5b	0.46115384
182	0x3e36f222	0.17865804
183	0xbec0d38a	-0.37661391
184	0x3f07d961	0.5306607
185	0x3d1092e0	0.03529632
186	0xbc83964b	-0.016062876
187	0xbebff433	-0.37490997
188	0x3e6697f3	0.22518902
189	0x3f2d92ac	0.6780193
190	0x3e793a2c	0.24338597
191	0xbc77306a	-0.015087226
192	0x3eee02db	0.46486554
193	0x3f3e4e75	0.74338466
194	0x3ecee667	0.40410158
195	0x3ee1d478	0.44107413
196	0x3e816bb2	0.25277478
197	0x3e7b9632	0.24569014
198	0x3f4ac6f1	0.7920981
199	0x3f4b1475	0.7932809
200	0x3d9fd32b	0.07803949
201	0x3dd8400e	0.105590925
202	0xbd9526f8	-0.07282823
203	0x3e6d8619	0.23195685
204	0x3f432340	0.7622566
205	0xbe9d13a6	-0.30679053
206	0x3de48822	0.11158778
207	0x3d8a6110	0.067567945
208	0xbe0778b3	-0.13229637
209	0x3e419129	0.1890303
210	0xbd5976db	-0.053091865
211	0xbd312abc	-0.043253645
212	0x3f5e7113	0.8689129
213	0xbea5abf2	-0.32357746
214	0xbebfc22c	-0.3745283
215	0xbdf99bd8	-0.12187928
216	0x3f0521a2	0.52004445
217	0x3eb0c2b3	0.34523544
218	0x3eaecd74	0.34141123
219	0x3ee389dd	0.4444112
220	0x3e20d869	0.15707554
221	0x3f128d64	0.57246995
222	0x3f00cd48	0.50313234
223	0x3e0777a9	0.1322924
224	0xbe2a0a33	-0.16605453
225	0xbe2fb037	-0.17157064
226	0x3f31b4a6	0.6941627
227	0xbda8b058	-0.0823676
228	0x3dce6279	0.10077376
229	0x3ef68569	0.4814866
230	0x3eba1762	0.36345965
231	0x3e642888	0.22281086
232	0x3ea091d6	0.31361264
233	0x3e4104e8	0.18849528
234	0xbd77df27	-0.06051555
235	0xbef658e3	-0.4811469
236	0xbf09cb4b	-0.53825825
237	0xbf3c72a7	-0.73612446
238	0x3eefa4a6	0.46805304
239	0x3f27c0e1	0.65528685
240	0x3e73c2c6	0.23804769
241	0xbe04f985	-0.12985809
242	0x3e2e6919	0.17032279
243	0x3ea62d9b	0.3245667
244	0x3e6ec987	0.23319064
245	0x3d536fc0	0.051620245
246	0x3eff8176	0.49903458
247	0x3e0aba4c	0.13547629
248	0xbe5b9d81	-0.21446802
249	0x3d9ab30c	0.07553682
250	0x3e641a86	0.22275743
251	0xbc85c7b0	-0.01633057
252	0x3c9f182c	0.019420706
253	0x3f2e5787	0.68102306
254	0xbe9939d2	-0.29926926
255	0x3d8e9fbf	0.06964063

fc.weight f4 [89, 128]
0	0xc00e96c2	-2.2279515
1	0x3c407061	0.011745543
2	0xbf60f84c	-0.8787887
3	0x3c08fc3a	0.008360917
4	0x3f07cf20	0.5305042
5	0xbf7d6b68	-0.98992014
6	0x3f4648ee	0.7745503
7	0xbed1e240	-0.40992928
8	0xbf24b22a	-0.64334357
9	0x3eaaeee0	0.33385372
10	0x3fb118da	1.3835709
11	0x3fd158ef	1.6355265
12	0x3dcb07c3	0.0991359
13	0xbfa2f6e2	-1.2731593
14	0x3f5adc9a	0.8549286
15	0x3fd5f7d0	1.6716251
16	0x3f0c1c7e	0.54730976
17	0x3e320ebd	0.17388435
18	0xbf8f547f	-1.1197661
19	0x3fcbfb92	1.5936148
20	0x3f836cf6	1.0267627
21	0x4002b2ca	2.0421624
22	0xbf37133c	-0.71513724
23	0xbd709198	-0.0587326
24	0xbcb21606	-0.021739017
25	0xbfb8d624	-1.444035
26	0x3d14ded8	0.036345333
27	0x400bf788	2.186983
28	0x3ef3eb01	0.4764023
29	0x3df6b6ce	0.12046586
30	0x3f067566	0.52522886
31	0xbf6a2994	-0.91469693
32	0x3f696b10	0.9117899
33	0xc0195bf1	-2.3962367
34	0x400746d2	2.1136975
35	0x3f8a26a7	1.0793046
36	0x3d94591a	0.07243557
37	0x3f95d0de	1.1704366
38	0xbeba5820	-0.3639536
39	0x3e66522f	0.22492288
40	0xbf39fc68	-0.72650766
41	0x3ec6c0d1	0.38818982
42	0x3f070140	0.5273628
43	0x3f577ca6	0.84174573
44	0x3f74e111	0.95655924
45	0xbf98f3f3	-1.1949447
46	0x3e82e25e	0.2556333
47	0xbe36ce97	-0.17852245
48	0x3e936a9b	0.2879227
49	0x3e19790a	0.14987579
50	0xbfa04777	-1.2521809
51	0x3eebbb4c	0.46041334
52	0x3efd8300	0.49514008
53	0x3f2e74bc	0.6814687
54	0xbf3eec99	-0.7457977
55	0x3ee32728	0.4436581
56	0xbeb6d38d	-0.35708275
57	0xbfedce01	-1.8578492
58	0x3f8fd258	1.1236067
59	0x3f24102c	0.64087176
60	0x3e8e4bc4	0.2779218
61	0x3ed916a4	0.42400086
62	0xbea6562a	-0.32487613
63	0x3df4f75e	0.11961244
64	0xbe1ba883	-0.15201001
65	0xbf8f3b06	-1.1189888
66	0xbebed5dd	-0.3727254
67	0x3d6f89d7	0.058481064
68	0xbfb1da80	-1.3894806
69	0xbf844666	-1.0333984
70	0xbf94e0d8	-1.1631117
71	0x3fce7888	1.6130533
72	0xbdf732df	-0.1207025
73	0xbc433765	-0.011915063
74	0xbfb85276	-1.4400165
75	0x3f2a18c3	0.66444033
76	0xbf56e9c5	-0.83950454
77	0xbeac4afd	-0.33650962
78	0xbfaaf88d	-1.3357102
79	0xbe9ba924	-0.30402482
80	0xbf4151e1	-0.7551556
81	0xbf1e9838	-0.6195102
82	0xbeb57de1	-0.354476
83	0x3fdb8cc4	1.7152333
84	0x3e1b47ff	0.15164183
85	0x3f22cb0e	0.63591087
86	0x3fcd5bf2	1.6043684
87	0xbf0c77b8	-0.54870176
88	0xbdfba82a	-0.12287934
89	0xbe8dc037	-0.2768571
90	0xbfd52bbe	-1.6653974
91	0xc00bc56a	-2.1839242
92	0xbfb675c4	-1.4254689
93	0x3eef2fcb	0.4671615
94	0x3f72c168	0.94826365
95	0xbec03a92	-0.37544686
96	0x3f1869de	0.5953654
97	0x3f71a042	0.9438516
98	0x3f2065b6	0.626552
99	0x3e9890c0	0.29797935
100	0xbf1d07ce	-0.61340034
101	0xbf8b4816	-1.0881374
102	0x3ebb8850	0.36627436
103	0x3e984847	0.29742643
104	0xbf125ae1	-0.5716992
105	0x3ba41009	0.0050067944
106	0xbe0279aa	-0.12741724
107	0xbf7e43eb	-0.99322385
108	0xbe0a55b0	-0.1350925
109	0xbf70cab6	-0.9405931
110	0x400de4d4	2.2170916
111	0x402a5e39	2.662001
112	0xc015a0fc	-2.3379507
113	0x3fe44615	1.7833887
114	0x3f80733c	1.0035167
115	0x3fb7a53c	1.43473
116	0xbf171789	-0.59020287
117	0xbf8df2fc	-1.1089778
118	0xbe542fd2	-0.20721367
119	0xbff02aa3	-1.8763012
120	0x3f4af98a	0.79287016
121	0x3f64da2c	0.89395404
122	0xc010620b	-2.255984
123	0xbeaec5fd	-0.34135428
124	0xbef240c1	-0.47315028
125	0x3ecfc68d	0.4058117
126	0xbf994a96	-1.1975887
127	0x3e95eb3f	0.2928104
128	0xbecf2514	-0.40457976
129	0xbf0c2e2b	-0.54757947
130	0xbf8e573e	-1.1120374
131	0xbf66943d	-0.90069944
132	0x3f526734	0.82188725
133	0x3f5bf7a8	0.8592477
134	0xbe6d9264	-0.23200375
135	0xbd32256e	-0.043492727
136	0x3ea6eae0	0.3260107
137	0xbe9f9978	-0.31171775
138	0xbd9e2dce	-0.0772358
139	0xbdfdab15	-0.12386147
140	0x3f23f421	0.64044386
141	0xbeefe1dd	-0.46852008
142	0xbeef3a07	-0.4672396
143	0xbd9ec21f	-0.077518694
144	0x3e55c60d	0.20876332
145	0x3e0d0e98	0.13775098
146	0xbfaaf62b	-1.3356375
147	0x3fb45416	1.4088161
148	0xbf67c566	-0.9053558
149	0xbf2cb8ec	-0.6746967
150	0x4013a194	2.306737
151	0x3da458a9	0.08024723
152	0xbea1364c	-0.31486738
153	0x3ec2684c	0.37970197
154	0x3e10c184	0.1413632
155	0xbf838329	-1.0274402
156	0x3d007c8f	0.03136879
157	0x3e9213f5	0.2853085
158	0xbd9ce1a9	-0.07660229
159	0xbf16bddc	-0.5888345
160	0x401c8572	2.4456449
161	0xbf0fe1e1	-0.5620404
162	0xbf68a30f	-0.9087381
163	0xbe59ebcc	-0.21281356
164	0xbd9f7041	-0.077850826
165	0xbee9e9cb	-0.45686182
166	0x3e499622	0.19686177
167	0x3eebbe18	0.46043468
168	0x3eabefb2	0.3358131
169	0x3fd0dd34	1.6317506
170	0xbf68e12a	-0.90968573
171	0x3ee7ada7	0.45249674
172	0x3e73427a	0.23755828
173	0xbeacf653	-0.3378168
174	0x3e872a26	0.26399344
175	0xbea9f591	-0.33195165
176	0xbf062ccd	-0.5241211
177	0xbd3287b5	-0.04358645
178	0xbd91d333	-0.07120361
179	0x3fa7d53b	1.3111948
180	0x3e991e8e	0.29906124
181	0x3ef273bc	0.47353923
182	0xbf5aece1	-0.855177
183	0xbebac1c6	-0.36475962
184	0x3e862d93	0.26206645
185	0x3c41b0ff	0.011821984
186	0x3ee0120a	0.43763763
187	0xbf936ca6	-1.1517532
188	0x3e15b8a0	0.1462121
189	0x3f03ade0	0.5143719
190	0x3f19e266	0.6011108
191	0x3e830bd2	0.25594956
192	0xbe669b63	-0.22520213
193	0xbd1218a8	-0.035668045
194	0x3e66c99b	0.22537844
195	0x3db70fbc	0.08938548
196	0xbf99d16f	-1.2017039
197	0xbe36e85a	-0.17862073
198	0x3ea0bd23	0.313943
199	0x3e815c8e	0.25265926
200	0xbf78c597	-0.971765
201	0x3ea45d7f	0.32102582
202	0x3e3e3b5c	0.18577331
203	0x3ebe36af	0.37151095
204	0xbff64166	-1.9238708
205	0xbf5cf8b0	-0.86316967
206	0x3f0d3edd	0.55174047
207	0xbfb5931c	-1.4185519
208	0xbe8c8cca	-0.27451164
209	0xbe6b34c5	-0.22969349
210	0x3f906df5	1.1283556
211	0x3ed95229	0.42445496
212	0x3e0156b6	0.12630734
213	0xbf94e6d9	-1.1632949
214	0x3e817aac	0.25288904
215	0xbe0cda6f	-0.13755201
216	0xbd728832	-0.059211917
217	0xbe3b8e58	-0.18316019
218	0x3ee3bd03	0.44480142
219	0xbef67c72	-0.4814182
220	0x3ec1cf01	0.37853244
221	0x3f9780f3	1.1836227
222	0x3f653a61	0.89542204
223	0xbdd9eef4	-0.1064128
224	0xbf257243	-0.64627475
225	0xbf67b1a8	-0.90505457
226	0xbd2a973f	-0.041648146
227	0xbedd6188	-0.43238473
228	0xbf898ad6	-1.0745494
229	0xbf794fe0	-0.97387505
230	0xbf70561c	-0.9388139
231	0x3e01e115	0.12683518
232	0xbdf4afe2	-0.119476095
233	0x3f7b8523	0.98250026
234	0xbf58f282	-0.8474504
235	0xbc60332e	-0.013684077
236	0x3f66a88c	0.9010093
237	0x3f3b1f51	0.7309466
238	0xbf4d1ebd	-0.8012503
239	0xbf0511c1	-0.51980215
240	0xc025bcc4	-2.5896463
241	0x3f8d0312	1.1016562
242	0xbe5a87f7	-0.21340929
243	0xbf1f4535	-0.62214977
244	0xbfbcd7bf	-1.475334
245	0x3de4caaa	0.111714676
246	0xbfae8499	-1.3634216
247	0x3e7bdf46	0.24596891
248	0x3aff750d	0.001948984
249	0xbed3f8d8	-0.4140079
250	0x3f179ade	0.59220684
251	0x3f98357d	1.1891323
252	0xbe96315d	-0.29334536
253	0x3d0cbb56	0.034358345
254	0xbff039e5	-1.8767668
255	0x3d476775	0.04868265

fc.bias f4 [89]
0	0xbe8f674e	-0.28008503
1	0xbf944491	-1.1583425
2	0xbf914522	-1.1349223
3	0xbf95cf8c	-1.1703963
4	0xbf8d7bb3	-1.1053375
5	0xbf940197	-1.1562985
6	0xbf9518cd	-1.1648194
7	0xbf8d2569	-1.1027042
8	0xbf8c1370	-1.0943432
9	0xbf9651c0	-1.1743698
10	0xbf8910a4	-1.0708203
11	0xbf8b6862	-1.089123
12	0xbf8e1f10	-1.110323
13	0xbf94963d	-1.1608349
14	0xbf9221a0	-1.1416512
15	0xbf93b941	-1.154091
16	0xbf9445c9	-1.1583797
17	0xbf8d36f7	-1.1032399
18	0xbf909297	-1.1294736
19	0xbf882539	-1.063636
20	0xbf913d16	-1.1346767
21	0xbf870841	-1.0549394
22	0xbf8e9812	-1.1140158
23	0xbf92e7d1	-1.1476995
24	0xbf8286db	-1.0197405
25	0xbf8f1b1a	-1.1180146
26	0xbf88f397	-1.0699338
27	0xbf8fcb16	-1.1233852
28	0xbf8a12ee	-1.0787027
29	0xbf9215fd	-1.141296
30	0xbf8d9e60	-1.1063957
31	0xbf90166a	-1.125684
32	0xbf954df4	-1.1664414
33	0xbf8ee209	-1.116273
34	0xbf92d6ea	-1.1471837
35	0xbe854422	-0.26028544
36	0x3e4ce1f5	0.20008071
37	0xbe913556	-0.28361005
38	0x3d4bdc3f	0.04977059
39	0xbf109258	-0.564733
40	0x3f5a689d	0.8531588
41	0x3e689fcb	0.22717206
42	0xbf3d5a94	-0.73966336
43	0xbfa94e56	-1.3227031
44	0xbed7a6a2	-0.42119318
45	0xbfeaa785	-1.8332373
46	0xbf95e624	-1.1710858
47	0x3fc5205c	1.54005
48	0xbe18bd92	-0.14916065
49	0xbcdf5538	-0.027262315
50	0xbf1a9735	-0.60386974
51	0x3ee13747	0.43987486
52	0x3e8d9a46	0.27656764
53	0x3f6f6720	0.9351673
54	0xbd457ed0	-0.04821664
55	0xbf80e781	-1.0070649
56	0x3f5fb703	0.8738863
57	0xbd43a8e2	-0.04776848
58	0x3d943ff4	0.072387606
59	0xbd90cdf8	-0.070705354
60	0xc0569f9c	-3.3534918
61	0xbf049076	-0.5178293
62	0x3e2a416c	0.16626519
63	0xbe0c8d98	-0.13725889
64	0x3eb52de9	0.3538659
65	0xbebdfa2d	-0.3710493
66	0xbe91249c	-0.28348243
67	0xbf86dd6e	-1.0536325
68	0xbc1fac73	-0.009745705
69	0xbf8742da	-1.0567276
70	0xbf8c74eb	-1.097318
71	0xbf97ca2a	-1.185857
72	0xbf8fc9f2	-1.1233504
73	0xbf8de787	-1.1086282
74	0xbf9599e5	-1.168759
75	0xbf903a97	-1.126788
76	0xbf864046	-1.0488365
77	0xbf84020f	-1.0313128
78	0xbf906ec5	-1.1283804
79	0xbf8d5c9e	-1.104389
80	0xbf8512ce	-1.0396364
81	0xbf8bb779	-1.0915366
82	0xbf9779fc	-1.1834102
83	0xbf8edf6f	-1.1161937
84	0xbf98451b	-1.1896089
85	0xbf8f21b0	-1.1182156
86	0xbf90a14e	-1.1299226
87	0xbf897181	-1.0737764
88	0xbf88431e	-1.0645483
