src/models/charlie_parker/pretrained/generator.pt (torch_old, 136176 bytes, 7 tensors)

embedder.weight f4 [89, 32]
-0.42540517 -0.54941696 0.41464096 0.5002434 0.54257894 0.48784116 -0.423079 0.5612159
-0.4976476 0.46929434 0.6031099 0.35539842 0.5733821 -0.39264446 -0.6356159 -0.5851265
0.56158435 0.5375668 -0.5524553 0.56708735 -0.39531505 0.51183385 -0.40747315 0.4150507
0.3301648 -0.531175 -0.4675571 0.34640688 0.5658817 -0.55139166 -0.5185747 0.52301246
0.021879021 0.031962845 -0.042533763 0.039444488 0.013316948 -0.023263818 -0.0114166215 0.010658551
-0.018986916 0.03435861 0.012407117 -0.027350003 -0.005924374 0.028757196 -0.015128095 -0.04403313
0.014444862 0.014844131 0.0141978 -0.037336208 -0.034112148 0.03517882 -0.019321566 -0.0052640326
-0.015004527 -0.044250954 -0.016519088 -0.029130245 0.022024337 -0.015571125 -0.0076362602 -0.017331708
-0.028532589 -0.04265174 -0.02485444 -0.020648116 0.048352648 -0.034327462 -0.026629895 0.0016046166
0.028976243 0.037157994 -0.021711582 0.040483836 0.020569626 -0.04541113 0.01746497 -0.025512433
-0.043719556 0.02574842 0.008240707 -0.019010043 -0.03522535 0.004709311 -0.039076813 -0.025878245
0.049891602 0.03635336 0.026211154 0.024531882 -0.011582471 0.04257294 -0.043771524 0.006219946
-0.033724822 0.009147812 0.04431865 -0.0018671826 0.010562431 0.006847214 0.024551269 0.04349177
0.019519184 -0.015638161 -0.007918041 -0.03769834 0.01469795 0.036641676 0.026203077 -0.014697932
-0.029546196 -0.019802678 -0.04910296 0.027716894 0.017785486 0.0137298815 0.01392265 0.0038160756
0.033841234 0.016479809 -0.007355161 0.008343458 0.011118561 -0.04816867 -0.010720748 -0.022548044
-0.033760957 -0.037344586 -0.04730332 -0.0329976 0.018921848 0.018753175 0.004326593 -0.0068435743
-0.038951844 -0.033760123 -0.015479434 -0.0026766881 -0.032465287 0.02396797 0.01757444 -0.025479747
-0.048670124 -0.040936816 -0.03455751 -0.00083082914 -0.0020444095 0.04337511 -0.009154964 -0.04706488
-0.010400943 0.038110916 0.01849277 0.024070997 -0.028151715 -0.014397252 0.008241147 -0.0034547336
0.033875827 -0.027821077 -0.023536278 0.04853377 -0.004740078 0.029949848 0.041564073 0.029509645
0.0014765374 0.048584137 0.014431361 0.01815674 0.03143737 0.014294658 0.004217457 0.021757428
-0.036057252 -0.04472021 -0.019383742 -0.032535136 -0.017781626 0.026333075 -0.0031068027 -0.029567951
0.030547474 0.019453105 -0.029871827 -0.017733954 -0.008512516 0.0106222145 -0.026483078 -0.022434914
-0.047524393 -0.04870649 -0.04209245 -0.048567593 0.0073652156 0.022035133 0.03814618 0.020188216
-0.00663089 -0.033514977 0.039862644 -0.029882843 -0.0100515 -0.046971776 -0.028207375 0.010966271
0.0010308027 0.014279213 -0.049909383 0.046811882 -0.0030128956 -0.011596996 0.0064223334 0.024435643
-0.030511547 0.04753946 -0.034101613 -0.014777392 -0.025949014 0.016910214 -0.0033973455 0.030029442
-0.017838884 0.026276294 -0.0064832047 0.004785858 0.018754724 -0.038598258 -0.01632101 0.009336472
0.045630876 -0.012452811 0.020212676 -0.04071965 0.04255337 -0.03941778 -0.047975577 0.023291249
-0.031188006 -0.021000862 -0.04130549 -0.017971914 -0.040859453 -0.015611649 0.022728194 0.01770014
-0.04760297 -0.03693665 -0.039314676 0.04599836 -0.014674179 -0.011022817 0.029652704 0.02520496
00000000: b5ce d9be 97a6 0cbf d24b d43e f40f 003f
00000010: 74e6 0a3f 51c6 f93e d09d d8be d8ab 0f3f
00000020: abcb febe 5947 f03e 6965 1a3f c8f6 b53e
00000030: 2bc9 123f b208 c9be b9b7 22bf daca 15bf
00000040: fec3 0f3f fa9d 093f b66d 0dbf a32c 113f
00000050: bc66 cabe 8b07 033f 52a0 d0be 8681 d43e
00000060: 5c0b a93e 16fb 07bf a563 efbe 3e5c b13e
00000070: a0dd 103f 0128 0dbf 50c1 04bf 25e4 053f
00000080: a23b b33c 79eb 023d e237 2ebd 8b90 213d
00000090: 542f 5a3c c393 bebc c80c 3bbc 34a1 2e3c
000000a0: 738a 9bbc 9dbb 0c3d 3847 4b3c 1d0d e0bc
000000b0: 4021 c2bb 3694 eb3c d4db 77bc 155c 34bd
000000c0: 24aa 6c3c cc34 733c e49d 683c daed 18bd
000000d0: 2eb9 0bbd ab17 103d 4348 9ebc e87d acbb
000000e0: 8cd5 75bc 7d40 35bd 0a53 87bc 8da2 eebc
000000f0: 626c b43c 081e 7fbc 9839 fabb 3afb 8dbc
00000100: 2dbd e9bc 97b3 2ebd 8a9b cbbc 3d26 a9bc
00000110: 6d0d 463d f49a 0cbd f026 dabc 0052 d23a
00000120: 965f ed3c fb32 183d 7ddc b1bc 61d2 253d
00000130: a281 a83c 0501 3abd b212 8f3c 73ff d0bc
00000140: 4713 33bd 5aee d23c 0804 073c f3ba 9bbc
00000150: 7548 10bd 9050 9a3b 020f 20bd 9dfe d3bc
00000160: 235b 4c3d 43e7 143d c6b8 d63c 16f7 c83c
00000170: 68c4 3dbc f760 2e3d c549 33bd b0d0 cb3b
00000180: 0a23 0abd b4e0 153c 7987 353d 40bc f4ba
00000190: 0c0e 2d3c 985e e03b be1f c93c 6d24 323d
000001a0: b2e6 9f3c 9a1b 80bc acba 01bc 9369 1abd
000001b0: accf 703c 9515 163d d6a7 d63c 98cf 70bc
000001c0: dd0a f2bc 3a39 a2bc 2f20 49bd 8a0e e33c
000001d0: deb2 913c 4cf3 603c d41b 643c 2017 7a3b
000001e0: 1b9d 0a3d aa00 873c 9003 f1bb 00b3 083c
000001f0: a02a 363c 834c 45bd 14a6 2fbc adb6 b8bc
00000200: ee48 0abd a3f6 18bd 20c1 41bd 7e28 07bd
00000210: fe01 9b3c 42a0 993c 18c6 8d3b 1040 e0bb
00000220: f88b 1fbd 0e48 0abd 749d 7dbc 606b 2fbb
00000230: 52fa 04bd 7a58 c43c 46f8 8f3c e7ba d0bc
00000240: 535a 47bd 5dad 27bd 2d8c 0dbd 00cc 59ba
00000250: 80fb 05bb 19aa 313d b4fe 15bc 1bc7 40bd
00000260: b868 2abc 311a 1c3d 267e 973c 8a30 c53c
00000270: 6d9e e6bc 74e2 6bbc e005 073c d068 62bb
00000280: 61c1 0a3d 07e9 e3bc 27cf c0bc 59cb 463d
00000290: a852 9bbb 6259 f53c 173f 2a3d 36be f13c
000002a0: 6088 c13a 2900 473d 8471 6c3c 72bd 943c
000002b0: 79c4 003d 2434 6a3c 9832 8a3b a23c b23c
000002c0: c5b0 13bd 8a2c 37bd a7ca 9ebc 9043 05bd
000002d0: c6aa 91bc 76b8 d73c 809b 4bbb 7d38 f2bc
000002e0: b23e fa3c 1e5c 9f3c c3b5 f4bc cc46 91bc
000002f0: 1478 0bbc cc08 2e3c 0af3 d8bc 6dc9 b7bc
00000300: f0a8 42bd 7580 47bd 2269 2cbd d0ee 46bd
00000310: e857 f13b 0683 b43c 2b3f 1c3d c261 a53c
00000320: f047 d9bb 0047 09bd 0347 233d ddcc f4bc
00000330: 0caf 24bc 7a65 40bd 2713 e7bc e0ab 333c
00000340: 001c 873a 5cf3 693c c86d 4cbd d1bd 3f3d
00000350: 0074 45bb 5401 3ebc 7072 d23b 422d c83c
00000360: 5af3 f9bc bdb8 423d 22ae 0bbd e01c 72bc
00000370: 0793 d4bc 4a87 8a3c 00a6 5ebb 4e00 f63c
00000380: da22 92bc 6241 d73c 1071 d4bb b0d2 9c3b
00000390: 82a3 993c 3519 1ebd a4b3 85bc 00f8 183c
000003a0: 71e7 3a3d e006 4cbc 0e95 a53c a6c9 26bd
000003b0: 714c 2e3d 8a74 21bd 0a82 44bd 4acd be3c
000003c0: fd7d ffbc 000a acbc f22f 29bd d639 93bc
000003d0: 3e5c 27bd 00c8 7fbc 7a30 ba3c e2ff 903c
000003e0: 55fb 42bd e24a 17bd 6d08 21bd c768 3c3d
000003f0: f86b 70bc 0c99 34bc 3aea f23c a27a ce3c

lstm.weight_ih_l0 f4 [256, 32]
-0.11816743 0.7164264 0.50291413 -0.49158236 -0.43365908 -0.1147017 -0.048474163 -0.61895764
0.36218825 -0.2856836 -0.7290906 0.30728522 -0.7088443 -0.61276317 0.58715165 0.6731266
-0.7198087 -0.57235664 0.489689 -0.73051924 0.20568928 -0.35732597 0.09948373 -0.12090144
0.23932336 0.33460137 0.3532913 -0.0011080301 -0.6009367 0.56671995 0.34467888 -0.10391234
0.40822366 -0.59442055 -0.03323973 -0.43957672 0.47735432 0.7674213 -0.08542606 -0.23853634
0.22419015 -0.43466955 0.7378409 0.29368678 -0.06519318 0.102806665 -1.0703489 -0.05197794
0.7293754 0.3865069 -0.44256726 -0.20528692 -0.4345646 0.22116381 -0.06406437 0.4994797
-0.27108178 -0.34473386 -0.13126302 -0.22437483 0.9566862 -0.5099465 -0.27834502 0.7897247
-0.7594203 -0.24410321 1.5364741 -0.19246101 -0.22059134 0.7053044 -0.67491144 -0.45844892
0.10105437 0.28817114 -0.5948626 0.88146585 -0.6743835 -1.2836643 -1.0707095 0.4871349
-0.5323591 -0.547627 0.45695803 -0.42969447 -1.1823287 1.4149934 -0.4683553 0.7112138
1.1785654 0.504416 -0.25998825 1.1430637 0.106652305 0.1755029 -0.39957038 0.93072283
0.26377228 -0.80626637 0.4711752 0.3673927 -0.20425427 0.13077804 -0.21272649 0.24455366
0.12875563 0.6079256 0.38816315 0.31053907 0.5246126 -0.40773976 0.079579234 -0.76944435
0.68679535 0.19529082 -0.5562484 0.46524218 -0.08284516 0.5694882 -0.70940155 -0.03684459
0.20855394 0.016552115 -0.72158116 0.18320425 0.5017104 -0.6871734 -0.83728117 0.22517017
-1.2595469 -1.3420452 1.3610069 0.44810724 0.28238449 0.14945038 -1.4663153 0.81177026
-1.0790693 0.77041554 -0.8415206 0.75087935 0.3664457 -1.2846326 -1.1680472 -0.30052438
1.1332129 1.1305552 -0.7624804 1.2719482 -0.64867264 1.216569 -0.9283349 0.41430277
1.4925011 -1.0285264 -1.2550778 1.2907573 0.018270144 -1.2095556 -1.2585456 1.0967294
-0.8838699 -0.2939243 1.5012133 -0.35590872 0.13652757 0.62185305 -0.9727813 0.052120607
-0.3794159 0.12601984 -0.992711 0.9282463 -0.31756663 -1.1678399 -0.86003953 0.6061033
-0.01342999 -0.6404439 0.24881545 -0.5931091 -1.0588474 0.91696185 -0.8229553 0.26496214
1.125466 0.2935855 -0.50286514 0.97259784 0.12582311 0.08213411 -0.1389179 0.7553179
-0.18182722 -0.3428955 0.45787948 0.39327806 0.593441 0.026012711 -0.3520243 0.73707396
-0.64977074 0.50919944 0.24808228 0.124396995 0.56116796 -0.27509704 0.15915026 -0.69908303
0.071832135 0.20906882 -0.6374714 0.27987778 -0.35598087 0.42363238 -0.6027667 0.08526452
0.40481123 -0.053534828 -0.37729627 0.4225374 0.37765676 -0.3021471 -0.45523304 -0.048109587
-0.24517459 -0.77149856 0.69369525 0.6896406 1.159964 0.41688406 -0.9201523 1.1522609
-0.90928185 0.68377644 0.6656718 -0.16846497 0.8990834 0.13372298 -0.09828706 -0.72998357
0.9815944 0.13838208 -0.9312871 0.5706044 -0.7093198 0.5678761 -0.1732976 -0.6908685
0.18024836 -0.56851244 -0.71081114 0.011236226 1.2406679 0.27318242 -0.82127386 0.42794746
00000000: c401 f2bd b867 373f fbbe 003f afb0 fbbe
00000010: 9008 debe bae8 eabd d88c 46bd 0274 1ebf
00000020: bd70 b93e 1f45 92be aea5 3abf 7d54 9d3e
00000030: d276 35bf 0cde 1cbf 924f 163f 0652 2c3f
00000040: 6245 38bf f785 12bf 84b8 fa3e 4f03 3bbf
00000050: 36a0 523e 6ef3 b6be 20be cb3d 2d9b f7bd
00000060: 2f11 753e df50 ab3e 99e2 b43e 523b 91ba
00000070: fdd6 19bf 8f14 113f c079 b03e fecf d4bd
00000080: b102 d13e f22b 18bf 6226 08bd 3310 e1be
00000090: c967 f43e b975 443f dcf3 aebd df42 74be
000000a0: 1a92 653e 028d debe 24e3 3c3f 1d5e 963e
000000b0: 0184 85bd 4d8c d23d 3101 89bf d2e6 54bd
000000c0: 59b8 3a3f 3be4 c53e 2d98 e2be bc36 52be
000000d0: 407f debe c478 623e 2e34 83bd cebb ff3e
000000e0: 3bcb 8abe f580 b0be d069 06be 84c2 65be
000000f0: 63e9 743f db8b 02bf 3d83 8ebe 662b 4a3f
00000100: 5e69 42bf 31f6 79be 2fab c43f 8014 45be
00000110: b2e2 61be d48e 343f ffc6 2cbf d1b9 eabe
00000120: 98f5 ce3d 2b8b 933e ea48 18bf bfa7 613f
00000130: 66a4 2cbf 1d4f a4bf 020d 89bf bf69 f93e
00000140: b048 08bf 4831 0cbf 67f6 e93e ea00 dcbe
00000150: 8c56 97bf 811e b53f 44cc efbe 1c12 363f
00000160: 3bdb 963f 6821 013f 2e1d 85be e94f 923f
00000170: 866c da3d 08b7 333e 7d94 ccbe da43 6e3f
00000180: 290d 873e 7967 4ebf e03d f13e e51a bc3e
00000190: 0828 51be aeea 053e f9d4 59be 466c 7a3e
000001a0: 84d8 033e 03a1 1b3f 52bd c63e fafe 9e3e
000001b0: 034d 063f 44c3 d0be 70fa a23d 4efa 44bf
000001c0: d2d1 2f3f 51fa 473e 4c66 0ebf 3934 ee3e
000001d0: b9aa a9bd fbc9 113f 579b 35bf 5aea 16bd
000001e0: 2a8f 553e 4d98 873c 8bb9 38bf e599 3b3e
000001f0: 1870 003f 99ea 2fbf 0f58 56bf 0293 663e
00000200: d538 a1bf 23c8 abbf 7935 ae3f 506e e53e
00000210: b394 903e 8509 193e 38b0 bbbf 2dd0 4f3f
00000220: f11e 8abf f439 453f e56d 57bf a139 403f
00000230: c59e bb3e d76e a4bf 9282 95bf 55de 99be
00000240: 1f0d 913f 08b6 903f ea31 43bf 33cf a23f
00000250: 690f 26bf 88b8 9b3f 5ba7 6dbf 7e1f d43e
00000260: 470a bf3f c1a6 83bf 64a6 a0bf 8937 a53f
00000270: 45ab 953c b8d2 9abf 0618 a1bf a161 8c3f
00000280: 4c45 62bf 3f7d 96be c227 c03f ab39 b6be
00000290: e2cd 0b3e c331 1f3f 3208 79bf 6b7c 553d
000002a0: cd42 c2be 580b 013e 4f22 7ebf 8da1 6d3f
000002b0: 1898 a2be c77b 95bf 8d2b 5cbf 9629 1b3f
000002c0: 7609 5cbc 22f4 23bf 7ac9 7e3e ffd5 17bf
000002d0: 5088 87bf 03be 6a3f 33ad 52bf 1ea9 873e
000002e0: 450f 903f d750 963e c5bb 00bf 2cfc 783f
000002f0: c6d7 003e ee35 a83d 7e40 0ebe 845c 413f
00000300: ea30 3abe 0090 afbe 2e6f ea3e be5b c93e
00000310: c0eb 173f 9c18 d53c 873c b4be e1b0 3c3f
00000320: 6057 26bf e55a 023f 4809 7e3e dac3 fe3d
00000330: b4a8 0f3f 85d9 8cbe 49f8 223e 1bf7 32bf
00000340: ba1c 933d 2316 563e 5331 23bf 244c 8f3e
00000350: 2043 b6be 58e6 d83e eb4e 1abf 2a9f ae3d
00000360: 6b43 cf3e 5647 5bbd fa2c c1be d256 d83e
00000370: 3a5c c13e 06b3 9abe 4e14 e9be 8f0e 45bd
00000380: 0c0f 7bbe ee80 45bf 0396 313f 498c 303f
00000390: b379 943f d471 d53e 1a8f 6bbf 497d 933f
000003a0: b2c6 68bf f90b 2f3f 7869 2a3f 1582 2cbe
000003b0: 542a 663f adee 083e ba4a c9bd 34e0 3abf
000003c0: c549 7b3f 08b4 0d3e d568 6ebf 2113 123f
000003d0: fb95 35bf 5460 113f ed74 31be c2dc 30bf
000003e0: 0793 383e 088a 11bf b8f7 35bf 2618 383c
000003f0: 35ce 9e3f 91de 8b3e 013f 52bf ee1b db3e

lstm.weight_hh_l0 f4 [256, 64]
-0.46806648 -0.11428515 0.077313446 -0.074809365 -0.12983882 -0.095084555 -0.057979546 0.091943815
0.1606243 -0.10992141 -0.07001489 0.08264577 -0.08219051 0.10525364 0.2132137 -0.14253895
-0.13013436 -0.1547471 0.12798856 -0.10967349 0.0339265 0.47112006 -0.17212085 0.100138105
-0.16732098 -0.08055944 -0.14674145 -0.11558772 0.057115734 -0.10869978 -0.1675819 0.1473841
0.14241688 -0.09504954 -0.020909186 0.09399825 -0.2746524 -0.0934653 -0.07792397 0.17540753
-0.16623001 -0.2284803 0.28686616 -0.07506858 -0.2999833 0.14926118 -0.20116149 0.11637988
0.014879384 0.10028216 0.13268827 0.08964438 0.5396961 0.21992522 0.3833743 -0.12233585
0.055850033 -0.06804097 -0.12257369 -0.09500828 -0.096873276 -0.11303437 -0.12891391 -0.020818256
-0.39835504 -0.099741586 -0.028596384 -0.016378425 -0.049512707 0.03230406 -0.118084766 0.060579512
0.07438893 -0.08792609 -0.08773897 0.16638517 -0.13373455 0.029568557 0.09248755 -0.054277614
-0.054408368 -0.053558044 -0.0057724672 -0.10459594 -0.07042311 0.40172723 -0.042181965 -0.07210504
-0.19722903 -0.019562462 -0.0896499 -0.10940272 0.16773972 -0.07614514 -0.024165927 0.06760145
-0.02067842 -0.08789066 0.005337855 0.17191146 -0.22683991 -0.07672345 -0.026644306 0.10174866
-0.0064348322 -0.13567293 0.26574302 -0.15733704 -0.13216102 0.06389785 -0.2794532 0.04814714
0.0407892 0.044607922 0.015211064 -0.020542793 0.5444713 0.118197694 0.22034457 -0.031961307
-0.031047856 -0.10501594 -0.05149705 -0.0782787 -0.0752452 -0.018323297 -0.049477607 0.035638228
-0.5257416 -0.14535329 -0.03963862 -0.020311346 0.09627855 0.061888516 -0.076995164 0.052257784
0.07929333 -0.002999391 -0.08499648 0.20793656 -0.020965647 0.05919954 0.11012807 -0.0347322
-0.096261255 -0.051621445 0.16468732 -0.07206301 -0.06385416 0.58410615 -0.0884448 0.027600946
-0.25031853 -0.05838395 -0.1370527 -0.11691233 0.2814956 -0.088282034 -0.111344196 0.04378337
0.08477783 -0.070108525 -0.017146708 0.109909035 -0.16148101 -0.071206726 -0.14500618 0.10784719
-0.31432155 -0.1180911 0.3025842 -0.13219999 -0.21032335 0.10781957 0.043812837 0.058357235
0.043184686 0.13400616 0.017935187 0.0076020225 0.5493403 0.16306613 0.15079083 -0.14938974
0.0025654652 -0.16288035 -0.12961227 -0.05252698 -0.11283983 -0.025004664 -0.07912315 0.054528195
0.018144468 -0.06890043 -0.025475645 -0.041095108 -0.03392186 0.063270256 0.006706865 0.0035434524
0.060122937 0.013035923 -0.01846894 -0.032832306 -0.015559192 -0.026985178 0.036813006 0.010205001
-0.06104318 -0.03155834 0.036039557 -0.063606344 0.013140764 0.029870177 -0.04200222 -0.054668713
-0.044561747 -0.0085880505 -0.06866638 -0.015909482 -0.11952076 -0.026881302 -0.012748465 0.010828945
-0.066196315 0.00034333035 0.009094443 0.08335022 -0.0773134 -0.019637542 -0.006010904 0.0624579
-0.0657096 -0.014900527 0.04741136 0.10179186 -0.024039095 0.03484313 -0.0027907197 0.082952395
0.025978377 0.06267554 0.07870345 -0.0032852713 -0.040098324 0.054812316 0.0031565207 -0.034703884
-0.040705144 -0.06371365 0.022383599 0.0134517765 -0.04153511 -0.04895996 -0.018533004 -0.0587048
00000000: 69a6 efbe 550e eabd 8356 9e3d a735 99bd
00000010: 78f4 04be b1bb c2bd f67b 6dbd 0a4d bc3d
00000020: b27a 243e 7a1e e1bd f763 8fbd 2f42 a93d
00000030: 8053 a8bd 388f d73d b154 5a3e bbf5 11be
00000040: f141 05be 0676 1ebe 6f0f 033e 7f9c e0bd
00000050: 83f6 0a3d a636 f13e 7340 30be 3515 cd3d
00000060: 3156 2bbe 59fc a4bd 6443 16be 41b9 ecbd
00000070: 30f2 693d fe9d debd 979a 2bbe dceb 163e
00000080: bbd5 113e 55a9 c2bd be49 abbc 2882 c03d
00000090: 3d9f 8cbe bc6a bfbd 9a96 9fbd 089e 333e
000000a0: 3338 2abe bdf6 69be 1fe0 923e 8ebd 99bd
000000b0: 6997 99be ecd7 183e 47fd 4dbe 9358 ee3d
000000c0: a9c8 733c bc60 cd3d 6fdf 073e 7997 b73d
000000d0: 8629 0a3f 1434 613e a349 c43e 388b fabd
000000e0: 01c3 643d 1059 8bbd ea07 fbbd b393 c2bd
000000f0: 7f65 c6bd 907e e7bd 0202 04be 0c8b aabc
00000100: 31f5 cbbe 5145 ccbd f742 eabc 0c2c 86bc
00000110: d6cd 4abd 4351 043d 6dd6 f1bd 3922 783d
00000120: 3959 983d 9812 b4bd 7db0 b3bd e060 2a3e
00000130: b6f1 08be c239 f23c 1d6a bd3d 3452 5ebd
00000140: 4fdb 5ebd ae5f 5bbd f726 bdbb 6536 d6bd
00000150: fe39 90bd 31af cd3e ffc6 2cbd cfab 93bd
00000160: 68f6 49be 7541 a0bc 5e9a b7bd 890e e0bd
00000170: f6c3 2b3e fcf1 9bbd 9ff7 c5bc a172 8a3d
00000180: ca65 a9bc 0500 b4bd 2ce9 ae3b 8f09 303e
00000190: b948 68be 2f21 9dbd 2945 dabc 9a61 d03d
000001a0: 49db d2bb d8ed 0abe 780f 883e f61c 21be
000001b0: 3855 07be e0dc 823d 7d14 8fbe ef35 453d
000001c0: 9412 273d ccb6 363d d437 793c 5c49 a8bc
000001d0: 7962 0b3f a211 f23d 02a2 613e dce9 02bd
000001e0: 1358 febc 9912 d7bd 92ee 52bd 9550 a0bd
000001f0: 281a 9abd bd1a 96bc 08a9 4abd 64f9 113d
00000200: 0097 06bf 7ed7 14be 1b5c 22bd fb63 a6bc
00000210: b02d c53d d07e 7d3d a4af 9dbd 420c 563d
00000220: 8b64 a23d 6e91 44bb a212 aebd 52ed 543e
00000230: 26c0 abbc 387b 723d d38a e13d 5a43 0ebd
00000240: 9f24 c5bd 0271 53bd cba3 283e c595 93bd
00000250: f8c5 82bd fb87 153f 8c22 b5bd 611b e23c
00000260: c029 80be 0224 6fbd 8b57 0cbe bb6f efbd
00000270: 3120 903e 36cd b4bd 6d08 e4bd 3156 333d
00000280: 00a0 ad3d 0f95 8fbd 4177 8cbc fd17 e13d
00000290: 475b 25be d5d4 91bd 807c 14be fdde dc3d
000002a0: c1ee a0be bfd9 f1bd 51ec 9a3e 6f5f 07be
000002b0: 015f 57be 82d0 dc3d 1775 333d ff07 6f3d
000002c0: 6de2 303d e938 093e d0ec 923c 631a f93b
000002d0: 91a1 0c3f cffa 263e e968 1a3e a0f9 18be
000002e0: 5d21 283b 1bca 26be 14b9 04be 8826 57bd
000002f0: 9218 e7bd 95d6 ccbc 510b a2bd f558 5f3d
00000300: b5a3 943c ab1b 8dbd 4db2 d0bc 5853 28bd
00000310: a6f1 0abd d693 813d 43c5 db3b 4439 683b
00000320: 7843 763d a094 553c 2d4c 97bc 2b7b 06bd
00000330: fbeb 7ebc 0510 ddbc 3cc9 163d e032 273c
00000340: 6a08 7abd 5143 01bd 379e 133d 0b44 82bd
00000350: 5c4c 573c 4db2 f43c 850a 2cbd 4dec 5fbd
00000360: 6186 36bd e5b4 0cbc f6a0 8cbd 9a54 82bc
00000370: 4dc7 f4bd 2d36 dcbc f0de 50bc e36b 313c
00000380: ef91 87bd 0501 b439 dc00 153c 85b3 aa3d
00000390: 7d56 9ebd e9de a0bc 1ef7 c4bb dbd3 7f3d
000003a0: c192 86bd 5721 74bc 6a32 423d 4078 d03d
000003b0: a3ed c4bc abb7 0e3d 82e4 36bb f2e2 a93d
000003c0: 9bd0 d43c 095c 803d 462f a13d b54d 57bb
000003d0: 243e 24bd e182 603d a1dd 4e3b a925 0ebd
000003e0: 70ba 26bd 4d7c 82bd cf5d b73c d764 5c3c
000003f0: b820 2abd 3d8a 48bd 87d2 97bc 7274 70bd

lstm.bias_ih_l0 f4 [256]
0.5042648 0.15232474 0.31093553 0.09109063 0.2190448 0.41305268 0.080630496 0.09290624
0.19504845 0.31803265 0.24750178 0.5818677 0.11211809 0.2413434 0.16223757 0.087236814
0.03358628 0.08107473 0.17863694 0.015263331 0.5711877 0.47139293 0.21335495 0.32398966
0.27763703 0.123074315 0.079161145 0.10880541 0.58806336 0.46820906 0.18863328 0.06370774
0.31200883 0.05000015 0.2870163 0.15122007 0.19176652 0.059838723 0.23536773 0.08626113
0.29545766 0.19822603 0.44513008 0.5861669 0.22908896 0.14409588 0.9454718 0.13205521
0.21402824 0.16303182 0.10686701 0.17887002 0.60361415 0.1559354 0.220117 0.15936525
0.23761864 0.24246818 0.16306199 0.19943812 0.07907138 0.24879232 0.086274214 0.23768497
0.06003552 0.058871135 -0.022460653 0.047046028 -0.14377037 -0.03821565 0.040171556 -0.053903222
0.08150526 -0.06395434 -0.08840234 -0.18193322 0.05436975 0.028119642 0.10943894 0.051986754
0.06307445 0.03895902 -0.025532553 0.030584017 -0.15092795 0.1154291 -0.0705881 0.04033813
0.075521946 0.074320644 0.023163565 0.054348763 -0.021779545 0.01655566 -0.007156824 0.049168777
-0.047301434 0.016215945 -0.11307499 0.0018454801 0.050824553 0.02163562 -0.005377598 0.08196405
0.1008137 0.077100776 -0.089131564 -0.024858616 0.06801722 0.0056072427 -0.30248737 0.06469903
-0.043194734 -0.014613576 0.058677573 -0.05163889 0.2881957 0.07055178 0.08856851 -0.0075090234
-0.017857721 0.068753846 0.11306966 0.015343728 0.017994896 -0.088203184 0.026269726 -0.029829772
-0.24832244 -0.117678724 0.060409054 -0.038274508 0.17402272 0.04620869 -0.07430336 0.015546984
0.13376957 0.053716097 -0.092453696 0.18740505 -0.051770706 0.037916206 0.1605473 -0.08684173
-0.111467496 -0.060285747 0.11045484 -0.08507869 -0.11516236 0.25799903 -0.10353251 0.06027607
-0.18272519 -0.12002417 -0.07490149 -0.0972802 -0.027575517 0.1029489 -0.04256414 0.07395931
0.096670374 -0.1077868 0.14511058 0.090960585 -0.16929846 -0.09293994 -0.104589894 0.1387979
-0.083351046 -0.12822361 0.18795176 0.12138637 -0.18301943 0.14169534 -0.12505183 0.040587563
-0.09502641 0.09239941 0.045266084 0.025307663 0.37441608 0.13659894 0.10987617 -0.0794509
-0.15279184 -0.12383476 -0.13511936 -0.03604331 -0.12187509 -0.05927211 -0.10373521 -0.057764996
0.44140217 0.17618419 0.46690696 -0.087786384 0.4176029 0.5478533 -0.01113677 -0.015048257
0.10781731 0.35911956 0.4825985 0.81420183 -0.0058420454 0.42954728 0.15562648 -0.06808123
-0.07876042 0.008654093 0.30071124 -0.14374688 0.7361616 0.5171925 0.3454673 0.3580278
0.29583842 0.07334407 -0.06746101 -0.06666246 0.6926321 0.5732266 0.24816777 -0.08978621
0.5299243 -0.03265669 0.4334666 -0.046532728 0.078137934 -0.10421624 0.3745809 0.034449287
0.5627945 0.04102866 0.536082 0.7074687 0.13914935 -0.011127484 0.8620652 -0.027932094
0.35012558 0.29775915 -0.03694722 0.17479062 0.58084464 -0.013093999 0.11697904 -0.03246944
0.39229435 0.41548175 0.03838849 0.24882016 0.017643288 0.32445407 -0.097796805 0.36250272
00000000: 7f17 013f 04fb 1b3e f132 9f3e b98d ba3d
00000010: 484d 603e a47b d33e 9a21 a53d a045 be3d
00000020: c8ba 473e 2dd5 a23e 1b71 7d3e 48f5 143f
00000030: 2b9e e53d b922 773e 9b21 263e 37a9 b23d
00000040: c491 093d 820a a63d 9aec 363e 0d13 7a3c
00000050: 5b39 123f 6a5a f13e b879 5a3e f9e1 a53e
00000060: 7126 8e3e 630e fc3d 3d1f a23d 5fd5 de3d
00000070: 528b 163f 19b9 ef3e 1529 413e 3479 823d
00000080: 9fbf 9f3e f5cc 4c3d cdf3 923e 6fd9 1a3e
00000090: 715e 443e 7319 753d 3d04 713e ada9 b03d
000000a0: 3a46 973e c4fb 4a3e 17e8 e33e 090f 163f
000000b0: 4c96 6a3e df8d 133e 710a 723f 7b39 073e
000000c0: 382a 5b3e d0f1 263e 17dd da3d b429 373e
000000d0: 7586 1a3f 88ad 1f3e 5a66 613e a530 233e
000000e0: 4d52 733e 9449 783e b9f9 263e 8239 4c3e
000000f0: 2df0 a13d 6ac3 7e3e 89b0 b03d b063 733e
00000100: cee7 753d dc22 713d 67ff b7bc 56b3 403d
00000110: 8a38 13be 0388 1cbd ee8a 243d a0c9 5cbd
00000120: 3bec a63d 7efa 82bd 490c b5bd b44c 3abe
00000130: d1b2 5e3d 2a5b e63c 8621 e03d 10f0 543d
00000140: 2d2d 813d 7e93 1f3d a529 d1bc 558b fa3c
00000150: db8c 1abe 1866 ec3d 7e90 90bd 9839 253d
00000160: 40ab 9a3d 6c35 983d 84c1 bd3c cf9c 5e3d
00000170: 046b b2bc bc9f 873c cb83 eabb 3365 493d
00000180: 26bf 41bd 4dd7 843c dc93 e7bd 09e4 f13a
00000190: 682d 503d 2f3d b13c 9036 b0bb c5dc a73d
000001a0: 6a77 ce3d 03e7 9d3d 9c8a b6bd 4ca4 cbbc
000001b0: 9d4c 8b3d f6bc b73b a0df 9abe ed80 843d
000001c0: f6ec 30bd c86d 6fbc e557 703d 4d83 53bd
000001d0: 638e 933e 747d 903d 6863 b53d 410e f6bb
000001e0: 5b4a 92bc d1ce 8c3d 1191 e73d 4264 7b3c
000001f0: 086a 933c dfa3 b4bd 9c33 d73c 915d f4bc
00000200: 3d48 7ebe 8b01 f1bd 7c6f 773d bbc5 1cbd
00000210: 0333 323e 5345 3d3d 5c2c 98bd c7b8 7e3c
00000220: e4fa 083e 6905 5c3d 5d58 bdbd 1ce7 3f3e
00000230: 850d 54bd 064e 1b3d 8366 243e 14da b1bd
00000240: 1249 e4bd 30ee 76bd 2636 e23d bc3d aebd
00000250: 3eda ebbd 7318 843e da08 d4bd 0ae4 763d
00000260: 501c 3bbe 3bcf f5bd f465 99bd d73a c7bd
00000270: 0de6 e1bc dfd6 d23d bc57 2ebd fb77 973d
00000280: 1efb c53d 53bf dcbd de97 143e 8b49 ba3d
00000290: 935c 2dbe 4c57 bebd 3a33 d6bd 0921 0e3e
000002a0: f4b3 aabd 0d4d 03be 6d76 403e 6b99 f83d
000002b0: 7269 3bbe 9518 113e 960d 00be 253f 263d
000002c0: 359d c2bd e73b bd3d ee68 393d 0452 cf3c
000002d0: 77b3 bf3e 98e0 0b3e c206 e13d 27b7 a2bd
000002e0: 7775 1cbe 149d fdbd bb5c 0abe 26a2 13bd
000002f0: a699 f9bd 50c7 72bd 2073 d4bd fd9a 6cbd
00000300: 77ff e13e a169 343e 6e0e ef3e 59c9 b3bd
00000310: 0cd0 d53e 1d40 0c3f 0077 36bc f78c 76bc
00000320: 52cf dc3d 85de b73e 2717 f73e 886f 503f
00000330: a16e bfbb 9fed db3e 8c5c 1f3e 2c6e 8bbd
00000340: 254d a1bd e6c9 0d3c d3f6 993e 6232 13be
00000350: 1675 3c3f ba66 043f 17e1 b03e 6b4f b73e
00000360: 2278 973e 6a35 963d ff28 8abd 5486 88bd
00000370: 5650 313f fabe 123f b11f 7e3e d5e1 b7bd
00000380: 1ea9 073f 05c3 05bd 56ef dd3e 1a99 3ebd
00000390: c806 a03d 536f d5bd 11c9 bf3e b21a 0d3d
000003a0: 4d13 103f ab0d 283d ac3c 093f ab1c 353f
000003b0: 2b7d 0e3e 0d50 36bc 4eb0 5c3f d9d1 e4bc
000003c0: a943 b33e e373 983e f855 17bd 50fc 323e
000003d0: 3cb2 143f 3688 56bc b592 ef3d adfe 04bd
000003e0: ceda c83e 06ba d43e 403d 1d3d b6ca 7e3e
000003f0: a888 903c d81e a63e b149 c8bd f599 b93e

lstm.bias_hh_l0 f4 [256]
0.45971343 0.21273844 0.2759257 0.02293376 0.2758118 0.46061254 0.078888506 0.06742391
0.1953872 0.28218415 0.29898006 0.61170447 0.091355614 0.23064475 0.14311573 0.118079595
0.064608075 0.080448814 0.2156643 0.062395215 0.6339358 0.4983291 0.22954214 0.33127463
0.2590002 0.09685363 0.110086806 0.13621561 0.5725289 0.4544394 0.15187605 0.049991634
0.29863504 0.07067499 0.2826146 0.12735678 0.14784244 0.06541894 0.22776651 0.08600833
0.31903407 0.18212077 0.38733128 0.5918502 0.21723641 0.105370216 0.9335509 0.14930975
0.27660736 0.16577636 0.089726135 0.12449661 0.68175477 0.14926991 0.20522587 0.13402423
0.29041973 0.27977574 0.17451692 0.19684753 0.16321431 0.17633995 0.021850605 0.2475695
0.118329436 0.09048284 -0.0042768153 -0.015957488 -0.18684782 -0.0703457 0.0701235 0.032828998
0.0438214 -0.0902192 -0.08963553 -0.20804521 0.03443625 0.036818486 0.0873208 0.07257798
0.042190462 0.06935388 0.022743262 0.0032354903 -0.1650403 0.12309737 0.00031358405 -0.014455277
0.08095904 0.050232794 0.018136334 0.0738659 -0.027989622 -0.009455119 -0.050414406 0.06481607
-0.087219864 0.03414677 -0.092657484 0.029399533 0.11681591 0.02495818 -0.04945193 0.08102972
0.09904612 0.06475917 -0.09040353 0.03244107 0.05009117 0.102006435 -0.27332494 -0.009785923
-0.06661258 0.045502663 0.04145874 -0.066237204 0.33018982 0.12074991 0.16993925 0.062429026
0.020714033 0.06510291 0.0357319 -0.024593696 0.070853926 -0.11681136 0.059246924 0.0061553675
-0.25990406 -0.12788944 0.07035784 -0.13037746 0.13118957 0.005993217 -0.089534655 0.10430647
0.1586923 0.097281024 -0.068895236 0.201643 -0.11708132 0.11557503 0.12511273 -0.13315779
-0.09455881 -0.1208457 0.021652881 -0.05465161 -0.14525515 0.20234457 -0.09560491 0.055821028
-0.20431715 -0.12671775 -0.1108371 -0.11709028 -0.06676191 0.0838351 -0.13437338 0.09294362
0.08532761 -0.101976015 0.07351057 0.088369474 -0.15351945 -0.06574308 -0.04967679 0.10915412
-0.14303677 -0.07671728 0.15150896 0.12219429 -0.15209867 0.13175508 -0.08283409 0.109301195
-0.12908709 0.10873798 0.09695932 0.09067314 0.3871181 0.1403035 0.17980589 -0.11104801
-0.11771311 -0.12300233 -0.13462988 -0.033843614 -0.075317696 0.0065075913 -0.029557616 -0.1161274
0.46735168 0.1867984 0.45869943 -0.009764584 0.44848064 0.54323536 -0.020599773 0.07229811
0.14440344 0.35655484 0.4085809 0.78394145 -0.0296033 0.4350462 0.1285884 -0.029703027
-0.094077066 -0.0043348437 0.2449428 -0.12508558 0.7372641 0.5013517 0.3489488 0.34799135
0.29234514 0.11137485 -0.05843926 -0.05117415 0.7102886 0.5756925 0.25999573 -0.18160701
0.46428317 -0.057914 0.4201196 0.0017336123 0.15477099 -0.102797076 0.409712 0.02836952
0.51524633 0.041690767 0.47994778 0.69127524 0.096233666 0.010158154 0.86112005 -0.013094064
0.35991058 0.29800907 -0.07050094 0.24202116 0.5755644 0.013185231 0.11863024 0.016301747
0.42259926 0.4221935 0.03943653 0.28890964 -0.069523126 0.33868566 -0.07886585 0.36680305
00000000: 8f5f eb3e 1bd8 593e 2246 8d3e 95df bb3c
00000010: 3437 8d3e 68d5 eb3e 4c90 a13d 8c15 8a3d
00000020: 9513 483e 717a 903e ea13 993e aa98 1c3f
00000030: a718 bb3d 232e 6c3e ee8c 123e b7d3 f13d
00000040: 3d51 843d 59c2 a43d 1ad7 5c3e 2092 7f3d
00000050: 9e49 223f fe24 ff3e 180d 6b3e d49c a93e
00000060: ad9b 843e 325b c63d 3175 e13d 1b7c 0b3e
00000070: 4191 123f 48ac e83e 6585 1b3e 07c4 4c3d
00000080: b1e6 983e 0dbe 903d dcb2 903e d169 023e
00000090: 0264 173e 5dfa 853d a03b 693e 2325 b03d
000000a0: 6f58 a33e de7d 3a3e 4950 c63e 7f83 173f
000000b0: 3973 5e3e 57cc d73d 31fd 6e3f a8e4 183e
000000c0: 7b9f 8d3e 47c1 293e 56c2 b73d 14f8 fe3d
000000d0: 7b87 2e3f 36da 183e bb26 523e a63d 093e
000000e0: e5b1 943e c43e 8f3e 90b4 323e 6692 493e
000000f0: a721 273e 7692 343e 0a00 b33c dc82 7d3e
00000100: b456 f23d 114f b93d 8724 8cbb 47b9 82bc
00000110: 0955 3fbe 6811 90bd e99c 8f3d b377 063d
00000120: 117e 333d d8c4 b8bd d592 b7bd ce09 55be
00000130: 060d 0d3d fbce 163d 3fd5 b23d c4a3 943d
00000140: e8cf 2c3d 6809 8e3d 1450 ba3c 850a 543b
00000150: 5300 29be 791a fc3d 8a68 a439 d3d5 6cbc
00000160: dacd a53d e7c0 4d3d a692 943c 0147 973d
00000170: 7e4a e5bc a5e9 1abc 567f 4ebd 4abe 843d
00000180: 54a0 b2bd 7cdd 0b3d 35c3 bdbd 4ad7 f03c
00000190: 2e3d ef3d 1975 cc3c 1b8e 4abd e9f2 a53d
000001a0: b1d8 ca3d 75a0 843d 7c25 b9bd ede0 043d
000001b0: 662c 4d3d c0e8 d03d 3ff1 8bbe 2355 20bc
000001c0: 2d6c 88bd 0061 3a3d a4d0 293d 5fa7 87bd
000001d0: a40e a93e bb4b f73d 8e04 2e3e 94b5 7f3d
000001e0: 7ab0 a93c ad54 853d 9d5b 123d b878 c9bc
000001f0: dd1b 913d cb3a efbd e7ac 723d f7b2 c93b
00000200: 2512 85be 73f5 02be c517 903d ab81 05be
00000210: 8f56 063e c062 c43b f25d b7bd a19e d53d
00000220: 3c80 223e 463b c73d f218 8dbd 817b 4e3e
00000230: 55c8 efbd 9ab2 ec3d 8d1d 003e 845a 08be
00000240: 0da8 c1bd f37d f7bd 6261 b13c 5eda 5fbd
00000250: c4bd 14be 6a33 4f3e 82cc c3bd 97a4 643d
00000260: 8438 51be 4cc2 01be 90fe e2bd 07cd efbd
00000270: 78ba 88bd bdb1 ab3d 2d99 09be 3a59 be3d
00000280: 3ec0 ae3d cdd8 d0bd b68c 963d 0efb b43d
00000290: 3434 1dbe 4fa4 86bd e479 4bbd 328c df3d
000002a0: 3b78 12be f31d 9dbd 2a25 1b3e 0041 fa3d
000002b0: c1bf 1bbe ceea 063e eba4 a9bd 4ed9 df3d
000002c0: 682f 04be 05b2 de3d 9c92 c63d d7b2 b93d
000002d0: 5834 c63e b9ab 0f3e 091f 383e 246d e3bd
000002e0: 9213 f1bd a5e8 fbbd 6adc 09be 9a9f 0abd
000002f0: 2a40 9abd a23d d53b d022 f2bc 34d4 edbd
00000300: b848 ef3e 1448 3f3e a7da ea3e a2fb 1fbc
00000310: 419f e53e 7911 0b3f dbc0 a8bc 0811 943d
00000320: 7fde 133e 5b8e b63e 8431 d13e 63b0 483f
00000330: 9f82 f2bc 60be de3e adac 033e c353 f3bc
00000340: 7aab c0bd 4e0b 8ebb 49d2 7a3e 6f16 00be
00000350: 57bd 3c3f 9658 003f 6ba9 b23e ec2b b23e
00000360: 43ae 953e 7f18 e43d 015e 6fbd fc9b 51bd
00000370: 79d5 353f 9560 133f 291e 853e 30f7 39be
00000380: 86b6 ed3e 3b37 6dbd eb19 d73e 603a e33a
00000390: 497c 1e3e 4687 d2bd c5c5 d13e 3267 e83c
000003a0: 2fe7 033f f0c3 2a3d b7bb f53e 6af7 303f
000003b0: 2816 c53d 636e 263c 5d72 5c3f 7c88 56bc
000003c0: 3346 b83e a594 983e cc62 90bd 65d4 773e
000003d0: 3058 133f de06 583c 69f4 f23d 3e8b 853c
000003e0: ee5e d83e bf29 d83e 3388 213d f7eb 933e
000003f0: 2462 8ebd 3568 ad3e 6b84 a1bd 9ccd bb3e

fc.weight f4 [89, 64]
0.4385767 -0.2034189 0.11358162 -0.3384884 -0.42533883 -0.5064999 -0.2819523 0.5852671
0.3692456 -0.31308544 -0.25104013 -0.1643675 -0.43410945 0.16621564 0.16025025 -0.36308235
-0.38836542 -0.2597342 0.13059235 -0.43911248 0.045460023 -0.4826541 -0.2215098 0.078101665
0.10348296 -0.17373104 -0.18515253 -0.42486516 -0.13830133 0.048384868 -0.03421965 0.52935946
0.14928779 -0.39393243 -0.113950595 0.4138024 -0.31433856 -0.42798418 -0.045114253 0.27299047
-0.13322516 -0.38015813 -0.22372726 -0.13060054 -0.3499522 0.16128717 -0.5729624 0.48598877
0.017695107 0.07885886 0.4605952 0.42565066 -0.38938355 0.39864618 0.4448958 -0.45769218
0.12123809 -0.12556168 -0.26694173 -0.32345998 -0.42043516 -0.39102292 -0.3675809 -0.003729715
0.61134225 0.17765655 -0.064263016 0.117587335 0.012390338 0.013411875 0.14014015 -0.08490583
-0.13355462 0.08997002 0.0864355 -0.42744744 0.15662518 -0.14273499 -0.10768411 0.12864791
0.12803602 0.18263258 -0.08808758 0.08040431 0.33581412 -0.59191203 0.111147396 -0.09297645
0.2745688 0.18084152 0.17886692 0.08978048 -0.050577614 -0.078136355 0.12301303 -0.14324975
-0.11619569 0.1387829 -0.17935425 -0.12028409 0.23682377 0.109273575 0.107844606 -0.09251027
0.15080689 0.17063718 -0.54914784 -0.097341426 0.23775108 -0.1388556 0.16779615 -0.08791476
0.11124647 -0.08407542 -0.11713645 -0.097294465 -0.61144006 -0.17862862 -0.21727557 0.13735954
0.20592439 0.16340412 0.12891753 0.14594908 0.08739072 0.07436871 0.161994 0.10363517
0.5943854 0.18005882 -0.13598128 0.13401745 -0.008477598 0.042030293 0.089398324 -0.070305154
-0.09851357 0.10899891 0.12814535 -0.43585187 0.11111679 -0.14272398 -0.1408516 0.18348743
0.10666494 0.08652038 -0.090850964 0.14536183 0.3483005 -0.5700269 0.16324396 -0.16764529
0.29393062 0.11081491 0.09531762 0.16880159 -0.03834645 -0.02545261 0.1177063 -0.12651925
-0.13302907 0.09153907 -0.21126221 -0.12803914 0.18174069 0.084669456 0.10708451 -0.11823631
0.18542853 0.17550488 -0.5728245 -0.105487734 0.16303007 -0.13955474 0.22615723 -0.12722938
0.091923825 -0.09533762 -0.15537538 -0.074781336 -0.6209035 -0.14638746 -0.17773537 0.09865564
0.14749904 0.09686635 0.15679002 0.14835978 0.17988852 0.12653379 0.16920032 0.07838764
0.5791702 0.13931641 -0.123463646 0.11253468 -0.01505887 0.05012428 0.12170152 -0.1197997
-0.09621929 0.06843382 0.08948765 -0.4352154 0.09198258 -0.15749793 -0.11386739 0.1184399
0.108740784 0.1289662 -0.1496445 0.07822793 0.27354386 -0.61091185 0.14470404 -0.09254905
0.33673644 0.18809791 0.18008305 0.07961166 -0.107422225 -0.11876022 0.17905313 -0.1762761
-0.15420024 0.13580927 -0.17180029 -0.10652368 0.22079527 0.11862256 0.17313692 -0.121526174
0.20101272 0.17930716 -0.5136748 -0.10739555 0.16205631 -0.0991302 0.23914093 -0.10452144
0.123132445 -0.12112862 -0.07159341 -0.11058108 -0.60706955 -0.114428885 -0.20672606 0.1389781
0.17626469 0.093511 0.16210054 0.069489665 0.14672227 0.123855315 0.07941181 0.034186587
00000000: 208d e03e 0b4d 50be 7b9d e83d 5a4e adbe
00000010: 03c6 d9be faa9 01bf 0d5c 90be 11d4 153f
00000020: c20d bd3e bc4c a0be 5588 80be f44f 28be
00000030: 9843 debe 6f34 2a3e a418 243e eee5 b9be
00000040: d5d7 c6be e2fb 84be 00ba 053e 5ad3 e0be
00000050: 4a34 3a3d 701e f7be 77d3 62be c4f3 9f3d
00000060: e0ee d33d 8de6 31be a098 3dbe ed87 d9be
00000070: dd9e 0dbe 362f 463d e729 0cbd 1a84 073f
00000080: e6de 183e 83b1 c9be ee5e e9bd e8dd d33e
00000090: fcf0 a0be be20 dbbe b9c9 38bd 68c5 8b3e
000000a0: 2d6c 08be 16a4 c2be c218 65be 26bc 05be
000000b0: ef2c b3be 7728 253e aaad 12bf 85d3 f83e
000000c0: 54f5 903c c180 a13d 22d3 eb3e e2ee d93e
000000d0: 485d c7be 5a1b cc3e 62c9 e33e a156 eabe
000000e0: ad4b f83d 3e93 00be 96ac 88be 8c9c a5be
000000f0: 4743 d7be 2834 c8be 9033 bcbe 3c6e 74bb
00000100: ed80 1c3f 99eb 353e 549c 83bd a1d1 f03d
00000110: d800 4b3c 7bbd 5b3c e680 0f3e 1ce3 adbd
00000120: 8bc2 08be 3442 b83d 1805 b13d 64da dabe
00000130: 5a62 203e 1f29 12be 7d89 dcbd 47bc 033e
00000140: e01b 033e 0904 3b3e 4367 b4bd 04ab a43d
00000150: d4ef ab3e 8c87 17bf 3fa1 e33d 706a bebd
00000160: 4894 8c3e 852e 393e e428 373e d4de b73d
00000170: 792a 4fbd f405 a0bd 41ee fb3d 10b0 12be
00000180: 02f8 edbd 1b1d 0e3e a4a8 37be 8157 f6bd
00000190: ee81 723e d3ca df3d a2dd dc3d 0676 bdbd
000001a0: 1f6d 1a3e 83bb 2e3e f494 0cbf f15a c7bd
000001b0: 0575 733e 2a30 0ebe c1d2 2b3e a70c b4bd
000001c0: 30d5 e33d bc2f acbd 3ce5 efbd 5242 c7bd
000001d0: 5687 1cbf 6cea 36be 7d7d 5ebe fba7 0c3e
000001e0: d8dd 523e 6953 273e f502 043e ad73 153e
000001f0: e8f9 b23d 9f4e 983d c1e1 253e ad3e d43d
00000200: a429 183f 5761 383e ad3e 0bbe df3b 093e
00000210: a0e5 0abc f527 2c3d 7816 b73d 26fc 8fbd
00000220: 7cc1 c9bd d23a df3d 8938 033e fa27 dfbe
00000230: 3391 e33d 3c26 12be 673b 10be 21e4 3b3e
00000240: 2673 da3d 9931 b13d 1210 babd bbd9 143e
00000250: 7154 b23e 48ed 11bf 6d29 273e 35ab 2bbe
00000260: 137e 963e edf2 e23d e235 c33d 53da 2c3e
00000270: 2b11 1dbd fe81 d0bc 0010 f13d 438e 01be
00000280: c638 08be d678 bb3d 1f55 58be b11c 03be
00000290: 3b1a 3a3e 2e67 ad3d 204f db3d e125 f2bd
000002a0: fae0 3d3e 8db7 333e a0a4 12bf f409 d8bd
000002b0: 5bf1 263e 70e7 0ebe c395 673e 6b48 02be
000002c0: 8f42 bc3d 5f40 c3bd b91a 1fbe f526 99bd
000002d0: 88f3 1ebf 98e6 15be 4300 36be f80b ca3d
000002e0: fd09 173e dd61 c63d 908d 203e a0eb 173e
000002f0: b234 383e 1392 013e d942 2d3e b389 a03d
00000300: 8044 143f f6a8 0e3e 82da fcbd 9578 e63d
00000310: 7bb9 76bc 1e4f 4d3d a63e f93d 8c59 f5bd
00000320: 9e0e c5bd 0827 8c3d 4d45 b73d 8ed4 debe
00000330: 5d61 bc3d 2347 21be 4e33 e9bd 9e90 f23d
00000340: 7db3 de3d b70f 043e 683c 19be f735 a03d
00000350: f10d 8c3e b864 1cbf 4c2d 143e 5b8a bdbd
00000360: b868 ac3e bd9c 403e b167 383e 700b a33d
00000370: 2f00 dcbd 8f38 f3bd b459 373e b981 34be
00000380: abe6 1dbe 9611 0b3e 6aec 2fbe 1629 dabd
00000390: 2818 623e 62f0 f23d ce4a 313e b7e2 f8bd
000003a0: 47d6 4d3e 4c9c 373e 3180 03bf 33f2 dbbd
000003b0: 17f2 253e c604 cbbd 5ce1 743e 560f d6bd
000003c0: dd2c fc3d 4812 f8bd 919f 92bd 5578 e2bd
000003d0: e968 1bbf b159 eabd ffaf 53be 4650 0e3e
000003e0: bb7e 343e b282 bf3d affd 253e 9950 8e3d
000003f0: 5d3e 163e dba7 fd3d a9a2 a23d 3c07 0c3d

fc.bias f4 [89]
0.004401484 -0.18760306 -0.131866 -0.1464768 -0.16910999 -0.10286818 -0.12684187 -0.11407785
-0.10944225 -0.16876431 -0.18641415 -0.1921397 -0.122289665 -0.14245011 -0.17765953 -0.15986435
-0.18464452 -0.19646408 -0.1299817 -0.10879254 -0.15532973 -0.13702485 -0.1613602 -0.12861843
-0.11156032 -0.15493225 -0.014654242 -0.022232888 0.04054222 0.10464677 0.15227993 0.40494883
0.45202386 0.107026264 0.18083498 0.0929507 0.27241704 0.27271813 0.0899318 0.18259597
0.13626765 0.21706827 -0.012124547 0.061406378 0.14323272 -0.08993849 0.16492134 -0.10494895
-0.052002296 0.043413084 0.066426866 0.050410673 -0.030774355 0.20184608 0.16671297 0.029065903
0.16731358 0.24290015 0.20670736 0.37966713 0.36740276 0.24306825 0.06934746 0.036934387
-0.014423962 -0.110806294 -0.03705437 0.030782107 -0.022759914 -0.18037875 -0.20555665 -0.15516727
-0.11842285 -0.19920748 -0.2015184 -0.18987384 -0.12793171 -0.18632755 -0.186926 -0.102071665
-0.1315935 -0.17459594 -0.10648776 -0.14303489 -0.16142899 -0.18945715 -0.18612286 -0.13855226
-0.11888079
00000000: 533a 903b 041b 40be e107 07be 04fe 15be
00000010: 2b2b 2dbe 8dac d2bd d6e2 01be a6a1 e9bd
00000020: 4223 e0bd 8dd0 2cbe 5ae3 3ebe 45c0 44be
00000030: 0173 fabd 71de 11be 61ec 35be 7bb3 23be
00000040: 7413 3dbe e12d 49be ec19 05be a0ce debd
00000050: c20e 1fbe 3e50 0cbe 9c3b 25be 8db4 03be
00000060: bd79 e4bd 8fa6 1ebe 5918 70bc bf21 b6bc
00000070: 990f 263d 0c51 d63d 45ef 1b3e 7455 cf3e
00000080: ac6f e73e 9630 db3d ce2c 393e f05c be3d
00000090: 3f7a 8b3e b6a1 8b3e 2a2e b83d 70fa 3a3e
000000a0: bf89 0b3e 2547 5e3e 09a6 46bc 4185 7b3d
000000b0: 99ab 123e ac31 b8bd 24e1 283e 7aef d6bd
000000c0: 5c00 55bd ebd1 313d cf0a 883d 6c7b 4e3d
000000d0: 801a fcbc bdb0 4e3e ceb6 2a3e 9e1b ee3c
000000e0: 4054 2b3e d1ba 783e 18ab 533e bb63 c23e
000000f0: 371c bc3e e2e6 783e 0b06 8e3d 8348 173d
00000100: 7b52 6cbc 69ee e2bd 53c6 17bd c22a fc3c
00000110: 0073 babc 35b5 38be 717d 52be 2be4 1ebe
00000120: ae87 f2bd 0cfd 4bbe d75a 4ebe 4a6e 42be
00000130: 8800 03be a6cc 3ebe 8869 3fbe f30a d1bd
00000140: 72c0 06be 47c9 32be 4116 dabd bd77 12be
00000150: a44d 25be 0e01 42be fe96 3ebe a5e0 0dbe
00000160: c677 f3bd
