src/models/nottingham/pretrained/generator.pt (torch_old, 467324 bytes, 7 tensors)

embedder.weight f4 [89, 64]
00000000: 7352 1a3f 114e 37bf a3a4 d9bc 4f56 8d3f
00000010: 8e26 1c3e 80b6 eb3e 15d2 1d3f 1e0c a1bf
00000020: a719 7e3d a62f c1be 69df e23f bb9d f43b
00000030: 41bf 153e a07e 803e 7d14 83bf fc76 08bf
00000040: 97bf 443f 175a 08bf 0003 e43e 3258 e3be
00000050: 4c11 633d d399 0cbf 7671 f63e 3d19 5b3e
00000060: a637 03bf 1199 473f 5175 eebe 5c97 333f
00000070: 2d43 d8be ff07 02bf 657b 833e 121b c0bf
00000080: 8455 c63d 1dd4 9c3f 4913 5ebe b4f6 bd3e
00000090: e2a2 1fbf 104e f03d 138a bebe 3d2e 453e
000000a0: 1fee 3f3e 761c 0bbf 74c2 d63d 4571 1ebe
000000b0: c7d1 693f a81a 50bf 42a1 5bbe 0307 583d
000000c0: c1dd 37bf 655d a6bf 75f5 93be 81ea 853f
000000d0: 0b35 62bf e3ce 733d e62a 2e3f 27aa 323f
000000e0: 466d c33e 163b 3dbe 23ec b5be a507 89bf
000000f0: 4a09 86be 08f6 05bf 6d19 953e 9e23 72be
00000100: d2de d63c ac1d 83bc 4d0d 36bd a3dd fbbc
00000110: e86e 45bc 6665 c83c 36ce 13bd c07a a0bb
00000120: 78a4 35bc aa90 84bc 51f1 203d f4b3 0dbc
00000130: 97e0 b9bc 2335 a3bc 1b30 193d 801a 73ba
00000140: 3d8e abbc 9ab4 e0bc a6c5 c33c da0a 4bbd
00000150: 9029 f03b 2219 d93c 47b0 9dbc c06a 68ba
00000160: ce7d d43c 6d31 04bd 7019 e8bc e8d3 e03b
00000170: 57f3 9dbc 40c4 d5bb 22cf 953c 6dbd 18bd
00000180: 61e4 043d 0313 39bd f7cf 443d 3348 1fbd
00000190: d2a4 853c 128a c83c 357f 0a3d e86e dc3b
000001a0: 0615 973c 206c 023b 6567 2ebd f0b8 f4bc
000001b0: 80e6 fa39 d8e9 a9bb 98ae 08bd 0c94 1fbc
000001c0: fad1 d4bc 1790 eabc 7467 23bc d06f bcbc
000001d0: 0678 1ebd 2013 8bbc 9261 29bd ccc2 503c
000001e0: a063 993a 9778 3b3d 4957 083d 156e 3f3d
000001f0: dc1d 5c3c 8156 163d 2d18 12bd 6d7f 31bd
00000200: 52e3 d13c b47d 3cbc e97f 183d c790 463d
00000210: 9ca0 603c e8f0 3abc fd42 efbc cb20 353d
00000220: c03c 013a 9958 0a3d 8012 ea39 6839 0fbd
00000230: 3936 453d f88b 60bc 0cca 753c 0a6c 9a3c
00000240: 2aa7 f13c 6a10 d43c 5814 803b 8cc8 7f3c
00000250: edce d8bc 1a12 3fbd 1835 97bb 4485 683c
00000260: c232 0dbd 27f7 473d dfa2 373d 32e9 38bd
00000270: 6098 80ba 6782 313d aed4 1fbd 2020 343b
00000280: 0c1b 8dbc 680e a5bb 7b31 24bd 2950 423d
00000290: 3a3b f8bc d561 2c3d 2d04 243d e3c4 333d
000002a0: 3dab a4bc e8cb d7bb f2fc f63c 8b1d 20bd
000002b0: 47f8 393d c9b4 483d 4037 7bbc 2a85 b23c
000002c0: 3e6f 18bd 8f69 033d 1d32 46bd fbf0 38bd
000002d0: 5e27 c53c 5477 523c 7a6b 02bd ff02 0a3d
000002e0: b919 3f3d 319c 243d 8068 29bd 1dac 293d
000002f0: 459d 14bd 1c8a 8dbc eb56 3d3d b875 25bd
00000300: 0277 b93c 1d4c 12bd 7028 debc ee3d c93c
00000310: 403d 9f3a 6027 40bc d0ed e4bb 943d 723c
00000320: d4b5 1f3c b0c1 583b b450 01bd 6080 3dbc
00000330: 8dc3 34bd 4054 ef3a 9803 68bc 2833 d3bb
00000340: 98b3 68bc c2e1 d23c e921 183d 8cd6 1f3c
00000350: 5ef2 853c 3888 13bc 0adb b93c 38c1 5cbc
00000360: 2121 093d a012 66bb fdf8 c4bc 205d f6bc
00000370: d018 23bd 4dd6 0bbd 805a 16ba 8800 05bc
00000380: 526c a03c e2e5 d33c 40aa 343c c220 ff3c
00000390: b828 4a3c 60e7 57bb 6163 113d 2338 4cbd
000003a0: 99b5 4c3d 4066 3b3c 0009 fcbb c18f 053d
000003b0: efbe 183d f875 75bc d17d 163d abc3 3bbd
000003c0: b09c 343b 2716 0f3d b32e 0f3d 2988 423d
000003d0: 0936 453d c580 1dbd 7846 15bc 1817 7bbc
000003e0: 3092 a6bc 309e eebb 7f1e 353d 3064 40bd
000003f0: a997 223d d264 09bd fe8e bf3c 3461 5b3c
0.6028206 -0.71603495 -0.026567763 1.1041964 0.15249082 0.46037674 0.61648685 -1.2581823
0.062036183 -0.37731665 1.7724429 0.007465092 0.14623739 0.25096607 -1.0240628 -0.53306556
0.7685484 -0.53262466 0.4453354 -0.44403225 0.055436417 -0.5492222 0.4813344 0.21396346
-0.5125679 0.77967936 -0.4657388 0.7015283 -0.4223875 -0.5079345 0.2568008 -1.5008261
0.096842796 1.2252232 -0.21687044 0.37102282 -0.62357914 0.11733639 -0.37214717 0.1925592
0.1874318 -0.543403 0.10486308 -0.15472896 0.9133572 -0.81290674 -0.21448234 0.052741062
-0.71822745 -1.2997252 -0.28898206 1.046219 -0.8836219 0.059523474 0.6803421 0.6979088
0.38169307 -0.18479571 -0.3553172 -1.0705458 -0.26178962 -0.5232854 0.2912096 -0.236464
0.026229296 -0.01600536 -0.04444628 -0.030745333 -0.012050368 0.024462413 -0.03608533 -0.0048974454
-0.011086576 -0.016182262 0.039292637 -0.008648861 -0.0226901 -0.019922798 0.037399393 -0.0009273663
-0.020941848 -0.027429868 0.023897957 -0.049570896 0.0073291734 0.026501242 -0.019249095 -0.00088660046
0.025938895 -0.0322737 -0.028332442 0.0068611987 -0.019281073 -0.006523639 0.018287245 -0.037290026
0.03244436 -0.045184147 0.048049893 -0.038887214 0.016313944 0.0244799 0.03381272 0.0067270882
0.018442642 0.0019900873 -0.042579073 -0.029873341 0.00047855452 -0.005185347 -0.03336963 -0.009739887
-0.02597903 -0.02863316 -0.009973396 -0.023002535 -0.038688682 -0.016976893 -0.041352816 0.012741756
0.0011702664 0.0457693 0.033286367 0.04673584 0.013434853 0.03670359 -0.035667587 -0.043334413
0.02562109 -0.011504579 0.03723136 0.048477914 0.013710167 -0.011409976 -0.029206747 0.044220727
0.0004930012 0.0337759 0.00044645742 -0.034966856 0.048147414 -0.013705246 0.015001785 0.018850345
0.029498655 0.025886733 0.003908675 0.015611779 -0.026465857 -0.046648122 -0.0046144836 0.014191929
-0.034472235 0.048819687 0.04483306 -0.045144267 -0.0009811036 0.043337252 -0.039021187 0.0027484968
-0.017224811 -0.0050371177 -0.04008625 0.047439728 -0.030301679 0.042085487 0.040043045 0.043888938
-0.020101184 -0.006585587 0.03014991 -0.039090674 0.04540279 0.049000535 -0.015332997 0.021792013
-0.037215464 0.03208309 -0.048387635 -0.045151692 0.024066623 0.012845833 -0.03184078 0.033694264
0.04665539 0.04018802 -0.041359425 0.041423906 -0.036282796 -0.01727777 0.04622547 -0.04039547
0.022639755 -0.03571712 -0.027118891 0.024565663 0.0012148991 -0.011728138 -0.0069863573 0.014785189
0.009747941 0.003307443 -0.031571105 -0.0115662515 -0.044131804 0.0018259361 -0.014161013 -0.0064453073
-0.014202975 0.025742415 0.037141714 0.009755742 0.016350921 -0.009004645 0.022687454 -0.013473801
0.03347886 -0.0035106316 -0.024044508 -0.030073702 -0.039818585 -0.03413992 -0.00057355314 -0.008117802
0.019582901 0.025866453 0.011026919 0.03114355 0.01233881 -0.0032944307 0.035495166 -0.049858224
0.049977873 0.0114379525 -0.0076915026 0.032607798 0.037291463 -0.014981739 0.03674108 -0.0458409
0.0027559213 0.034933235 0.034956645 0.047493134 0.048147235 -0.038452882 -0.009111039 -0.01532533
-0.02033338 -0.007282041 0.044218536 -0.046970546 0.039695416 -0.033543415 0.023383614 0.013389874

lstm.weight_ih_l0 f4 [512, 64]
00000000: 6d32 263f 816c e7be 84dd 24bf f8a0 b03e
00000010: da9a ddbe bd61 843e 3ff6 88bf 5408 7e3f
00000020: 82c4 c23c db1b 92be b666 96be 04f0 14bf
00000030: 886a 993e eff2 2dbe 8f7e 89bf 9af3 853c
00000040: c876 be3e 049d 843e a719 173d 4f9f 5a3f
00000050: 68ad b13c 64d0 eb3d cf69 ec3f b71d d43e
00000060: b902 b93f d704 b6bc 4e94 2b3e 8e05 0cbf
00000070: 811c 0d3f 9ace 89be becc 7fbe b17e 8e3e
00000080: bbe2 463f 10ec 38be 92b2 fbbd e818 213f
00000090: d8cd 053f 1648 8d3f a7c3 bbbe 732a a23e
000000a0: 25be 94be 7969 2fbf ea65 023f 1231 113f
000000b0: 55d9 58bf 9ab8 d8be 598c c13e 4be9 033f
000000c0: 7522 6a3e d21a bf3f c1d5 de3d dec6 583f
000000d0: 3971 b53e 47f1 2dbf c0ef 183e 31dc cc3e
000000e0: fdef 24bf 4c11 883f 9048 b13f 1445 223e
000000f0: d51b 4b3e 09e2 3a3f 6f9c ddbf 2769 9ebe
00000100: c3bc 42bd c3ad 2cbb 514a e6bc 0bd2 5dbe
00000110: 6528 9dbe 0eba ba3e d4c0 e9be c636 223d
00000120: 215c ddbe 0aab e53d c735 563e f6bb a63e
00000130: e056 dd3e a14d 0cbf 4452 953d f367 97be
00000140: eb1f ee3d 725c 38bf 66d0 343e 8180 753e
00000150: 27cd a4bb 30b3 61bf 2222 893f 8f89 693e
00000160: 32d8 28be 6826 82be 210c 32be 71aa 0e3e
00000170: 9bf7 5dbe 0509 e4be cc2b 20bf 0ad9 053f
00000180: 450e d4be 14e7 20bf a65e 90be 02df 8dbe
00000190: 4611 4a3f 0b07 7ebe e405 bcbe 5d9e af3e
000001a0: 1eaa 563e e97c 22be e3f2 9c3e b86f 1a3f
000001b0: 3f13 eabe 9b3c d53d 6ddf 1fbf f956 283f
000001c0: 2268 01bf 5785 a2be 1479 5ebd d70a 20bf
000001d0: 697c 273f b35b b0be 8f30 58bd 7e78 673f
000001e0: 2cfc 243e 376d 643f 5b64 bf3e 5690 28bf
000001f0: 8c45 063f f5e6 b7be ad7c d4be f143 a73e
00000200: 847c 963e d2bd 08bf 1f5b 62bf 2b10 753d
00000210: 5fb5 0a3f 6944 a9bd fe0e ab3e 400b 92be
00000220: 06ed 613f ec0b 4cbe b51d 31bf ae4a ee3e
00000230: 8d08 56be 2f03 a23e 3da2 03bf 7281 f13e
00000240: 2b8b 773f 29f3 183f 7fd9 05bf 694c a13d
00000250: 3bee 4f3e 4c1b da3e adca a2be 8eea 87be
00000260: aa80 d1bc 706e c7be c1f8 9abe e1a2 58bf
00000270: 15cd fd3e 85f7 9f3f 2339 343f 5674 18c0
00000280: 690c ab3e f8d5 e53f af7f 1ebe 5606 943f
00000290: 6167 12bd fbe2 07bf d33c bf3f cc27 9ebf
000002a0: 10f6 0e3d 3961 7b3e 588e acbe 5431 4a3e
000002b0: 62f0 003f f2c7 263e 3f86 923e 35db 86be
000002c0: be72 8a3f 4d9e 00bd c978 363e cf56 d9be
000002d0: 6a7b b73d 9041 36bf 6cb8 00bf 4ff8 483e
000002e0: de28 fdbe 862a 57bf b428 c43e d546 663f
000002f0: b894 0bbe de2e 83bd 489e a13e 5d97 10bf
00000300: 77f2 0f3e 0882 12bf 39ae 0b3e 2b29 353e
00000310: 8a69 bd3e c1c5 2b3e 0d42 08bf 3cab bc3e
00000320: 833b 53be 968f f53d 2682 ccbd 0ed6 e7be
00000330: 5ee4 773f 7fac b73e 2ddc 293e d6d4 03bf
00000340: b135 aebd 32c5 73bf 9d63 c33e 0cca 823e
00000350: 671e c43c 93d7 35bf 1f49 ea3e f525 413f
00000360: e7f1 363f 7481 923e 2d53 c9be 8c62 843e
00000370: c27d 6b3e 9869 09bf d0fb 853e e1cb 043f
00000380: d7f8 12bf df98 d1be 210f b23c 4d35 34be
00000390: eb55 5c3f 1390 e73e 434c 48bf 5ff2 893f
000003a0: 05d1 fcbd 7b63 cdbe b978 433f 7803 8a3c
000003b0: 199f 04bd dda0 2f3d f6bf 643f b593 2a3e
000003c0: 91b7 23bf 813b 363f 46e6 4ebe 89dc 16be
000003d0: 9c17 573e 3f83 9a3d 47ca ca3d e9e1 863b
000003e0: ab4a 473e 6804 1fbe 4ff5 0d3f b10a 1ebf
000003f0: 0fea c13e c3bb 063f 7e34 90bf 682f 73be
0.64920694 -0.4519997 -0.64400506 0.3449781 -0.43282205 0.25855818 -1.0700148 0.9923146
0.023775343 -0.28536877 -0.29375237 -0.58178735 0.2996409 -0.16987203 -1.0741748 0.01635151
0.37199998 0.25901043 0.0368897 0.85399336 0.021689132 0.11514357 1.846979 0.4142892
1.4453956 -0.022219105 0.16755792 -0.54695976 0.5512162 -0.26915437 -0.24980447 0.27831033
0.77689713 -0.180588 -0.12289919 0.6292863 0.5226722 1.1037624 -0.36672708 0.3167301
-0.2905132 -0.68520314 0.5093676 0.567155 -0.8470662 -0.4232834 0.3780239 0.5152785
0.22864707 1.493006 0.10880614 0.8467845 0.35437945 -0.67946285 0.14935207 0.40011743
-0.64428693 1.0630279 1.3850269 0.15846664 0.19834836 0.7300115 -1.7313365 -0.309396
-0.0475433 -0.0026348687 -0.028111609 -0.21662156 -0.3069488 0.36470073 -0.4565493 0.039603017
-0.4323435 0.11214264 0.20918952 0.32565278 0.43230343 -0.5480595 0.072910815 -0.29571494
0.116271816 -0.7201606 0.17657623 0.23974802 -0.005029339 -0.88164043 1.0713542 0.2280638
-0.16488722 -0.25419927 -0.1738744 0.13932206 -0.21676485 -0.4453813 -0.6256683 0.522843
-0.41417137 -0.628526 -0.2819721 -0.27709204 0.7893261 -0.24807374 -0.36723244 0.3430051
0.20963332 -0.15867962 0.30654058 0.6032672 -0.4571781 0.1041195 -0.62450296 0.6575771
-0.5054952 -0.31742355 -0.054314688 -0.6251654 0.6542421 -0.3444496 -0.052780684 0.9041823
0.16111821 0.8922915 0.37381253 -0.6584524 0.5244987 -0.35918394 -0.4150137 0.32669023
0.29391873 -0.5341464 -0.8842029 0.059829872 0.54183 -0.08265001 0.33409876 -0.28524208
0.88252294 -0.19926423 -0.69185954 0.4654135 -0.209017 0.31643054 -0.5141943 0.4716907
0.9669673 0.5974603 -0.52285 0.07875902 0.20305721 0.4259895 -0.31795254 -0.2654614
-0.025574047 -0.38951445 -0.3026791 -0.84623533 0.49570528 1.2497412 0.70399684 -2.3821006
0.33407906 1.7955923 -0.15478395 1.1564434 -0.03574312 -0.5308072 1.4940437 -1.2355895
0.034902632 0.24548806 -0.3370235 0.1974538 0.50366795 0.1628721 0.28618047 -0.26339117
1.0816267 -0.031400967 0.17819513 -0.42449042 0.08959086 -0.7119379 -0.50281405 0.19625972
-0.49445242 -0.8404926 0.38312304 0.8995183 -0.1363095 -0.064054236 0.31566072 -0.5648096
0.14057337 -0.5722966 0.1364068 0.17691486 0.36994582 0.16774656 -0.53225785 0.3684939
-0.2062817 0.119902775 -0.09985761 -0.45280498 0.96832836 0.35873792 0.16587897 -0.51496637
-0.085063346 -0.9522277 0.38161936 0.25544775 0.023940278 -0.71032065 0.45758912 0.7544854
0.71462864 0.2861439 -0.3932127 0.25856435 0.22997192 -0.5367675 0.2616868 0.51873595
-0.5741095 -0.40936944 0.02173573 -0.17598458 0.860686 0.45227107 -0.78241366 1.0777091
-0.12344555 -0.4011496 0.76356083 0.016847357 -0.03237829 0.04287802 0.8935541 0.16657908
-0.63951975 0.71184546 -0.2020503 -0.14732565 0.210051 0.075445645 0.099018626 0.004116286
0.19462077 -0.15529025 0.55452436 -0.61735064 0.37873885 0.5263025 -1.1266019 -0.23748553

lstm.weight_hh_l0 f4 [512, 128]
00000000: c557 6b3f e3c2 813f 5210 373f 3005 eabd
00000010: 6696 923e fa81 b73d 707f dcbe 5efa 4bbf
00000020: a2ff 62bf 1420 0a3f d839 983f e453 c43e
00000030: 72ce 51bf db19 ea3f 3fb4 8a3e 58f9 92bf
00000040: 845a babe abf4 72be 7bc9 6cbf 9233 4abf
00000050: 91de 38be ed63 2a3f 62e3 f6bf 31f0 28bf
00000060: 8e6e 993f f661 edbf b1ca 3abf 4dd6 073f
00000070: f884 a0be f67a dcbd fa62 88bf a655 a53d
00000080: 4599 dfbe 68fb 543f d59e 3b3f 9bde 85bf
00000090: 0730 473f 68de 15bf de2f 10be 41c1 843f
000000a0: 8b4f 83bf 911e 99bf 105e 973f 9ab0 003f
000000b0: d030 babe 9e04 8ebc 893c e03e f5cf 62bd
000000c0: 35ca 3ebf 8442 b33e 44d3 203c b3bc adbe
000000d0: 1a5f 8f3c c38b 97bf ba3f 1d40 60e4 58bf
000000e0: 35f7 9fbe c4a1 58bf a1a5 113f 1c7d 14be
000000f0: 4ce9 233e c360 31bf d338 463d 6253 3fbd
00000100: 16d5 77bf 7531 e2be e791 7f3e 9d4d 633d
00000110: 8b6f 0cbf 319c 173f ea4d ac3f a0e5 5b3f
00000120: d6c5 0cbe a58b debe bc66 5e3d 4d89 e6bf
00000130: ad43 8fbf 54c0 61be 790a 5e3f 8584 2d3f
00000140: 2449 a6bf 6e11 1c3f 44d0 803e 70f0 f63e
00000150: d9a0 5dbe fca2 493e ecd4 e93e ac81 f43f
00000160: 3a96 723f aea9 d13f 1232 853f 0014 253f
00000170: f2be ac3f 175c 85be 88db 3b3f 9238 c43e
00000180: 4c77 61bf d919 3dbf 3ee1 7b3e b0ae 993e
00000190: a6b0 e5bf fc44 c53e a72e 503f 8147 693f
000001a0: cd47 abbf 8132 c93f 7fb7 8d3e 2e8e 413f
000001b0: c53f 6d3f 7467 c9be c025 02c0 e3bf ddbd
000001c0: 0b08 66be 510d 60bf 108a 893e 74fe b6bf
000001d0: ee2e 883e 4dd6 05bf 1669 0d3e a153 2fbf
000001e0: f887 65bf 756e e73e 2317 51bf 7d36 aa3e
000001f0: 829f 173f 7ada acbf fc8a 88be 0be4 c9bf
00000200: c119 5c3d 2ed0 0b3f f58e 2b3e e3e1 8d3f
00000210: d6f5 cebe 2fc1 4d3f e31b 1d3c 4347 bcbf
00000220: f986 2e3e 38d1 2b3f 7b54 ce3d a84d 7ebe
00000230: cb45 45bf 3d4d 69bf 7e31 393f 6361 4f3f
00000240: 115c a9bf 14aa 12be 02ee 013e fcfe 16bf
00000250: 2c19 9c3c f856 433f deb3 59bf 4022 9abe
00000260: f426 833f 8e4b 633e ea9a 07bf 0407 323f
00000270: c5a9 b7be 43b4 80be dd72 c03f 81c4 ac3c
00000280: f7f8 863f 4807 023f 2806 0abe f18e 33bf
00000290: 699d bb3e 0306 803e 2e7c 16bf 79df 2f3f
000002a0: be15 813f ad85 d2be 45fe ff3f f161 fc3e
000002b0: e713 c93f a34c 2bbe af42 0c3f 6c86 253e
000002c0: 4d0c 54bb c424 89bf c44e e03e 3872 683f
000002d0: 101c 1940 c872 8b3e 2421 963f d124 213e
000002e0: ad2b 7bc0 5f70 a13f a082 d6be beee 013f
000002f0: 8f92 543e ddda 72be ce7b 9e3e e790 03bf
00000300: 3891 7a3f 1428 2ebe 9e6c 193f c00f 003f
00000310: 4bdb 423f 5a0a c0bc 13bc b4bf a64d 21bf
00000320: f73d 32bd 6eab 32be c2a1 10c0 3768 093f
00000330: c254 be3d d29f 18bd a39d 8cbe 6ea3 96be
00000340: 9486 8fbe b4fb 773f e4fa a5bf cc73 50be
00000350: 92f8 bdbd 24a8 7f3e 75e3 503e 012d 9abe
00000360: 5498 34bf 8ccb 90bd 3745 4e3f 6cba 713e
00000370: 375f 87bd 09be a83f 6657 1c3f c033 cabe
00000380: f746 9fbf a8a6 a33e 895b 18bf 102c 46be
00000390: 9c04 1d3f 1721 97bf 8803 1abf 9a37 393e
000003a0: 43b0 a7bf b609 ccbf 467f 153f fb27 913f
000003b0: 39b7 24bf 3730 3b3f b206 19bf b469 36bf
000003c0: cff0 17bf a1ce dfbf 61a9 023e ef33 893f
000003d0: 25fe 57bf a23c 5f3f bfe8 dbbe 714c 58bf
000003e0: 1200 0f3f faf7 a73e 29e2 88bf b8ff 553d
000003f0: 4b64 25bf 9aa9 83bf 7a05 c3bf f322 b3be
0.919308 1.01376 0.7150928 -0.11426771 0.2863037 0.08960338 -0.43065977 -0.79678905
-0.88671315 0.539552 1.1892653 0.38345253 -0.81955636 1.828914 0.27090642 -1.1482344
-0.36397183 -0.23726146 -0.92494935 -0.7898494 -0.18053652 0.66558725 -1.9288142 -0.65991503
1.1986864 -1.854552 -0.7296553 0.5306137 -0.31351447 -0.107656404 -1.0655205 0.08072977
-0.43671623 0.83196115 0.73289233 -1.0458559 0.7780766 -0.5854249 -0.1408076 1.0371476
-1.025865 -1.1962453 1.1825581 0.5026947 -0.36365366 -0.017336186 0.43796185 -0.055374105
-0.74527293 0.35011685 0.009815995 -0.3393303 0.017501403 -1.1839527 2.4570146 -0.8472347
-0.31243291 -0.84621835 0.56893355 -0.1450085 0.16006964 -0.6928827 0.048394036 -0.04671038
-0.9680952 -0.44178358 0.24958001 0.05549394 -0.548577 0.59222704 1.3461277 0.85897255
-0.13747343 -0.43465915 0.054297194 -1.8010651 -1.1192528 -0.22046024 0.8673473 0.67780334
-1.2991071 0.60964096 0.25158894 0.48230314 -0.2164339 0.1969108 0.4567026 1.9102073
0.9476048 1.6379907 1.0405905 0.6448364 1.3495772 -0.2604682 0.73381853 0.3832441
-0.8807266 -0.73867565 0.24597642 0.30016088 -1.7944534 0.38529193 0.81321186 0.9112473
-1.3381287 1.5718538 0.2767906 0.75607574 0.9267543 -0.3933674 -2.033554 -0.10827615
-0.22464006 -0.8752032 0.26863146 -1.4296403 0.26598305 -0.5228012 0.13809618 -0.6848698
-0.89660597 0.4520146 -0.8167593 0.33244696 0.59227765 -1.3504174 -0.26668537 -1.5772718
0.0537355 0.5461453 0.16753753 1.108456 -0.40421933 0.803729 0.009589168 -1.4709247
0.17043675 0.6711612 0.10074707 -0.24834311 -0.7705962 -0.9113348 0.72341144 0.81007975
-1.3231221 -0.14322692 0.12688449 -0.58982825 0.019054972 0.7630458 -0.8504008 -0.30104256
1.0246263 0.2219679 -0.52970755 0.69541955 -0.3587171 -0.2513753 1.5035053 0.021089794
1.0544728 0.5079236 -0.13478911 -0.70139986 0.36643532 0.25004587 -0.58783233 0.6870037
1.008476 -0.41117612 1.9999472 0.49293473 1.5709199 -0.16728453 0.5478925 0.16164559
-0.0032355965 -1.0714345 0.43810093 0.90799284 2.3923378 0.2723601 1.1728864 0.157367
-3.9245408 1.2612418 -0.41896534 0.50754917 0.20759033 -0.23716302 0.3095383 -0.5139298
0.97877836 -0.17007476 0.5993136 0.5002403 0.76115865 -0.023442436 -1.4119896 -0.6300911
-0.043516126 -0.17448208 -2.259873 0.53674644 0.0929351 -0.03726179 -0.27464017 -0.29421562
-0.28032362 0.96868443 -1.2967191 -0.20356673 -0.09275927 0.24966484 0.20399268 -0.3011246
-0.70544934 -0.070700735 0.80574363 0.2360627 -0.06609958 1.3182994 0.6107086 -0.39492607
-1.2443532 0.31963086 -0.5951467 -0.19352746 0.6133516 -1.1806973 -0.6016164 0.18087617
-1.3100666 -1.5940464 0.5839733 1.1340326 -0.64342076 0.73120445 -0.5977584 -0.7125504
-0.5935182 -1.7484933 0.12759925 1.0718974 -0.8437217 0.87201893 -0.4295101 -0.8449164
0.5585948 0.3280638 -1.0694019 0.052245826 -0.6460616 -1.0286133 -1.5236046 -0.34987602

lstm.bias_ih_l0 f4 [512]
00000000: c5ef edbc 501f 973d 15d1 113f 1da7 8fbe
00000010: 2ad2 473f e847 163f d711 b03e a793 633e
00000020: 6e60 73be 4a7f f6be 7b02 c43e e72c 333e
00000030: 5957 ec39 61a1 1b3f ca20 ba3e d2ba 9d3e
00000040: cede 7c3e ec01 98be 3b0f bdbe 575a 98bc
00000050: f638 3e3f 21b2 afbe dde9 c83e 5619 e13e
00000060: 8f42 743f 472c acbd 7fe6 9a3f 51a9 b33e
00000070: 93a7 413f a8a3 ae3e 67b9 13bf 72e7 fa3e
00000080: f292 b73f 6f39 4bbe 06cb 883f 2cc3 c33d
00000090: 495b 04bf aac8 e0bc 8056 933f 5a80 103f
000000a0: ebd1 70bf 8996 6d3f 42bb f73d acd8 bfbe
000000b0: 224c 4e3f 51cb 8b3e 039b 4a3f 0882 063f
000000c0: 0be1 033f 1b93 a33d e30a 3c3e 4d60 523f
000000d0: 21fc eebe f717 913e 84e4 f13e 8870 463f
000000e0: 473e bcbe 175b 1b3e 4cf8 2ebe 57fd 0e3f
000000f0: ecba 893e 700c 563e b89a 95bd 3193 d7bc
00000100: 396b 37bf 57fc 843f cafc e43e 48dc 293f
00000110: 4047 4ebe b36b 433f 9bb6 d53c 2037 7e3d
00000120: 7e17 fc3e de35 28be 6bac 963e d2d6 283e
00000130: 9787 bc3e 4161 de3e b642 4f3f ee39 983e
00000140: 5f5e 22be ccbf 733e 9218 763e 8933 823e
00000150: 7154 543f 5738 493f e157 693e 9113 db3e
00000160: c1de 8c3f fdbe 4c3e 6fb4 f9be 147c 7e3e
00000170: c6c5 84bc d6b8 693f 863d ac3d 0848 b6bc
00000180: 7e50 ac3d 29ad 623e bd79 d93e 82f0 2e3e
00000190: 4d53 4d3f 4b0a 873e 09cb 3a3e 20a6 1ebf
000001a0: c6d4 b83c 2b45 333f bb8d eabe 39fa 9b3e
000001b0: c486 acbc 9f23 bdbe 3399 133e de7f 163e
000001c0: b4cb 0a3f 747b ad3e 8152 32bd 6ce7 843f
000001d0: 21fc 343f 8bf7 25be 31d7 c23e f552 2a3e
000001e0: a82b 84bb 6c43 a03e 267e 7e3d e4b3 5a3f
000001f0: df05 643e 94da 06bf 20c9 c63f 63e6 bb3e
00000200: 9ba5 4abc c49b bc3e 39bd 713e 064c 803c
00000210: 4b17 3d3e add0 ae3d 0c1b 4bbe 65a5 823e
00000220: bfea 84be a89a b23e 9dd9 df3e f0f0 543e
00000230: 803f 193e 44bf 433e 2502 52bc df0f df3d
00000240: ff3f 4a3d 93c1 a53d a364 6a3e f2e8 3a3e
00000250: 5fc8 343d 2391 d03d 230a af3e 9a4f 0a3e
00000260: ff5f a73e cf80 ef3e 51bd 1c3f 0889 5c3e
00000270: 6590 0f3e bb9c 0a3e 81ca 3a3f 2e2b d8bc
00000280: addd 0b3c fe29 b73e a61c 84bc 0e3c 5f3e
00000290: 966f 1b3e 0c05 933e 1a30 9e3b 4adf 2a3e
000002a0: 1ad4 793e b262 2e3d fba5 a93e d9f4 c13e
000002b0: 8492 89be dc1f b63d 24c4 f13e a0b3 ca3e
000002c0: ce14 9d3e bf22 ccbe 33ea 81be 253c d83e
000002d0: 5c46 983e 0994 bc3e c5e7 843e 4501 b7be
000002e0: 4cf1 043f bb39 553a 2413 0cba 8467 aabe
000002f0: 2c5b 863e c34d 2e3f c3d2 a83e cd11 a6bd
00000300: ec10 e23e 8335 423f 2d4e c33e 2cd7 c03e
00000310: 2e72 713e bc7e a73e 266c 573f ec49 4a3f
00000320: 6e44 e23d 0421 fa3d 77e0 bcbd b687 803e
00000330: 1a34 323f 628d a0be 307a d03d aae8 463e
00000340: 0706 59bd 8e48 563e 41c9 1ebe 6c29 c7bc
00000350: 93e4 4d3f 8283 a5be bbb6 cebe 3bf2 cdbd
00000360: e208 013f 1e5a 8e3e cdbc c33e 23ae ed3e
00000370: c6b4 593e ca7a 143f 31d2 df3e 7d4a 273e
00000380: 5de1 08be 4a6e 2dbe 9b25 293f 7477 94bd
00000390: 9f0f c23d 5c04 033f 350f b23e e50e 1e3e
000003a0: aa4c ac3e ad69 593e 6f9a 15bc 9032 ebbe
000003b0: 65cb f5be 8906 47bf 1e8d d93e 176e 2f3f
000003c0: afe0 a73e 51fe 44be bf92 0e3e d20a 5b3e
000003d0: 47cd 073e 32a1 093e 8eb1 be3e 3497 1a3e
000003e0: a8df 85be dc01 c33c 0623 663e bff9 a93c
000003f0: 1f6d c2bd 43fc 383f 898a 99be 72dc ba3d
-0.029044995 0.07379019 0.5695966 -0.28057185 0.7805506 0.5870347 0.3438861 0.22224294
-0.23767254 -0.4814399 0.38283142 0.17497598 0.00045078507 0.6079312 0.3635314 0.30806595
0.24694368 -0.29688966 -0.36925682 -0.018597765 0.74305665 -0.3431559 0.39240924 0.43964642
0.9541406 -0.08406883 1.2101592 0.35090116 0.7564632 0.34109235 -0.57704777 0.49004704
1.4341719 -0.19846128 1.0686958 0.095587105 -0.5170179 -0.027439434 1.1510773 0.5644585
-0.9407031 0.92807823 0.120962635 -0.37469995 0.8058492 0.27303556 0.7914278 0.5254216
0.51515263 0.079870425 0.18363528 0.82178193 -0.46676734 0.28338596 0.47244656 0.7751546
-0.36766264 0.15171467 -0.17086905 0.55855316 0.26900423 0.20903182 -0.07304901 -0.026315304
-0.71647984 1.0389508 0.44724113 0.6635175 -0.20144367 0.7633621 0.02608805 0.06206429
0.49236673 -0.16426799 0.2942842 0.16488197 0.36822197 0.43433574 0.8096117 0.29731697
-0.15856312 0.23803633 0.2403281 0.25429943 0.8294135 0.7860159 0.2278743 0.42788365
1.1005479 0.19994731 -0.48770472 0.2485202 -0.016207587 0.9129766 0.08410172 -0.022251144
0.0841379 0.22136368 0.4247569 0.17083934 0.8020523 0.2637504 0.18241514 -0.61972237
0.022562396 0.70027417 -0.45811257 0.30464342 -0.021060355 -0.3694124 0.1441391 0.14697215
0.54217076 0.3388325 -0.043535713 1.0383124 0.7069722 -0.16207711 0.38054803 0.16633208
-0.0040335245 0.3130144 0.062132023 0.8543074 0.22267865 -0.52677274 1.5530128 0.3669921
-0.012368585 0.3683759 0.23607339 0.01566125 0.18465917 0.085358955 -0.19834536 0.2551681
-0.25960347 0.34883618 0.43720713 0.20795035 0.1496563 0.19115931 -0.012817894 0.10891699
0.049377438 0.08093562 0.22889952 0.18252924 0.0441364 0.10183933 0.3418742 0.13506928
0.32690427 0.4677796 0.61226374 0.21536648 0.14019926 0.1353635 0.72965246 -0.026387777
0.008536738 0.35774225 -0.016126942 0.21800253 0.15179285 0.28714788 0.0048275115 0.1668674
0.24397317 0.042574592 0.33134446 0.37882116 -0.26869595 0.088927954 0.47219956 0.39590168
0.30679935 -0.3987026 -0.25373992 0.42233387 0.2974118 0.36831692 0.25958076 -0.35743156
0.5193069 0.00081339077 -0.00053434283 -0.332821 0.26241434 0.68087405 0.32973298 -0.08108864
0.44153535 0.758629 0.3814558 0.37664163 0.23578712 0.32713878 0.84149396 0.79019046
0.11048208 0.122133285 -0.09222501 0.2510354 0.6961075 -0.31357867 0.101795554 0.19424692
-0.052984264 0.20926115 -0.1550646 -0.024311744 0.804269 -0.32326895 -0.40373787 -0.100559674
0.5040418 0.2780313 0.3822998 0.46421918 0.21260366 0.5799986 0.4371505 0.16337009
-0.1336722 -0.16936603 0.66073006 -0.072493464 0.09475636 0.51178527 0.34777227 0.1543537
0.3365224 0.21231718 -0.009131058 -0.45937014 -0.4800674 -0.77744347 0.42490476 0.6852736
0.32788607 -0.19237639 0.13923167 0.21390846 0.13261901 0.13440397 0.37244838 0.15096742
-0.261472 0.023804598 0.22474298 0.020748971 -0.094934694 0.7225992 -0.29988506 0.09124078

lstm.bias_hh_l0 f4 [512]
00000000: 3814 14bd d431 833d dd63 193f 0628 94be
00000010: 6509 3e3f 4a83 163f 44ea b33e 6944 8c3e
00000020: 61ff 34be 2dfc 06bf 35d0 b43e d23d a83d
00000030: 46b6 2b3d df70 053f 00c8 ad3e 7596 873e
00000040: d672 963e 27c1 7fbe bb32 a5be 1915 43bc
00000050: 585d 3f3f a73e 8fbe ece6 cd3e 00d3 b23e
00000060: a1b4 823f 7c80 13bd f363 993f 1f22 be3e
00000070: 4dd0 313f a3ac a93e e25f 20bf 3b7e 0f3f
00000080: bf9b bb3f 0fda 20be 7405 893f 522d f13d
00000090: 61ff 0bbf 144b 64bd b43f 8f3f 56e2 0b3f
000000a0: c6fb 69bf 902e 7a3f 39db b63d c884 b6be
000000b0: 3f0d 523f 9b4c 5e3e 21a7 5a3f 0984 f03e
000000c0: 207c e03e 0990 ec3d c1bc 7f3e 7ef1 513f
000000d0: 74e0 e4be bde5 9a3e 420b d03e b96c 5a3f
000000e0: 1f08 92be 1b28 f23d 0cb7 48be 2a12 103f
000000f0: 5812 923e b145 4b3e 26f9 10be 5bcf 75bd
00000100: 6503 45bf 4487 843f 7d19 f13e a6ac 213f
00000110: e073 4dbe 8d45 413f 36b3 133d 1091 883d
00000120: 4ac5 f73e 454e 39be 7813 973e 83c2 203e
00000130: 1a87 cf3e cc5b d83e 2eb2 533f 8613 6a3e
00000140: 40a2 b8bd e1a6 3c3e 1bd9 553e dfc3 6a3e
00000150: dd9c 533f d4e3 5a3f 8ad5 653e 0551 de3e
00000160: 5430 903f b11c 6b3e 9ad6 dfbe 309d a23e
00000170: 624c c8bc a011 703f 553b 013e 6cea 7f3c
00000180: 80b2 cd3d f7fe 983e a5b1 cc3e 9786 013e
00000190: 9944 5d3f defc 893e fd99 673e 4568 23bf
000001a0: b0bd f5bc 3c88 373f c7d0 f9be e5aa ba3e
000001b0: 6246 05bc 2c77 9cbe 8c80 183e d5f2 d93d
000001c0: 4c5f e43e e959 9f3e 2b91 90bd 9e0f 7d3f
000001d0: 47d9 373f 2f51 80be 275c c33e 4d56 2f3e
000001e0: e6dc 83bd 5baa 9e3e a14b fe3d e3b4 603f
000001f0: 4ee0 5b3e 9b83 00bf 4334 bc3f 4ec2 c33e
00000200: 2fc1 92bc 2e41 983e 71cb 713e 8aae 9a3d
00000210: cd03 7e3e 6dea 223d 42e4 5cbe 5b04 803e
00000220: 2a04 7bbe 7672 a43e a32e f43e 890f 563e
00000230: fc27 0e3e 45d4 4b3e 896a 983c 931d b93c
00000240: 56ed 9e3d 24c4 4c3d 6110 963e 73d8 423e
00000250: 12f3 543d e508 243d 42b8 903e 7e01 143e
00000260: f602 9a3e ed72 d43e 3ba9 1e3f 8f0b 823e
00000270: 87a8 0e3e 193e 1a3e 2646 3a3f 2574 333d
00000280: ecbc 023d 8ca5 9b3e 8fb1 183d ab7a 673e
00000290: 8cb5 183e 4eba 543e c5ba dbbc 9194 4e3e
000002a0: cb12 933e f6d3 253c 68e5 d43e dcf7 cb3e
000002b0: c7f9 92be 4d30 fb3d e0a2 073f dab8 e23e
000002c0: c9df 913e 008c d2be f76a 6fbe 8aaf d53e
000002d0: b813 a93e 3a55 d03e 3d91 5f3e 567c c0be
000002e0: 6169 0a3f c3ad ea3c 2b9e f9bc 619e b3be
000002f0: 7e42 713e 563a 3a3f 5642 903e cd91 85bc
00000300: cb38 ee3e ef3e 413f a59e bc3e 9bb9 e03e
00000310: 1e2a 833e c615 8c3e e848 493f ed05 4d3f
00000320: 7c11 953d 07b8 e43d ad6a 90bd 64e2 823e
00000330: 69b2 393f 6815 93be aedf 7c3d b554 cf3d
00000340: e195 e7bd ddc6 413e 3226 aabd bad1 753b
00000350: c3f2 613f 552f 9ebe 1b25 babe 5460 0ebe
00000360: 5eac 043f ce9b 9d3e 9ef3 b23e d045 e13e
00000370: 1086 403e 98ab 0f3f 0d81 f23e f331 183e
00000380: df36 23be 78ec 3dbe 52b3 333f f978 d7bd
00000390: 8acd c73d 4e53 013f b8f1 b43e 6b77 393e
000003a0: 6ee2 a93e aed5 533e 713b 80bd 2daa f1be
000003b0: a7cb 09bf 80b6 48bf 11c0 ec3e 811c 2f3f
000003c0: 3210 763e 4d89 d8bd 2d3c 153e 13f6 903e
000003d0: d4cb 4b3e d4ee 4e3d 96a6 eb3e 61c5 113e
000003e0: b24e 6cbe 0ddf 473d 2499 5d3e a147 3bbb
000003f0: 9b78 08bc cc4b 303f 4f8c 9bbe 05e0 b13c
-0.036152095 0.06405988 0.59918004 -0.28936785 0.74233085 0.5879408 0.35139668 0.27395943
-0.17675544 -0.5272854 0.353151 0.08214916 0.041921876 0.5212535 0.3394165 0.26481977
0.29384488 -0.24976026 -0.32265267 -0.011906886 0.74751806 -0.27977487 0.40215242 0.34926605
1.0211374 -0.036011204 1.1983627 0.37135407 0.69458467 0.33139524 -0.62646306 0.5605199
1.4656905 -0.15708183 1.0704789 0.11776222 -0.5468655 -0.055735663 1.1191316 0.54642236
-0.913998 0.977273 0.08928532 -0.3564818 0.8205146 0.2170891 0.8541127 0.46975735
0.438447 0.1155091 0.24974348 0.8200911 -0.44702494 0.302534 0.4063359 0.8532215
-0.2852182 0.11824056 -0.19601077 0.56277716 0.2852962 0.19850804 -0.14157543 -0.060012203
-0.76958305 1.035378 0.4708976 0.63154066 -0.20063734 0.7549675 0.03605958 0.066682935
0.48392707 -0.18096264 0.2950704 0.156992 0.40532762 0.42257535 0.82693756 0.2285901
-0.09015322 0.18423034 0.208836 0.22926281 0.8266123 0.8550389 0.2244474 0.43421188
1.1264749 0.22960164 -0.43718415 0.3176055 -0.024450485 0.93776894 0.1262029 0.015619855
0.10043812 0.29882023 0.39979282 0.12648998 0.86432797 0.26950735 0.22617336 -0.6383098
-0.029997677 0.7169225 -0.48792097 0.36458507 -0.008134456 -0.3055967 0.14892787 0.1064202
0.44603956 0.31123284 -0.070589386 0.98851955 0.71815914 -0.25061938 0.38156244 0.17122765
-0.064386174 0.30989346 0.12416769 0.8777601 0.21472284 -0.50200814 1.4703449 0.3823418
-0.017914383 0.29737228 0.23612763 0.07552822 0.24806137 0.039774347 -0.21571448 0.25003323
-0.24513307 0.32118577 0.4769183 0.20904364 0.1388244 0.19905193 0.018605487 0.02259711
0.07760112 0.04999174 0.2930937 0.19027881 0.051989622 0.040047545 0.28265578 0.14453694
0.30080384 0.4149393 0.61976975 0.25399444 0.13931476 0.15062751 0.7276329 0.043811936
0.03191845 0.3039974 0.037278708 0.22605388 0.14913005 0.20774195 -0.026822457 0.20173861
0.28725275 0.010121336 0.41581273 0.3983754 -0.2870619 0.12265072 0.529829 0.44281656
0.28491047 -0.41122437 -0.23380648 0.41735488 0.33022857 0.40690023 0.21832748 -0.3759486
0.54067045 0.02864731 -0.030470928 -0.3508177 0.23560521 0.72745264 0.2817561 -0.016304875
0.46527705 0.75486654 0.36839786 0.43891606 0.2561807 0.27360362 0.7862687 0.8008717
0.072787255 0.11167913 -0.07051597 0.25563347 0.7253786 -0.2872727 0.061736755 0.101235785
-0.11307884 0.18923517 -0.083080664 0.003750904 0.8826105 -0.30895486 -0.36356434 -0.13903934
0.5182551 0.30782932 0.3495149 0.43998575 0.18801141 0.56121206 0.47364083 0.14862804
-0.159389 -0.18547237 0.70195496 -0.105211206 0.09756 0.5051774 0.35340667 0.1811196
0.33180565 0.20686981 -0.062613375 -0.47200146 -0.53826374 -0.7840347 0.46240285 0.6840287
0.24029616 -0.10573063 0.14573736 0.2831274 0.19901973 0.050520733 0.46025532 0.1423545
-0.23076895 0.048796702 0.2164045 -0.002857663 -0.008329536 0.68865657 -0.30380484 0.021713266

fc.weight f4 [89, 128]
00000000: c872 0dc0 e701 09bc 1901 5ebf 52c3 1abd
00000010: 2220 053f fb00 73bf e7c6 473f 8081 d0be
00000020: f1e3 20bf 20cb b13e 125a b33f e62c ca3f
00000030: 3887 e33d fb02 a5bf aa6f 4f3f 45ff d33f
00000040: 672c 0a3f df22 283e 3363 8dbf 9c34 d23f
00000050: e511 813f 3944 0240 050a 3abf 4dfd 5bbd
00000060: 6328 713c c3ca b8bf 76a8 2a3d 957d 0c40
00000070: 0081 e23e 6640 053e 467f 023f b3ff 67bf
00000080: 49ac 663f f850 19c0 d8db 0740 a472 893f
00000090: 140f b83d 949b 973f 8147 c0be 8caa 733e
000000a0: 51e8 2abf 481a c23e 3b34 073f 5b09 5a3f
000000b0: 6dcc 773f 04ed 99bf d090 723e 653f 38be
000000c0: 8e55 933e 5e38 133e 3093 a6bf ef2b f93e
000000d0: 8054 fb3e 18d1 313f 95f3 47bf c217 d83e
000000e0: 32c1 96be db98 efbf 1afb 8d3f 4f20 263f
000000f0: c19d ad3e 9150 d63e 055a acbe 63a8 dc3d
00000100: d041 6fbe f94b 91bf 20f8 c6be 407b 3d3d
00000110: 877c b0bf 050d 88bf e5b5 8abf 7ef4 d53f
00000120: 9641 44be 5916 24bc cb90 b6bf c99f 263f
00000130: 8f2c 5bbf 946c b3be 0c1d a9bf 8449 a1be
00000140: 4258 3ebf e318 24bf 3d4d bfbe 95a1 d93f
00000150: 84aa 053e fc2d 1f3f 81b2 cc3f d193 18bf
00000160: fb92 febd 2cab a9be cb9a d6bf 743a 0cc0
00000170: 98d0 b6bf be7c 063f cc09 763f f3f0 b8be
00000180: 01e5 133f 07e2 743f 8e2e 223f 8883 813e
00000190: 8778 1abf d90b 8dbf ce4c b33e e17e a03e
000001a0: 9ef5 14bf 352d 0cbb 9b14 46be abb2 7dbf
000001b0: cc39 17be 9010 74bf c418 0d40 51ec 2840
000001c0: ebcb 16c0 fb46 e23f 2d1d 7e3f f019 b93f
000001d0: fa52 15bf 889f 8cbf 7faa 5cbe 5492 ecbf
000001e0: a0df 4f3f 82a4 663f c9d0 0fc0 7212 acbe
000001f0: d216 f8be 00eb e83e 4e07 9bbf be1e 9b3e
00000200: fb9d 3ebf 88b7 19be 6fc3 c3bf 6465 77bf
00000210: ca1c 9e3f 35aa 043f ea19 e43d c4f2 943e
00000220: 0fd1 75bd 09dd 3abf 3873 9d3d 6d11 aebe
00000230: 7766 053f 4ec1 6ebd ae53 48bf 0de0 95be
00000240: f61f 1e3f 399f 0b3f 97f2 86bf c4e6 8c3f
00000250: f938 fabe 5488 56bf 010d 2e40 5ca8 a4be
00000260: c519 4c3d cc14 4b3f 984a e53e c119 b7bf
00000270: 2abb e2bd 2358 06be f7b5 ae3e 67bb 80bf
00000280: 24fa 3640 2d7c 1cbf b9b8 a9bf adbd a8be
00000290: 7f1b f8be 6395 5fbf 99d3 1b3f 8557 2c3d
000002a0: fce6 1d3f 01c4 0240 0aec a8bf 2403 693d
000002b0: 1b20 39be be54 05bf f051 2d3f 09d1 17bf
000002c0: 486c 56bf 168f 84be 652c e9be 609c 823f
000002d0: 32e1 203f cd20 603f 8fd6 88bf d377 553d
000002e0: 96e2 0a3f e1b8 bf3e 3c2c 583f 2115 c8bf
000002f0: 3850 d53e e54e e33d a76d 823f 792f 2a3f
00000300: 05d4 57be 56c8 913e cb19 ccbd 59a3 013f
00000310: 45bb cebf 3cf9 12bf 3013 1b3f 6027 193f
00000320: ec39 69bf 1ed8 cd3d b4f3 0e3f 0afb 483f
00000330: bcf6 ddbf 1d69 e4be 6a42 583e 7508 81bf
00000340: 7f31 2dbf 607e 20bf b199 4e3f 7a1c 573f
00000350: 2fcc 59be 2178 3fbf f78f 1d3f a63d e2bd
00000360: 1d36 bbbe bfec 65be 5475 5c3f 533d 56bf
00000370: 7413 493f 484d a63f 012c 953f 8e78 62be
00000380: d2d3 dbbe 620c a9bf 9349 ebbe 1d87 0bbf
00000390: e0e0 bebf 0c72 44bf 64dd 06bf 4c65 92be
000003a0: 6e8e 963e 0141 633f 3f3b 6ebf de01 893e
000003b0: a414 a83f a941 923f 3790 8ebf 3aa2 5cbe
000003c0: bc59 0bc0 f2a5 3c3f 5ad8 483e 1df3 84bf
000003d0: 666d e0bf 2813 9cbe 47d5 a0bf 5b8d 3b3e
000003e0: b669 be3e d00c 54bf 1bde 4f3e b14f 4b3f
000003f0: b649 f03d 1ca3 ba3e 3dfc babf b31a b9be
-2.2101307 -0.00836227 -0.86720425 -0.03778393 0.52002156 -0.9492337 0.78037876 -0.407238
-0.6284781 0.34725285 1.4011862 1.5794952 0.11109775 -1.2891535 0.8102976 1.6562277
0.53974 0.16419552 -1.1045898 1.6422305 1.0083586 2.035414 -0.7267154 -0.053708363
0.014719102 -1.4436878 0.041664563 2.195165 0.44239044 0.13012847 0.50975454 -0.9062454
0.90106636 -2.395567 2.1227932 1.073811 0.08987251 1.1844354 -0.37554553 0.23795527
-0.66760737 0.37910676 0.5281407 0.85170525 0.96796304 -1.2025456 0.23688054 -0.17992933
0.2877621 0.14376971 -1.3013668 0.4866633 0.49087906 0.69459677 -0.7810605 0.42205626
-0.2944427 -1.8718523 1.1092255 0.6489305 0.3390942 0.41858342 -0.3366243 0.10774305
-0.23364949 -1.135131 -0.3886118 0.04626012 -1.3788003 -1.0628973 -1.083676 1.6715238
-0.19165644 -0.010015094 -1.4262937 0.6508756 -0.85614866 -0.35043776 -1.3211989 -0.315014
-0.7435342 -0.64100474 -0.37363616 1.7002436 0.13053328 0.6217954 1.5991975 -0.5960055
-0.12430378 -0.33138406 -1.6765989 -2.1910677 -1.4282408 0.5253409 0.961087 -0.3612133
0.5777131 0.9565739 0.63352287 0.25295663 -0.6034016 -1.1019241 0.35019535 0.313468
-0.5818728 -0.002138925 -0.19343798 -0.9910075 -0.14768142 -0.9533777 2.2046366 2.6394236
-2.3561962 1.7677912 0.9926327 1.446104 -0.5832974 -1.0986185 -0.21549414 -1.8482156
0.812006 0.9009477 -2.2471182 -0.33607823 -0.4845491 0.4549179 -1.2111604 0.30296892
-0.7445981 -0.15011418 -1.5294017 -0.96639085 1.2352536 0.51822215 0.11137755 0.29091465
-0.060013827 -0.7299352 0.07687992 -0.3399767 0.52109474 -0.05828982 -0.78252685 -0.292725
0.6176752 0.5453983 -1.0542783 1.1007924 -0.48871592 -0.8380177 2.7195437 -0.32159698
0.049829263 0.7932861 0.44783473 -1.4304734 -0.11070855 -0.13119559 0.34123203 -1.0057191
2.8590174 -0.6112698 -1.3259498 -0.3295721 -0.48458478 -0.8733732 0.6086975 0.042075653
0.6168058 2.0432131 -1.3197033 0.05688776 -0.18078654 -0.5208243 0.6770315 -0.5930334
-0.83758974 -0.25890416 -0.45541683 1.0203972 0.6284362 0.8755005 -1.0690478 0.052116226
0.5425199 0.3744574 0.84442496 -1.5631448 0.41662765 0.11099032 1.0189713 0.6647869
-0.21076973 0.28473157 -0.09965857 0.50639874 -1.61509 -0.5741155 0.6057615 0.59825706
-0.91104007 0.10050987 0.5584061 0.78508055 -1.7340922 -0.44611445 0.21119085 -1.0080706
-0.6765365 -0.6269283 0.80703264 0.84027827 -0.21269296 -0.7479268 0.615478 -0.11046915
-0.36564723 -0.22453593 0.8611653 -0.83687323 0.7854531 1.2992334 1.1654054 -0.221163
-0.42935044 -1.3206904 -0.4595457 -0.5450304 -1.4912376 -0.7673652 -0.52681565 -0.28592908
0.2940554 0.88771063 -0.9305915 0.26759237 1.3131299 1.1426288 -1.1137761 -0.2154626
-2.177352 0.7369071 0.19613782 -1.0386692 -1.7533386 -0.30483365 -1.2565087 0.18315642
0.37190026 -0.8283205 0.2029957 0.79418474 0.11732809 0.36452568 -1.4608227 -0.36153182

fc.bias f4 [89]
00000000: db2a 8bbe b064 c9bf 7f31 c6bf c40d cbbf
00000010: 5f7b c2bf d921 c9bf d7f7 c9bf 3303 c2bf
00000020: e109 c1bf 467e cbbf 2001 bebf 6c99 c0bf
00000030: 90fe c2bf e799 c9bf a622 c7bf 85cc c8bf
00000040: c934 c9bf 74fd c1bf c26e c5bf 47d4 bcbf
00000050: 562f c6bf b0e1 bbbf fd89 c3bf 63cc c7bf
00000060: 7a3f b7bf 1626 c4bf dec9 bdbf 0cc2 c4bf
00000070: 2f0b bfbf ff1c c7bf f1a8 c2bf 8de7 c4bf
00000080: 6f67 cabf 6cf2 c3bf e8ae c7bf 17cf 92be
00000090: a462 1f3e c620 a5be 036c 593d 3a0e 13bf
000000a0: 6a08 503f f8f7 7d3e b61b 46bf f539 abbf
000000b0: 746a c7be 202e edbf 2637 95bf 5861 c43f
000000c0: 8035 0ebe 8259 7abd 1c70 23bf b58c 003f
000000d0: bf2a 903e 1e43 713f 2528 0ebd be9a 81bf
000000e0: c768 5a3f 92cb 44bd 6047 a63d 9569 52bd
000000f0: 536c 57c0 cfa3 02bf cccd 413e 6c68 3dbe
00000100: 5deb c73e fbfc cdbe ceaa 87be cfbc bbbf
00000110: 65e1 c5bc 582b bcbf ee4f c1bf 07ba ccbf
00000120: 88a0 c4bf 9cb3 c2bf fe8c cabf 0c1e c5bf
00000130: 8524 bbbf 70fd b8bf 1647 c5bf 3c38 c2bf
00000140: 43f7 b9bf e574 c0bf f196 ccbf 9ac7 c3bf
00000150: ed5c cdbf 2014 c4bf 5186 c5bf 0957 bebf
00000160: 891d bdbf
-0.27181134 -1.5733852 -1.5483855 -1.5863576 -1.51939 -1.5713454 -1.577876 -1.5157226
-1.508114 -1.589791 -1.4844093 -1.5046821 -1.5233936 -1.5750092 -1.5557449 -1.5687414
-1.5719234 -1.5155473 -1.5424426 -1.4752282 -1.5483196 -1.4678249 -1.5276486 -1.5609249
-1.4316247 -1.5324123 -1.482723 -1.5371718 -1.4925288 -1.5555724 -1.5207807 -1.5383164
-1.5812815 -1.5308356 -1.5600252 -0.28673622 0.15564972 -0.32251567 0.053081524 -0.57443583
0.8126284 0.24801624 -0.77386034 -1.3377062 -0.38948405 -1.8529701 -1.1657455 1.5342207
-0.13887596 -0.061120518 -0.6384294 0.502147 0.28157613 0.9424304 -0.034706254 -1.0125349
0.8531613 -0.048045702 0.081190825 -0.051370222 -3.3659866 -0.510312 0.18926162 -0.18496865
0.39046755 -0.4023207 -0.264975 -1.4666995 -0.024155328 -1.4700727 -1.5102518 -1.5994271
-1.536149 -1.5211062 -1.5824277 -1.5399795 -1.462052 -1.4452343 -1.5412319 -1.5173411
-1.4528583 -1.5035673 -1.5983564 -1.5295289 -1.6043984 -1.5318642 -1.5431615 -1.4870311
-1.4774638
